Exp3_MPE/parameters_save/simple_adversary/actor_params.pkl (torch_old, 39275 bytes, 8 tensors)

fc1.weight f4 [64, 12]
0	0x3e9e1c25	0.30880848
1	0x3d088832	0.03333301
2	0xbe8416ab	-0.25798544
3	0xbcbc29ac	-0.02296909
4	0xbdce1769	-0.10063059
5	0xbc87e600	-0.016589165
6	0x3ddb0590	0.1069442
7	0xbe847b05	-0.25875106
8	0xbe35a895	-0.1774009
9	0x3e477330	0.19477534
10	0x3e84c21d	0.25929347
11	0xbd868c1a	-0.06569691
12	0x3e0dea88	0.13858998
13	0xbe19e263	-0.15027766
14	0xbdfdd689	-0.12394435
15	0x3d807dc8	0.06273991
16	0xbed0f5a0	-0.40812397
17	0xbcb09301	-0.021554472
18	0xbc96df06	-0.018416893
19	0xbecef2e1	-0.40419677
20	0x3de7a8db	0.113115035
21	0xbd879ae4	-0.0662134
22	0xbebd29c5	-0.3694593
23	0xbcffeccf	-0.031240849
24	0xbeb13587	-0.3461115
25	0xbe5f0d8c	-0.21782511
26	0xbd1cd4c5	-0.03828885
27	0xbe08dc42	-0.13365272
28	0xbce837aa	-0.028346855
29	0x3dca39b2	0.09874286
30	0xbe1f531c	-0.15559047
31	0xbd7cf817	-0.061760034
32	0x3e5b5b5d	0.21421571
33	0x3c85eb04	0.016347416
34	0xbe9bce50	-0.3043084
35	0xbe73ed10	-0.23820901
36	0x3e063960	0.13107824
37	0x3e4de8d3	0.20108347
38	0xbd35787a	-0.04430435
39	0x3dda516f	0.106600635
40	0x3da14934	0.078752905
41	0xbe64be9e	-0.2233834
42	0xbd7aa198	-0.061189264
43	0xbe862a88	-0.26204324
44	0xbe60ccda	-0.21953145
45	0xbe3a3e43	-0.18187813
46	0x3e6a6a9b	0.2289223
47	0x3e79b12b	0.2438399
48	0x3e044c73	0.12919788
49	0x3e97a6a3	0.2961932
50	0xbd262313	-0.040560793
51	0xbd22c3dd	-0.03973757
52	0x3ce1a4d6	0.02754442
53	0xbdf64c0e	-0.12026225
54	0x3e3ce078	0.18445003
55	0x3d802238	0.06256527
56	0xbe658778	-0.22414958
57	0xbc8b8d3f	-0.017035125
58	0xbd2bac57	-0.041912403
59	0xbe640211	-0.22266413
60	0xbe43bed1	-0.1911576
61	0xbe4010fb	-0.18756478
62	0xbdd3a604	-0.10334399
63	0x3e5fc7af	0.21853517
64	0xbcbd33b5	-0.023095945
65	0x3e738885	0.23782547
66	0xbe14a92e	-0.14517662
67	0xbe3a9bc4	-0.18223482
68	0x3d7df7a0	0.06200373
69	0x3da46368	0.08026773
70	0x3e04075c	0.12893432
71	0x3da9a9ed	0.08284364
72	0x3d61d85b	0.055137973
73	0xbd8f6098	-0.07000846
74	0x3e6dbb33	0.23215942
75	0xbe82c1df	-0.25538537
76	0xbc8f28a5	-0.017475436
77	0x3e19e65c	0.15029281
78	0x3e8ccd19	0.27500227
79	0xbe68b9e6	-0.22727165
80	0xbe60c53f	-0.21950243
81	0x3e738708	0.23781979
82	0x3da66701	0.08125115
83	0xbe840d73	-0.2579151
84	0xbb3f8b22	-0.0029227217
85	0xbe4f024c	-0.2021572
86	0x3e73a979	0.23795117
87	0x3dcaf08e	0.099091634
88	0xbe815116	-0.25257176
89	0xbb9567f4	-0.0045595113
90	0xbe72bf5b	-0.23705809
91	0x3e32c8c4	0.17459399
92	0x3d671ad1	0.05642206
93	0x3e7d71a7	0.24750386
94	0xbe33f8fb	-0.17575447
95	0x3cb20d83	0.021734959
96	0xbe76b671	-0.24093033
97	0x3dcd0aa1	0.10011793
98	0xbe8f6793	-0.28008708
99	0x3e083780	0.13302422
100	0xbe1eb480	-0.15498543
101	0xbd580bf1	-0.052745763
102	0xbe809b53	-0.25118503
103	0xbec11ea0	-0.37718678
104	0xbe0a6f37	-0.13518988
105	0x3e0ed9ba	0.13950244
106	0x3ca4edcc	0.020132922
107	0xbd92e590	-0.07172692
108	0x3c13de20	0.009025127
109	0x3e232f8b	0.15936105
110	0x3e3c9ef0	0.18420005
111	0x3e713b7b	0.23557846
112	0xbea7cf03	-0.32775125
113	0xbe202783	-0.15640073
114	0x3d70fe40	0.05883622
115	0xbd3f4c6c	-0.04670374
116	0xbc33f0f7	-0.010982743
117	0x3c8bad62	0.017050449
118	0xbe4374cc	-0.19087523
119	0x3d8b6f51	0.06808341
120	0x3e5e3df9	0.21703328
121	0xbe875a23	-0.26435956
122	0xbe14cefb	-0.14532082
123	0x3c0e48b2	0.008684324
124	0x3e4c6c03	0.19963078
125	0x3e1c9d6d	0.15294428
126	0xbe375465	-0.17903288
127	0xbe8ebf2f	-0.27880237
128	0xbd47ca6d	-0.048777033
129	0x3cf2bb48	0.029630318
130	0x3e7ddf34	0.24792176
131	0x3d7829ab	0.060586613
132	0xbeba2f91	-0.36364415
133	0x3d434909	0.047677074
134	0x3e3810a0	0.17975092
135	0x3d7631bb	0.06010602
136	0xbce71efe	-0.02821302
137	0x3e3afcbf	0.18260477
138	0xbe531e90	-0.20617127
139	0xbe58a2ec	-0.211559
140	0x3dc1565d	0.094403006
141	0x3e00f003	0.12591557
142	0xbbcbc2f1	-0.006218307
143	0x3e208563	0.15675883
144	0xbd9e49c7	-0.07728916
145	0xbe6754ce	-0.22590944
146	0xbd337454	-0.04381211
147	0x3e3d56bb	0.18490116
148	0xbe369523	-0.17830329
149	0x3beba858	0.007191699
150	0x3e26382c	0.16232365
151	0x3e9ec868	0.31012273
152	0xbe06207f	-0.13098334
153	0x3dbb23fe	0.09137724
154	0xbde8be0c	-0.113643736
155	0x3cb01eb0	0.021499008
156	0x3d926a80	0.071492195
157	0xbe85ef05	-0.2615892
158	0x3da5636f	0.08075606
159	0xbea5dab2	-0.32393414
160	0xbe802e98	-0.25035548
161	0xbe0de198	-0.13855588
162	0xbe2c392b	-0.16818683
163	0xbe6f8c77	-0.23393427
164	0xbca2967f	-0.019847153
165	0xbe13361d	-0.14376111
166	0x3d95ad00	0.07308388
167	0xbdc40b65	-0.09572486
168	0x3d800e22	0.062526956
169	0x3ec31ff3	0.38110313
170	0x3ebd0988	0.36921334
171	0x3d1362e9	0.035983
172	0x3ddebb94	0.108756214
173	0x3ea296d7	0.31755707
174	0xbdea8a26	-0.11452131
175	0x3e3ad46a	0.18245092
176	0x3d51740f	0.051136073
177	0xbbc81a8a	-0.0061066793
178	0x3e39a58d	0.18129559
179	0x3e323702	0.17403796
180	0xbdac46c4	-0.08411935
181	0x3ec64a64	0.3872863
182	0x3d391721	0.045188073
183	0xbe11a8e2	-0.1422458
184	0x3ea08a85	0.31355682
185	0xbde0612f	-0.10956036
186	0xbcb0d305	-0.021584997
187	0x3e3bc4ef	0.18336843
188	0x3ddc7ca5	0.107659616
189	0xbd962417	-0.07331102
190	0x3eb2c99e	0.34919447
191	0xbcfc56ff	-0.030803202
192	0xbc6da12f	-0.014503761
193	0x3d918f4d	0.071074106
194	0xbd96ef83	-0.07369902
195	0x3e98066e	0.29692405
196	0x3dbb3916	0.09141748
197	0xbda8590c	-0.08220109
198	0x3dd4b679	0.103863664
199	0xbdf63091	-0.12020982
200	0x3eabc1ea	0.33546382
201	0x3da26b4b	0.07930621
202	0x3eadcd4d	0.33945695
203	0xbd0d5499	-0.034504507
204	0xbe3db799	-0.18527068
205	0xbce4687d	-0.027881855
206	0x3c4d7fd3	0.012542683
207	0xbdb0f566	-0.08640556
208	0xbdd17584	-0.102274925
209	0xbcded4f4	-0.027201153
210	0x3e8c798f	0.27436492
211	0xbe8dfc0a	-0.27731353
212	0x3e37cb56	0.1794866
213	0x3e3e00e6	0.1855503
214	0xbd14a066	-0.03628578
215	0x3c5c8c81	0.013461233
216	0xbd9e376e	-0.07725416
217	0x3dd6ded8	0.10491723
218	0xbe4ea67f	-0.201807
219	0x3e5e3738	0.21700752
220	0x3d1c9d70	0.03823608
221	0xbd3b36dc	-0.045706615
222	0xbda931a0	-0.08261418
223	0x3c93cc50	0.01804176
224	0x3d80abe4	0.062827855
225	0xbcf236f0	-0.029567212
226	0xbe744f68	-0.23858416
227	0x3e712070	0.2354753
228	0x3ed705e0	0.4199667
229	0x3e8b8960	0.27253246
230	0x3df8a98e	0.12141715
231	0x3e8cb3ec	0.2748102
232	0x3edd9ada	0.43282205
233	0x3ec13002	0.3773194
234	0x3f0ea78d	0.5572441
235	0x3e5b813c	0.21436018
236	0x3e00ecdd	0.12590356
237	0x3f1d6781	0.6148606
238	0x3e74b985	0.23898895
239	0x3ea36c0d	0.31918374
240	0xbbb4ba82	-0.0055153975
241	0xbe137b11	-0.14402415
242	0x3ca99271	0.020699712
243	0xbd4a1a41	-0.049341444
244	0x3e42fc9d	0.19041677
245	0xbd939a0d	-0.07207117
246	0x3e1a7162	0.15082315
247	0xbe8ac9f8	-0.27107215
248	0x3e2c44f1	0.16823174
249	0x3e45d4cb	0.19319455
250	0x3d374afa	0.044749238
251	0xbe5d1878	-0.21591365
252	0x3e9e44ac	0.30911767
253	0x3e8337c9	0.25628498
254	0xbce59d6c	-0.028029166
255	0x3c766d63	0.015040728

fc1.bias f4 [64]
0	0xbe051b1b	-0.12998621
1	0xbfe78f5f	-1.8090628
2	0xc0328ffd	-2.7900383
3	0xbe4ba2b3	-0.19886284
4	0xbf150747	-0.5821423
5	0xbfae7bae	-1.3631494
6	0xbf1de555	-0.6167806
7	0xbfbc9f1d	-1.4736058
8	0x3f12a535	0.57283336
9	0xbd150419	-0.03638086
10	0xbef8040f	-0.48440596
11	0xbf9e7a62	-1.2381098
12	0xbf1d166e	-0.6136235
13	0xbf8ca013	-1.0986351
14	0x406c6024	3.693368
15	0x40968a32	4.7043695
16	0x4083ace2	4.114854
17	0xc03cf409	-2.9523947
18	0xbe161f75	-0.14660437
19	0x400c9bbe	2.1970057
20	0xbf26e95f	-0.65199846
21	0x406a282e	3.6587024
22	0x4088a3ce	4.2699957
23	0x3f8d6281	1.1045686
24	0xbf8de7a7	-1.108632
25	0xbf95cc03	-1.1702884
26	0xc0182b87	-2.3776567
27	0xbeecb7a3	-0.46233854
28	0x403edde7	2.9822938
29	0x3f547eaa	0.83005774
30	0xbfef7da6	-1.871022
31	0xbfb6da89	-1.4285442
32	0xbf63daae	-0.89005554
33	0xbf5a7b22	-0.85344136
34	0xbf82382f	-1.0173396
35	0xc0485e2a	-3.1307473
36	0xbe8ce94d	-0.27521744
37	0xc0332cdf	-2.7996137
38	0xc0621007	-3.5322282
39	0xc02bdd0f	-2.6853673
40	0xc02055a0	-2.5052261
41	0xbff53927	-1.9158067
42	0x406fd993	3.7476547
43	0x4087e54e	4.2467413
44	0xbe7591ed	-0.23981448
45	0x4043ef16	3.0614676
46	0xc00d7c7e	-2.2107234
47	0xbf808549	-1.0040675
48	0xbf8012a5	-1.000569
49	0xbefd0e84	-0.49425137
50	0xbfd097bb	-1.6296304
51	0xc039ba83	-2.9020088
52	0xc07c019f	-3.937599
53	0xbe03d4b5	-0.1287411
54	0xbe439e03	-0.19103245
55	0xc0089fa0	-2.1347427
56	0xbf8091ff	-1.0044554
57	0x408135f6	4.037837
58	0xc04bbf8d	-3.1835663
59	0xc0013335	-2.0187504
60	0x4078a4ea	3.8850656
61	0xc038d54f	-2.8880193
62	0xbed7704a	-0.42077857
63	0xbe4af1fa	-0.19818869

fc2.weight f4 [64, 64]
0	0xbde1f436	-0.11032908
1	0xbd90b360	-0.07065463
2	0x3c4936e0	0.01228115
3	0x3cdd6cca	0.027029414
4	0x3dc42bc4	0.0957866
5	0xbd5e2114	-0.054230765
6	0xbdbfd9bd	-0.09367702
7	0xbcb0604f	-0.021530299
8	0xbc74ce3b	-0.014941747
9	0x3dcdeb26	0.10054617
10	0xbda54de2	-0.080714956
11	0xbdbb7658	-0.09153432
12	0xbd08302e	-0.033249073
13	0xbcd8ba60	-0.026456058
14	0x3b4ed18e	0.003155801
15	0xbd20a9df	-0.0392245
16	0xbe56899d	-0.20950933
17	0xbd98143d	-0.07425735
18	0xbcc59688	-0.02411963
19	0xbbc4292b	-0.005986353
20	0x3d679b70	0.05654472
21	0xbdc0ab72	-0.094077006
22	0xbd07bccc	-0.033139035
23	0xbd98d3f9	-0.074623056
24	0x3dbdc508	0.09266096
25	0xbd467654	-0.04845269
26	0x3dad4d48	0.08462006
27	0x3d9ce5ca	0.07661016
28	0x3d00759c	0.03136216
29	0xbd5a296b	-0.053262156
30	0xb9f96200	-0.00047565997
31	0xbe2ad5a0	-0.16683054
32	0x3c294eaf	0.010333701
33	0xbde080e2	-0.109620824
34	0xbd3a7575	-0.045522172
35	0x3cd05c41	0.025434615
36	0xbd8e1b52	-0.06938805
37	0x3c5c098a	0.013430009
38	0x3dd84a73	0.10561075
39	0xbe20db72	-0.15708712
40	0xbda951b8	-0.0826754
41	0x3dac18c0	0.08403158
42	0xbd87a9f8	-0.06624216
43	0xbc98840e	-0.018617656
44	0xbdcc87b4	-0.09986821
45	0x3cdaa331	0.026689144
46	0x3ca74027	0.020416332
47	0xbd320159	-0.043458316
48	0x3bf0378b	0.00733084
49	0xbdf34ac6	-0.11879496
50	0x3d5163f0	0.0511207
51	0xbe1d656a	-0.15370718
52	0xbde17ad8	-0.11009759
53	0xbdd272a4	-0.10275772
54	0xbd2cf401	-0.042224888
55	0xbdf94140	-0.121706486
56	0xbda43da6	-0.08019571
57	0xbd54b2a1	-0.051928166
58	0xbdffbbb9	-0.12486977
59	0x3d1e6d5f	0.038678523
60	0xbd9e69c6	-0.077350184
61	0x3d906d6a	0.07052119
62	0xbde2ccb1	-0.11074198
63	0xbe2677f8	-0.16256702
64	0xbe0de4d3	-0.13856821
65	0xbdb7fd89	-0.08983905
66	0x3cfac82c	0.030613028
67	0x3c8c7955	0.0171477
68	0xbd6a9c9d	-0.057278264
69	0xbdb69c0c	-0.08916482
70	0xbd7e3ef0	-0.06207174
71	0xbdcb27ae	-0.09919678
72	0xbe361fc2	-0.17785552
73	0x3e15bbc4	0.14622408
74	0x3e163727	0.14669476
75	0x3e0f6a66	0.14005432
76	0xbd8c5abd	-0.068532445
77	0xbd63910e	-0.055558257
78	0xbea808e6	-0.3281929
79	0xbeaba976	-0.33527726
80	0xbe1bd6ac	-0.1521861
81	0xbd0614d8	-0.032734722
82	0x3d5cfc74	0.053951696
83	0xbe503b7c	-0.20335191
84	0x3dc4e8cd	0.09614716
85	0xbb9b399b	-0.0047370917
86	0xbd12f4e6	-0.035878085
87	0x3d44f920	0.048089147
88	0xbda27805	-0.07933048
89	0xbd18decf	-0.03732186
90	0xbd355c66	-0.04427757
91	0x3cf43818	0.029811904
92	0xbe2d247a	-0.16908446
93	0x3dd1a17d	0.102358796
94	0xbd8f69a4	-0.07002571
95	0xbd813833	-0.06309547
96	0xbd0759d5	-0.033044655
97	0xbd7aac7c	-0.06119965
98	0xbda9b616	-0.08286683
99	0x3cf0fe50	0.02941814
100	0xbd449c60	-0.048000693
101	0xbd66ce4d	-0.056349088
102	0xbd6dd16c	-0.05806105
103	0xbe651c41	-0.2237406
104	0x3d6ffbb4	0.058589652
105	0x3d056290	0.0325647
106	0x3d4f0637	0.050543036
107	0xbe4a421b	-0.1975178
108	0xbda57978	-0.08079809
109	0xbd748fb0	-0.059707344
110	0xbc572bd2	-0.013133006
111	0xbdf46db5	-0.119349875
112	0xbd99fe66	-0.07519226
113	0x3d2c00e2	0.04199303
114	0xbb63c040	-0.003475204
115	0xbc96e6f8	-0.018420681
116	0x3e195a87	0.1497594
117	0x3c6f3a06	0.014601236
118	0xbdcb01f7	-0.09912484
119	0xbda2325e	-0.07919763
120	0xbdf73cb7	-0.12072127
121	0xbe9f65c6	-0.31132334
122	0xbd4cef62	-0.05003298
123	0x3d16f103	0.03685094
124	0xbe77721d	-0.24164625
125	0x3d9eabd8	0.0774762
126	0xbde459fe	-0.11149977
127	0x3dfd1fb5	0.12359563
128	0xbe4c62f7	-0.19959627
129	0xbd651c61	-0.055935267
130	0x3d035a45	0.03206851
131	0x3d7a868f	0.06116348
132	0x3c3cd563	0.011525485
133	0x3c771e9a	0.01508298
134	0xbd9f629f	-0.07782482
135	0xba4aa7a1	-0.0007730667
136	0xbe2145c2	-0.15749267
137	0x3d906b19	0.07051677
138	0x3e70ae93	0.23504095
139	0x3da421a1	0.08014227
140	0x3ce20409	0.027589815
141	0x3d2e7534	0.042592242
142	0xbe3eb495	-0.18623574
143	0xbe204c88	-0.15654194
144	0x3a2d0d9b	0.00066014536
145	0xbdd99e0d	-0.10625849
146	0xbbd1f7e0	-0.006407723
147	0xbdcc048e	-0.09961806
148	0x3cf7e85f	0.03026217
149	0xbbd0039d	-0.006348087
150	0xbc1ccc7f	-0.00957024
151	0xbb3afb11	-0.0028530995
152	0x3dd2d4aa	0.10294469
153	0x3dc9c40d	0.09851847
154	0x3dae3b75	0.08507434
155	0xbded3ef8	-0.11584276
156	0x3c98840d	0.018617654
157	0xbdd2d110	-0.10293782
158	0xbe0b5baf	-0.13609193
159	0xbe0cdad4	-0.13755351
160	0xbc578d87	-0.013156301
161	0xbd95120c	-0.07278833
162	0xbcee2107	-0.029068483
163	0x3db84ab8	0.089986265
164	0x3ddce682	0.107861534
165	0x3db38f58	0.08767575
166	0xbcd6d02d	-0.026222313
167	0xbe343bca	-0.17600933
168	0xbc262549	-0.010140725
169	0xbd43ca46	-0.047800325
170	0x3d949146	0.07254271
171	0xbe7a1402	-0.24421695
172	0x3d99d833	0.0751194
173	0xbe190cdf	-0.14946316
174	0xbd901217	-0.070347
175	0xbe3031a3	-0.17206435
176	0xbd8c9f71	-0.068663485
177	0xbd9e5e90	-0.0773288
178	0x3b78e861	0.0037980305
179	0x3cdc538a	0.026895303
180	0xbdea4e68	-0.11440736
181	0xbc1bd998	-0.009512328
182	0xbaa8d072	-0.0012879504
183	0xbd30b6a4	-0.04314293
184	0xbe07b897	-0.13254009
185	0xbe2849d6	-0.16434416
186	0xbdd96c06	-0.10616307
187	0xbe02262d	-0.12709875
188	0xbe02af93	-0.12762289
189	0xbe0110c5	-0.12604053
190	0xbcf6cf80	-0.03012824
191	0xbccdc541	-0.025118472
192	0xbdacf6bb	-0.084454976
193	0x3cc533db	0.024072578
194	0x3d8e1ca6	0.06939058
195	0xbd00e88c	-0.031471774
196	0x3d3f357c	0.046681866
197	0x3ca45b67	0.020063115
198	0xbddb8d37	-0.10720294
199	0xbd0225b7	-0.03177425
200	0xbd4e5b95	-0.05038031
201	0xbd04864d	-0.03235464
202	0xbd396441	-0.045261625
203	0x3c99bc14	0.01876644
204	0xbd00a0f4	-0.031403497
205	0x3da27631	0.079326995
206	0xbe190d32	-0.1494644
207	0xbdc52d84	-0.09627822
208	0xbd81e3bf	-0.06342267
209	0xbd3427a0	-0.0439831
210	0x3df3d34c	0.11905536
211	0x3c43ef18	0.01195886
212	0xbd4b3be3	-0.04961766
213	0x3c72b70c	0.01481415
214	0xbbe4704c	-0.0069713946
215	0xbe135e41	-0.14391424
216	0x3c710304	0.014710192
217	0x3d8edd2b	0.06975778
218	0xb9c25664	-0.0003706693
219	0xbc9da102	-0.019241814
220	0x3c161afd	0.009161708
221	0xbdae06bf	-0.084973805
222	0xbd18ebbc	-0.03733419
223	0xbcdfa5cd	-0.02730074
224	0xbc2b81fc	-0.010468002
225	0xbd0d42eb	-0.034487646
226	0xbe4af17c	-0.19818681
227	0xbe48acbc	-0.19597143
228	0xbe06b185	-0.13153656
229	0xbd268082	-0.0406499
230	0xbcf78b58	-0.030217811
231	0xbce4cb0f	-0.027928857
232	0x3dd74b66	0.10512428
233	0xbd5a0628	-0.053228527
234	0xbdb43053	-0.087982796
235	0xbce23ded	-0.02761742
236	0x38855000	6.3568354e-05
237	0xbda284ff	-0.07935523
238	0x3cd1020d	0.025513673
239	0xbce5ea90	-0.02806595
240	0xbc0477a7	-0.008085168
241	0x3c0b09f8	0.008486263
242	0xbdc699f8	-0.09697336
243	0xbdb09327	-0.08621817
244	0x3d1c601b	0.03817759
245	0x3d3a4f8d	0.04548602
246	0xbe1c4bf8	-0.15263355
247	0xbd738b0a	-0.05945877
248	0xbe063dc0	-0.13109493
249	0xbe32ac1f	-0.17448471
250	0xbdaac1fb	-0.0833778
251	0x3cf03f6f	0.029327122
252	0xbe14b3cf	-0.14521717
253	0xbcaefdc3	-0.021361237
254	0x3d932910	0.071855664
255	0xbdfc8b4b	-0.123312555

fc2.bias f4 [64]
0	0xbd9c9b26	-0.0764678
1	0xbce66a0a	-0.028126735
2	0x3c1a6d7e	0.009425519
3	0xbe19002b	-0.1494147
4	0xbfe66795	-1.8000361
5	0x3ff0b446	1.8805015
6	0xbf88b0ac	-1.0678916
7	0x3c098264	0.008392904
8	0xbdea91e7	-0.1145361
9	0xbe092d03	-0.13396077
10	0xbf57c739	-0.84288365
11	0x3ad2950e	0.001606615
12	0xbe01931b	-0.12653773
13	0xbe63e9f4	-0.22257215
14	0xbe48a124	-0.1959272
15	0x3ea8e9d4	0.32990897
16	0xbd79ba42	-0.060968645
17	0x4032c5e7	2.793329
18	0xc02930a4	-2.6435938
19	0x3bbcc4f2	0.0057607824
20	0xbdcb8fc2	-0.09939529
21	0xc011e97c	-2.2798758
22	0xbe3b8b69	-0.183149
23	0x3d234b0f	0.039866503
24	0x40433d03	3.0505989
25	0xbd7fef5e	-0.062484138
26	0xbb3290dc	-0.0027246987
27	0xbe24db15	-0.16099198
28	0xbd1ddfee	-0.038543634
29	0xbf0d46cb	-0.55186146
30	0xbf59ec88	-0.85126543
31	0xbf49529a	-0.78641665
32	0xc01d1daa	-2.4549356
33	0xbee0964d	-0.4386467
34	0xbca37316	-0.019952338
35	0xbe69d860	-0.22836447
36	0x3cdcf373	0.026971554
37	0xbf40da9a	-0.7533356
38	0x3da5ec0d	0.08101664
39	0xbdeff39b	-0.11716386
40	0xbc96a12d	-0.018387401
41	0xbeca8227	-0.39552423
42	0xbd600ec0	-0.054701567
43	0xbddb8753	-0.107191704
44	0xbe294160	-0.16528845
45	0x3ca4a891	0.02009991
46	0xbe1306a5	-0.14358003
47	0xbe8d000c	-0.27539098
48	0xbd9455ad	-0.07242904
49	0xbd3ed975	-0.046594102
50	0xbdc870af	-0.09787118
51	0xbdfeefd4	-0.12448087
52	0xbe03bd3e	-0.12865159
53	0xbe0f62a3	-0.1400247
54	0xbf3ca70d	-0.736924
55	0xc034188f	-2.813999
56	0x3d924c48	0.07143456
57	0xbdaaac2e	-0.08333622
58	0xbd345232	-0.0440237
59	0xba03234c	-0.0005002513
60	0xbe26cac9	-0.16288294
61	0x3ed993e3	0.4249564
62	0x3e302592	0.17201832
63	0xbe62b4ae	-0.22139236

fc3.weight f4 [64, 64]
0	0x3d41fd30	0.0473606
1	0x3b5ba98e	0.003351781
2	0xbd88f752	-0.066877976
3	0xbdc4f080	-0.09616184
4	0x3e06fb13	0.13181715
5	0xbe13dc5c	-0.14439529
6	0x3d22f11a	0.039780714
7	0x3dc22304	0.09479335
8	0x3d833b70	0.06407821
9	0x3cdac8a1	0.026706995
10	0x3d9ca1d3	0.07648053
11	0xbdc679d4	-0.096912056
12	0xbdc19641	-0.09452487
13	0xbce5d7da	-0.028057028
14	0x3cd0bab0	0.025479645
15	0xbe206d19	-0.15666617
16	0x3e08a970	0.13345885
17	0xbeec68ef	-0.46173808
18	0xbee8c43b	-0.45462212
19	0xbd08ce40	-0.03339982
20	0xbd0d3e2f	-0.03448313
21	0x3d01dde9	0.03170577
22	0xbcedd687	-0.029032959
23	0xbe0ad1b0	-0.13556552
24	0xbea365aa	-0.319135
25	0x3dd83724	0.10557392
26	0xbe249388	-0.16071904
27	0x3d80df47	0.06292587
28	0xbdf6feca	-0.12060316
29	0x3ab12680	0.0013515502
30	0xbd0fc9f6	-0.035104714
31	0xbd3cb2fc	-0.04606913
32	0xbe1c75b1	-0.1527927
33	0xba359c29	-0.0006927872
34	0xbdebdd22	-0.11516787
35	0x3cbd9fc2	0.023147468
36	0x3d393dfc	0.04522513
37	0xbe7a6603	-0.24452977
38	0xbe931ca5	-0.28732792
39	0x3b4114c0	0.002946183
40	0xbdd6e0d2	-0.104921
41	0x3ce8ed5e	0.028433498
42	0x3ddbfc90	0.10741532
43	0x3d0800b7	0.033203807
44	0xbd883350	-0.06650412
45	0xbe411752	-0.18856552
46	0xbe0da3a5	-0.13831957
47	0x3dfd7f84	0.12377837
48	0xbe298394	-0.165541
49	0x3d6b4265	0.057436366
50	0xbd8ffa38	-0.07030147
51	0xbdc78334	-0.09741822
52	0xbae32900	-0.0017330945
53	0xbe2977a5	-0.16549547
54	0xbd24e40e	-0.040256552
55	0xbf066dde	-0.52511394
56	0xbddae4c6	-0.10688166
57	0xbd8fa85b	-0.07014533
58	0xbddc9d84	-0.10772231
59	0xbdb88442	-0.09009601
60	0xbd8c0580	-0.068369865
61	0xbd8ac8dc	-0.06776592
62	0xbe0cecb6	-0.13762173
63	0x3d2ccff5	0.04219051
64	0xbc61c8a6	-0.0137807485
65	0xbda9b175	-0.082858
66	0xbadd2165	-0.0016870914
67	0x3d7ed28d	0.062212516
68	0xbe266fd1	-0.16253592
69	0x3de17851	0.11009277
70	0x3d0ff34e	0.035144143
71	0xbd52dcc6	-0.051480077
72	0xbd956faa	-0.07296689
73	0xbea061b7	-0.3132455
74	0xbdcc1042	-0.099640384
75	0xbdbc0d26	-0.09182195
76	0xbd9b48c7	-0.075822406
77	0xbc5d9ed5	-0.013526638
78	0x3db43fcb	0.0880123
79	0xbd28c492	-0.04120309
80	0x3c514911	0.012773768
81	0xbf1e7b53	-0.6190693
82	0xbe801773	-0.2501789
83	0xbdd7ae3b	-0.10531279
84	0xbd86613f	-0.06561517
85	0x3e384717	0.17995869
86	0xbd8ec3af	-0.069709174
87	0x3e0b1d1e	0.13585326
88	0xbe58a293	-0.21155767
89	0xbde2cdcc	-0.11074409
90	0x3cd770e3	0.026298946
91	0x3d6f5a2b	0.0584356
92	0xbe18b452	-0.14912537
93	0x3dfcc0c5	0.12341455
94	0xbb1c87a5	-0.0023884561
95	0x3d87000c	0.06591806
96	0x3f148c88	0.58026934
97	0xbd45550f	-0.04817682
98	0x3d828f2b	0.063749634
99	0xbdbf4c74	-0.09340754
100	0xbd12130d	-0.0356627
101	0x3d1d2634	0.03836651
102	0xbe190d22	-0.14946416
103	0xbdb46dc6	-0.0881
104	0x3d39eb14	0.045390204
105	0x3cdad2e6	0.026711892
106	0xbd2906a0	-0.041266084
107	0x3c1142ee	0.008866055
108	0xbd66c71f	-0.05634224
109	0xbe1e67ab	-0.15469234
110	0x3e1aed29	0.15129532
111	0x3d234c30	0.03986758
112	0xbe084113	-0.13306074
113	0x3cd0740f	0.025445966
114	0x3d39afe3	0.045333754
115	0xbde4241e	-0.11139701
116	0x3dd5e38c	0.10443792
117	0xbdd310fb	-0.10305973
118	0xbf2deba2	-0.6793767
119	0xbde88d94	-0.11355129
120	0x3dceec68	0.10103685
121	0xbc420cc2	-0.011843862
122	0x3d4449e0	0.047922015
123	0x3d6dad11	0.058026377
124	0xbc8b840f	-0.017030744
125	0xbdf23fc1	-0.11828566
126	0xbd9fdc1f	-0.07805657
127	0xbdf4c3f5	-0.11951438
128	0x3d6d80ad	0.057984043
129	0xbce88fb8	-0.028388843
130	0xbd8aab44	-0.067709476
131	0xbd594072	-0.053039975
132	0xbe93a70a	-0.28838378
133	0xbec0d0a8	-0.37659192
134	0xbd57dbf9	-0.052700017
135	0xbe0484b9	-0.12941255
136	0x3e07faa3	0.13279204
137	0x3d61d56d	0.05513518
138	0xbe21a226	-0.15784511
139	0x3bc1cf4c	0.0059146043
140	0xbe28257a	-0.16420546
141	0xbe7c5239	-0.2464074
142	0xbe04056b	-0.12892692
143	0xbd7d03b1	-0.0617711
144	0xbe952ccf	-0.2913575
145	0xbf67900f	-0.9045419
146	0xbf5f4e37	-0.8722872
147	0xbe041acc	-0.12900847
148	0xbca63800	-0.020290375
149	0xbe026ce4	-0.12736851
150	0x3cc7bd99	0.0243824
151	0xbd5109d2	-0.051034756
152	0xbf7b951f	-0.98274416
153	0x3d386737	0.04502031
154	0xbc24bfa9	-0.010055461
155	0xbd6557da	-0.055991985
156	0x3c251432	0.010075616
157	0x3c4627dc	0.012094464
158	0xbe0a5174	-0.13507634
159	0xbdf36233	-0.118839644
160	0xbcadda28	-0.02122219
161	0xbc22eb13	-0.009943741
162	0xbd1d04b3	-0.03833456
163	0x3e47f8de	0.19528529
164	0xbdc8a244	-0.09796575
165	0xbe2041ac	-0.15650052
166	0xbdf66a29	-0.12031967
167	0xbdc14b3a	-0.094381765
168	0x3db5efe6	0.088836476
169	0xbe1c5c1f	-0.15269516
170	0x3cbdfd58	0.023192093
171	0xbc510fa4	-0.012760077
172	0xbd634e9b	-0.055494886
173	0xbe247deb	-0.16063659
174	0xbc86e6a8	-0.016467407
175	0xbcf3a210	-0.029740363
176	0xbd6c5413	-0.057697367
177	0x3d4fd6e5	0.05074205
178	0xbccacc94	-0.024755754
179	0x38544b2b	5.0614744e-05
180	0xbdfcb09f	-0.12338375
181	0x3c9164c5	0.017748246
182	0x3e560748	0.20901215
183	0xbf6035da	-0.8758217
184	0x3dd3ee88	0.103482306
185	0x3d3fb220	0.046800733
186	0x3dac74aa	0.084206894
187	0xbe0164fb	-0.12636177
188	0xbe1cb05f	-0.15301655
189	0xbc778940	-0.015108407
190	0xbd12d0fa	-0.035843827
191	0xbd9afdb5	-0.07567922
192	0xbddbed96	-0.10738675
193	0xbe04b378	-0.12959087
194	0x3d0e0c1f	0.03467953
195	0xbdf16169	-0.11786158
196	0x3e88f0b2	0.26746136
197	0x3e2a16f8	0.16610324
198	0xbe07cab3	-0.13260917
199	0x3dd09017	0.10183733
200	0x3d70be84	0.05877544
201	0xbdfabb34	-0.122427374
202	0xbd263b2c	-0.040583774
203	0xbd38a172	-0.04507584
204	0xbcbe5d89	-0.02323796
205	0xbe3e8cdc	-0.18608421
206	0x3d18d9f8	0.037317246
207	0xbde57802	-0.1120453
208	0xbe3f1eb0	-0.1866405
209	0x3dded641	0.108807094
210	0xbec56e10	-0.38560534
211	0xbe118d95	-0.14214166
212	0x3b308770	0.0026936196
213	0xbe067e07	-0.13134013
214	0xbe0b6a52	-0.13614777
215	0x3ddc6f08	0.10763365
216	0xbea70ea4	-0.32628357
217	0xbdd8e6aa	-0.10590871
218	0x3d89fc31	0.06737555
219	0x3db93c24	0.09044674
220	0x3d9a0a5a	0.07521506
221	0xbd3715e0	-0.044698596
222	0x3cb1b429	0.021692352
223	0x3c7586f0	0.014985785
224	0x3e6c5da6	0.23082599
225	0x3de44356	0.11145656
226	0x3d849f7e	0.06475733
227	0xbe1ced07	-0.15324794
228	0x3b2f3cb9	0.0026739074
229	0xbd57884a	-0.05262021
230	0xbd80fcaa	-0.06298192
231	0x3c8aa1c3	0.016922837
232	0xbdb4f1ec	-0.088352054
233	0xbd9d4d45	-0.076807536
234	0x39180000	0.0001449585
235	0x3da6f498	0.08152121
236	0xbdbf3e1f	-0.093380205
237	0xbe097c60	-0.13426352
238	0x3e90abf7	0.282562
239	0x3dcf41a7	0.10119944
240	0x3cea3dd8	0.028593943
241	0xbd8e00bc	-0.06933734
242	0x3df47b86	0.11937623
243	0xbde28f48	-0.11062485
244	0x3c160140	0.009155571
245	0xbcde8389	-0.02716233
246	0x3cf880aa	0.03033479
247	0x3e0cb739	0.13741769
248	0x3dfb7140	0.1227746
249	0xbd94d084	-0.07266334
250	0xbd983f48	-0.07433945
251	0x3c852cb0	0.01625666
252	0xbe15adcd	-0.14617081
253	0xbddc7749	-0.10764939
254	0xbe35d5e8	-0.1775738
255	0x3d3891e8	0.045061022

fc3.bias f4 [64]
0	0xbe81a235	-0.25319067
1	0xbf49310f	-0.7859048
2	0x3ed0ed5f	0.408061
3	0xbf2eabc8	-0.6823087
4	0xbc957bf3	-0.01824758
5	0xbcce0e3a	-0.025153268
6	0xbe90a3b6	-0.28249902
7	0xc00f217c	-2.2364187
8	0xbf89bc9d	-1.0760685
9	0x3cd11ed4	0.025527395
10	0x3f87fa3e	1.0623243
11	0x3f37ea94	0.7184231
12	0xc01ce9dd	-2.451774
13	0xbad8185d	-0.0016486753
14	0x3eb8fa48	0.3612845
15	0xbe835ba7	-0.25655863
16	0x3e6890ff	0.22711562
17	0xbff6ef0d	-1.9291703
18	0xbffa66fa	-1.9562676
19	0x3efc8313	0.49318752
20	0xbf8af125	-1.0854841
21	0xbf334ac8	-0.7003598
22	0x3f88df1c	1.0693088
23	0xbfda1883	-1.703873
24	0x3f8431a1	1.0327646
25	0xbf4f904f	-0.8107957
26	0xc036285f	-2.846214
27	0xbe3b4db0	-0.18291354
28	0x3d359b91	0.044337813
29	0x3dbf43e8	0.09339124
30	0xbf079e23	-0.5297567
31	0xbed701fe	-0.41993707
32	0xbf625829	-0.8841577
33	0x3d431ddf	0.04763591
34	0x3f963bd4	1.1737008
35	0x3d8c8b7c	0.06862542
36	0x3ec525e1	0.38505462
37	0xbf5b7430	-0.85724163
38	0xbebce23f	-0.36891362
39	0xbf456370	-0.77104855
40	0xbd41338f	-0.04716831
41	0xbff6dd93	-1.9286369
42	0xbf23b605	-0.63949615
43	0x4001f413	2.030522
44	0x3b25521f	0.002522595
45	0xbe166ad7	-0.14689194
46	0x3f1c94e6	0.611647
47	0x400fed91	2.248875
48	0x3e5b3001	0.21405031
49	0xbed72ce4	-0.42026436
50	0x4012d3bf	2.294174
51	0x3f4b3b15	0.7938703
52	0xbf948e92	-1.1606009
53	0xbf88a854	-1.067637
54	0xc028ccab	-2.637492
55	0xbf761617	-0.96127456
56	0xbf72a101	-0.9477692
57	0x4002474b	2.0356014
58	0x3fb9ac0a	1.4505627
59	0x3ee8c9b6	0.45466393
60	0xbd4b7d95	-0.04968031
61	0x4011be99	2.2772582
62	0x3f59d638	0.85092497
63	0xbf552359	-0.8325706

action_out.weight f4 [5, 64]
0	0x3d3b76b5	0.045767505
1	0x3c953e9a	0.018218327
2	0x3ec10291	0.3769727
3	0xbdd2b0ce	-0.10287629
4	0xbf901aa9	-1.1258136
5	0xbc681baf	-0.0141667565
6	0x3e6e1123	0.23248725
7	0xbfb78805	-1.4338385
8	0xbe0b70e6	-0.13617286
9	0x3e372b8c	0.17887706
10	0x3f812b5b	1.0091356
11	0x3eaa861a	0.33305436
12	0xbf4d509a	-0.80201113
13	0x38214206	3.844688e-05
14	0x3e5ddf03	0.21667103
15	0x3ca0f1a6	0.019646477
16	0x3f2c7b1f	0.6737537
17	0xbf6895c3	-0.9085352
18	0x3f429a31	0.7601653
19	0x3f7d48e7	0.98939365
20	0x3ec14683	0.3774911
21	0x3ebe4985	0.37165466
22	0x3f837fc0	1.0273361
23	0x3fbdd9a6	1.4832046
24	0x3e9a0f65	0.3008987
25	0x3f1100f8	0.56642103
26	0xc00655bf	-2.0989835
27	0x3f8dc38e	1.1075304
28	0x3faa020d	1.3281876
29	0x40464e32	3.0985227
30	0x3f01aec4	0.50657296
31	0x3d93b8c9	0.07212979
32	0xbfe78fb8	-1.8090734
33	0x3d9ce916	0.07661645
34	0x40042900	2.0650024
35	0x3ea703ec	0.3262018
36	0x3e74c573	0.23903446
37	0x4057ccee	3.371883
38	0xbb319714	-0.0027098106
39	0x3e23fd7f	0.1601467
40	0x3cbc8cca	0.023016352
41	0x3f0e9e13	0.5570995
42	0xbec6b8c8	-0.38812852
43	0x3f84e366	1.0381896
44	0x3c0048e5	0.007829879
45	0x3e7d6b7f	0.24748038
46	0xbe541384	-0.2071057
47	0x4000e19a	2.0137696
48	0x3e156b51	0.14591719
49	0x3f2c5e16	0.67331064
50	0x3faf1638	1.3678656
51	0x3efb7923	0.49115857
52	0xbdf8bfda	-0.12145968
53	0xbf001acb	-0.5004088
54	0xbf1ab25d	-0.6042841
55	0x40577271	3.36636
56	0x402ac1fe	2.6680903
57	0xbd4e2c04	-0.050334945
58	0x3fbb611e	1.4639013
59	0x3d8cb1ac	0.06869826
60	0x3db05b55	0.0861117
61	0x408238f3	4.069452
62	0x3ee73a90	0.45161867
63	0xbe7e17fe	-0.2481384
64	0xbf49a71f	-0.7877063
65	0xbf125775	-0.571647
66	0xbf92dca9	-1.147359
67	0xbf98146d	-1.1881233
68	0xc054f413	-3.327397
69	0xbdd4868d	-0.10377226
70	0xba20630c	-0.0006118275
71	0xbf014beb	-0.50506467
72	0x3bc451a0	0.005991176
73	0x3eaffd4b	0.34372935
74	0x3c757ddf	0.014983623
75	0xc005af2a	-2.0888162
76	0xc039d23e	-2.9034572
77	0x3f19ec8c	0.60126567
78	0x3f083722	0.53209126
79	0x3cb44606	0.022006046
80	0x3fa3cb1e	1.2796361
81	0xc0109368	-2.258997
82	0x40177fba	2.3671708
83	0x3faae9dd	1.335262
84	0xbfb8209f	-1.4384955
85	0xc038deba	-2.8885942
86	0xc01ec3a2	-2.4806905
87	0x3fd08664	1.6291013
88	0xbfb66055	-1.4248148
89	0xc02fd7b8	-2.7475414
90	0xbfa77e79	-1.3085471
91	0x3e98b2eb	0.29824004
92	0x40b8fc54	5.780802
93	0x3e99b107	0.30017874
94	0xbf2648da	-0.6495491
95	0x3c993d25	0.018705914
96	0xbe3abe80	-0.18236732
97	0x3ea7b790	0.32757235
98	0xc0117b08	-2.2731342
99	0x3e8e84ae	0.27835602
100	0xbf4c3c78	-0.7977977
101	0xbfeeba47	-1.8650597
102	0x3c09b9c5	0.008406107
103	0x3f067130	0.5251646
104	0x3e2b34ee	0.1671941
105	0x3f80af99	1.0053588
106	0xbebcf292	-0.36903816
107	0xbff329bc	-1.8997111
108	0x3fd680cd	1.6758057
109	0xbea8176d	-0.32830372
110	0xbec18073	-0.3779331
111	0xbfe8e137	-1.819373
112	0x3e084ab0	0.13309741
113	0xc0c7f9eb	-6.2492576
114	0xc01c89f5	-2.4459202
115	0x407ffad4	3.9996843
116	0x3f686fc2	0.9079553
117	0xbf31c21d	-0.6943682
118	0xc011d14c	-2.2783995
119	0x3efdfd28	0.49607205
120	0x3de8c25f	0.11365198
121	0xbf6f9140	-0.9358101
122	0xbda2eccc	-0.07955322
123	0x3fc71fb5	1.5556551
124	0x3e7f267a	0.24917021
125	0xbfbf854c	-1.4962554
126	0x3f9268a3	1.1438183
127	0x3c9d53b8	0.01920496
128	0xbdde3cf2	-0.10851468
129	0xbd8af68e	-0.06785308
130	0x3ffcce44	1.9750447
131	0x3eb50e2d	0.35362378
132	0xbecdae87	-0.40172216
133	0x3d0fbb29	0.0350906
134	0x3c9965e7	0.018725349
135	0x3e28f753	0.16500597
136	0x3eaf1635	0.3419663
137	0xbd87bf03	-0.066282295
138	0xbfdc55ef	-1.7213725
139	0x3fd33b75	1.650252
140	0xbf5b91c4	-0.85769296
141	0xbf421834	-0.7581818
142	0x3fbafdd9	1.4608718
143	0xbdcc5460	-0.09977031
144	0xbfdc4c24	-1.7210736
145	0xbf60f083	-0.8786699
146	0x3fc3dd1d	1.5301853
147	0xbf37978d	-0.71715623
148	0xbe0d3402	-0.1378937
149	0xbd89f224	-0.06735638
150	0xc0c7c40e	-6.2426825
151	0x3f391796	0.72301614
152	0x3ffc2f59	1.9701949
153	0xbe682bde	-0.22672984
154	0xbf994a64	-1.1975827
155	0x3f108b36	0.5646242
156	0xbfd68378	-1.6758871
157	0x3f4c4570	0.79793453
158	0xbe8ddfda	-0.27709848
159	0x3d379a5d	0.044824947
160	0xbd64ab69	-0.055827532
161	0xbf85acc9	-1.0443355
162	0xbfb776bf	-1.4333113
163	0xbe234278	-0.15943325
164	0x3fa8165e	1.3131826
165	0xbeb827b4	-0.3596779
166	0xbb2c870f	-0.0026325618
167	0x3f2f685b	0.6851861
168	0x3c89ffc3	0.01684559
169	0x3fc88b60	1.5667534
170	0x3e32a758	0.17446649
171	0xbfc77a13	-1.5584129
172	0xbeafc996	-0.34333485
173	0x3c64bcf5	0.0139610665
174	0x3fbb6a82	1.4641879
175	0xc03077cd	-2.757312
176	0xbeffe0cc	-0.49976194
177	0x3d87d532	0.06632461
178	0xbed94327	-0.42434046
179	0xc0aef938	-5.467922
180	0x401421a8	2.3145542
181	0xc014054b	-2.312823
182	0xc08d42e7	-4.414417
183	0x3f6520fb	0.8950345
184	0x3f1b99fb	0.6078183
185	0xbf4dafd5	-0.80346423
186	0xc015c720	-2.3402786
187	0xbef37820	-0.47552586
188	0xbb4d8856	-0.003136178
189	0x3e9d1739	0.3068178
190	0xbf9125da	-1.1339676
191	0x3ed2ca43	0.41169938
192	0xbfa6efa7	-1.3041886
193	0x3f2971b7	0.6618914
194	0xbfd7512c	-1.6821647
195	0xbef0b1aa	-0.47010547
196	0xbed42a53	-0.4143854
197	0xbeaa72bc	-0.3329066
198	0xbea936c0	-0.33049583
199	0xc007807b	-2.1172168
200	0x3e1cfd18	0.15330923
201	0x3d5d3ae4	0.05401124
202	0xbfc4f82e	-1.5388238
203	0x3f43d75d	0.76500493
204	0xbf95219d	-1.1650883
205	0x3eedb1fe	0.4642486
206	0x3f6f5335	0.9348634
207	0xbb13a0f4	-0.0022526355
208	0xbf777217	-0.9665846
209	0xbf9d28d6	-1.2278087
210	0x3dae71aa	0.085177734
211	0xbe325b4e	-0.17417642
212	0x3c33707d	0.010952112
213	0x3fbcc1e2	1.4746668
214	0xc04ca561	-3.197594
215	0x3f871a2d	1.0554863
216	0x3f87e184	1.0615697
217	0x3f41af79	0.75658375
218	0xbcfeb475	-0.031091908
219	0x40195bca	2.3962274
220	0x3daec99c	0.08534548
221	0x3f2b5af1	0.6693564
222	0xc0513825	-3.2690518
223	0xbcbf4129	-0.0233465
224	0x3de4f777	0.11180013
225	0xbfc242ad	-1.5176598
226	0xbf33842e	-0.70123565
227	0xbed13370	-0.40859556
228	0xc0639534	-3.5559816
229	0x3ee5d799	0.4489105
230	0xbca910cb	-0.02063789
231	0x3e303d2d	0.17210837
232	0x3f832baa	1.02477
233	0xbe0fbf2e	-0.14037773
234	0xbeb35913	-0.35028896
235	0xbf02e800	-0.51135254
236	0xbef19423	-0.47183332
237	0xbfc84e09	-1.5648814
238	0xbe18408b	-0.14868371
239	0xc08cd75b	-4.4012885
240	0x3f44df15	0.76902896
241	0xc012491e	-2.2857127
242	0xc0266ed3	-2.6005142
243	0x3fc753d2	1.5572455
244	0x3f24d749	0.64391
245	0x3ee44e0d	0.44590798
246	0xbff8307f	-1.93898
247	0xbecbb67b	-0.3978766
248	0x3fbdb487	1.4820718
249	0xbeac60a8	-0.33667493
250	0xbe7ec0ad	-0.24878187
251	0xc03e2ce6	-2.9714904
252	0xbe8ad3fe	-0.27114862
253	0xbf4885a0	-0.78328896
254	0xc004ca0f	-2.0748327
255	0x3e08409a	0.13305894

action_out.bias f4 [5]
0	0x40094bc7	2.14525
1	0xbfb29cbb	-1.395408
2	0xbf77c048	-0.9677777
3	0xbf519767	-0.81871647
4	0xbf58db0d	-0.84709245
