Exp3_MPE/parameters_save/simple_adversary/critic_params.pkl (torch_old, 39499 bytes, 7 tensors)

fc1.weight f4 [64, 17]
-0.22540724 0.006451778 -0.011775291 0.087167375 0.20371947 0.17816535 0.14357562 -0.22925761
-0.12801936 -0.03865382 -0.14975083 -0.23863676 1.2187887 0.9539489 0.790386 1.0021276
1.2106419 -0.15532655 -0.10628728 0.15232551 0.18338642 -0.22657904 0.21437496 0.09875968
-0.1731087 0.09335716 -0.076120265 -0.065575235 0.058192376 -0.22369099 0.1686788 0.1488401
-0.06357396 -0.04240953 0.12386695 0.047107738 -0.23466252 0.08821726 0.14439301 -0.02804883
0.17155652 -0.028174177 -0.10072024 0.03986185 -0.2514792 0.025867028 0.20199981 -0.1182404
-0.045100436 -0.057354357 0.015701175 0.17810471 0.11076572 -0.042958032 -0.13581324 -0.11768806
0.21880434 0.21079493 -0.09233328 -0.038887892 -0.06417863 -0.024378467 -0.20300478 0.093154
-0.10844351 0.045590747 0.08668539 -0.12709293 -0.5687046 -0.5827633 -0.6909956 -0.41028044
-0.7530073 -0.4118247 -0.64279014 -0.5737954 -0.44021657 -0.634281 -0.5434202 -0.74385154
0.15300064 0.011701918 0.17196797 -0.04498032 -0.13309479 -0.043535553 -0.09547573 -0.10791333
-0.041149594 -0.074200876 0.04755521 -0.122125685 -0.2691061 0.029078245 -0.022386588 -0.13908975
-0.121439144 -1.7991164 -1.8238283 -1.8105783 -1.4042313 -1.4470743 0.09291233 0.09234466
0.07343681 0.08664718 0.032083727 -0.069638915 0.0037628314 0.12903592 -0.2692211 0.1350385
-0.3125788 0.0054263617 -0.19478099 -0.096646935 -0.074106514 -0.23946221 0.14841844 0.15447125
-0.15163493 -0.17727266 0.18158686 -0.041272126 -0.10137358 -0.16176797 -0.0031299267 -0.25050956
0.065920725 0.176927 0.15746066 -0.28865367 -0.23995999 -0.5391954 -0.15118648 -0.1592868
0.09473234 -0.13289747 -0.16895899 0.02317735 0.10304158 0.06283346 0.16462772 0.03983349
-0.24362111 -0.0066954414 0.07686622 -0.01291182 -0.045237627 -0.12499681 0.24003929 -0.17712192
0.08915431 -0.0026414685 0.12420325 0.020591684 -0.19359384 0.14871052 -0.19305824 0.2564457
-0.011206021 -0.031378936 -0.12665123 -0.070064776 0.076939344 -0.101610325 -0.2176348 -0.00456948
0.13451335 -0.24378856 0.9517062 1.1295938 1.265714 1.1745415 0.8884578 1.1253587
0.8447646 1.2442877 0.95415246 1.1058854 1.0896336 1.2551842 3.6110215 3.6349733
3.8980525 3.5636885 3.9091253 -0.046550713 0.04850308 -0.12373795 -0.15482639 -0.052048944
0.1703917 0.101616465 -0.014558656 0.09067144 -0.05157942 -0.08873871 0.1177805 0.13356191
0.16079453 0.17223176 0.2856857 -0.027447203 -0.019737223 -0.12955591 -0.04419785 -0.0061902683
0.01625763 0.024821656 0.20766984 -0.04552603 -0.22353697 0.017900197 0.122161165 0.07879001
-0.022571903 0.123041846 -0.12129043 -0.08361185 0.046518035 -0.7567054 -0.7593924 -0.5653628
-0.39236784 -0.70187324 -0.7541664 -0.37038505 -0.38813165 -0.642207 -0.6719327 -0.65738386
-0.5231863 -0.089792006 0.19387656 0.16234696 -0.11340416 -0.077199064 0.01063074 0.043522436
0.18663204 0.21692888 0.13846903 -0.16534077 -0.21446927 -0.03477613 0.17612135 0.039221715
-0.18787746 0.09121364 3.202856 2.987778 3.2118807 3.224404 3.1182818 -0.5205432
00000000: 28d1 66be 7069 d33b 26ed 40bc cf84 b23d
00000010: d69b 503e fa70 363e 7d05 133e 82c2 6abe
00000020: 8217 03be 7853 1ebd 4858 19be 325d 74be
00000030: 4501 9c3f ff35 743f bd56 4a3f b845 803f
00000040: 50f6 9a3f ec0d 1fbe 25ad d9bd 38fb 1b3e
00000050: a6c9 3b3e 5604 68be 1c85 5b3e 8442 ca3d
00000060: 6843 31be 0a32 bf3d f1e4 9bbd 4f4c 86bd
00000070: 215b 6e3d 400f 65be 23ba 2c3e 8a69 183e
00000080: 1033 82bd 9eb5 2dbd f5ad fd3d 0bf4 403d
00000090: 5f4b 70be 40ab b43d c3db 133e a9c6 e5bc
000000a0: 83ac 2f3e 88cd e6bc 6a46 cebd 2e46 233d
000000b0: e2c1 80be 17e7 d33c 0ad9 4e3e 0628 f2bd
000000c0: 3cbb 38bd 67ec 6abd c09f 803c 1561 363e
000000d0: 23d9 e23d c3f4 2fbd a012 0bbe 7006 f1bd
000000e0: 3f0e 603e a0da 573e 3b19 bdbd e948 1fbd
000000f0: 1670 83bd 5ab5 c7bc 7ce0 4fbe 86c7 be3d
00000100: a217 debd 5dbd 3a3d 1c88 b13d a624 02be
00000110: a096 11bf fa2f 15bf 16e5 30bf 4710 d2be
00000120: 16c5 40bf b0da d2be e58d 24bf 41e4 12bf
00000130: 1164 e1be 3d60 22bf 961d 0bbf 0e6d 3ebf
00000140: 33ac 1c3e 67b9 3f3c 5f18 303e 493d 38bd
00000150: 004a 08be 5652 32bd c888 c3bd aa01 ddbd
00000160: 7a8c 28bd a1f6 97bd 40c9 423d 081d fabd
00000170: 46c8 89be 8035 ee3c 1464 b7bc 8b6d 0ebe
00000180: 16b5 f8bd 7249 e6bf 3573 e9bf 08c1 e7bf
00000190: dabd b3bf bb39 b9bf d248 be3d 321f bd3d
000001a0: 0a66 963d 1474 b13d 3a6a 033d d99e 8ebd
000001b0: d699 763b fe21 043e 59d7 89be 8847 0a3e
000001c0: 540a a0be 9fcf b13b ab74 47be d4ee c5bd
000001d0: 28c5 97bd 9535 75be 01fb 173e b62d 1e3e
000001e0: 3046 1bbe f786 35be e8f1 393e f60c 29bd
000001f0: f49c cfbd 81a6 25be 751f 4dbb ca42 80be
00000200: 7201 873d 5a2c 353e 5e3d 213e 6aca 93be
00000210: 12b8 75be b608 0abf a1d0 1abe 141c 23be
00000220: 0703 c23d 4616 08be 9603 2dbe 6dde bd3c
00000230: 7707 d33d d4ae 803d 2b94 283e 7128 233d
00000240: d077 79be 6f65 dbbb 096c 9d3d 198c 53bc
00000250: 174b 39bd 54fe ffbd dccc 753e 735f 35be
00000260: 8996 b63d 7d1c 2dbb 465e fe3d e4af a83c
00000270: 773d 46be 9247 183e 0fb1 45be da4c 833e
00000280: 7599 37bc 3387 00bd dcb0 01be 1f7e 8fbd
00000290: 6092 9d3d 1319 d0bd a8db 5ebe 94bb 95bb
000002a0: debd 093e b5a3 79be 04a3 733f 8896 903f
000002b0: eb02 a23f 6057 963f f871 633f c10b 903f
000002c0: 7e42 583f d244 9f3f 5643 743f a78d 8d3f
000002d0: 1d79 8b3f e0a9 a03f fa1a 6740 67a3 6840
000002e0: b179 7940 7913 6440 1c2f 7a40 f6ab 3ebd
000002f0: 2aab 463d 536a fdbd cf8a 1ebe 4631 55bd
00000300: 297b 2e3e 4b1c d03d 6e87 6ebc f3b1 b93d
00000310: f144 53bd a4bc b5bd e736 f13d 74c4 083e
00000320: 52a7 243e 865d 303e 6545 923e f5d8 e0bc
00000330: f5af a1bc 4eaa 04be ce08 35bd bcd7 cabb
00000340: b92e 853c c956 cb3c 67a7 543e 8179 3abd
00000350: e0e6 64be 6fa3 923c a22f fa3d a85c a13d
00000360: b6e8 b8bc 5dfd fb3d 1e67 f8bd b13c abbd
00000370: b289 3e3d 72b7 41bf 8a67 42bf 9ebb 10bf
00000380: 70e4 c8be f7ad 33bf 0d11 41bf 1ca3 bdbe
00000390: 31b9 c6be ae67 24bf c803 2cbf 4f4a 28bf
000003a0: 8aef 05bf dfe4 b7bd 9487 463e 483e 263e
000003b0: 7140 e8bd 8b1a 9ebd 8e2c 2e3c 9544 323d
000003c0: 781c 3f3e 9b22 5e3e d3ca 0d3e 174f 29be
000003d0: d59d 5bbe 6a71 0ebd 2859 343e f3a6 203d
000003e0: f362 40be 38ce ba3d 98fb 4c40 c137 3f40
000003f0: 748f 4d40 a35c 4e40 ee91 4740 5242 05bf

fc1.bias f4 [64]
-4.286147 -0.1326924 -0.09131311 -0.05685386 -2.359353 11.203561 -0.4866846 -7.0219274
-0.037105337 -0.5221137 -6.739854 -0.953075 -0.09280441 -3.1771376 -9.101802 -2.8884597
-0.072892696 -0.32157856 -0.0055590137 -0.15488407 -0.10004195 -0.07111816 -0.122960456 -0.067874365
-0.014971607 16.559183 -0.047386557 -0.033756565 -0.013577567 -0.0465608 -2.0512106 -1.8144565
-0.09591006 -0.0730368 -0.16767073 -0.2007894 -0.114649706 11.050553 -2.849273 -3.7024293
-2.444737 -0.58843106 -0.042352036 -0.8721178 -0.040792957 0.43005654 1.1989093 -0.07074891
3.539 4.443229 15.776974 -0.058771692 -8.052278 -0.055371173 16.048298 -0.3079955
-1.1498415 -0.061088007 -1.4560307 -0.12446729 -0.14319606 -6.3206244 8.825667 -0.14088395
00000000: 1e28 89c0 84e0 07be 5e02 bbbd 98df 68bd
00000010: a4ff 16c0 c941 3341 b92e f9be a1b3 e0c0
00000020: c4fb 17bd 3ea9 05bf e2ac d7c0 b9fc 73bf
00000030: 3d10 bebd 3956 4bc0 fba0 11c1 86dc 38c0
00000040: c448 95bd f2a5 a4be 6328 b6bb ee99 1ebe
00000050: cbe2 ccbd 66a6 91bd b1d2 fbbd b701 8bbd
00000060: 794b 75bc 3579 8441 6818 42bd 5344 0abd
00000070: 7274 5ebc 8ab6 3ebd 0947 03c0 1c40 e8bf
00000080: 7e6c c4bd 5194 95bd e0b1 2bbe bd9b 4dbe
00000090: 77cd eabd 11cf 3041 7d5a 36c0 9af4 6cc0
000000a0: 9276 1cc0 6ba3 16bf 5479 2dbd 1d43 5fbf
000000b0: 8416 27bd 5f30 dc3e dc75 993f cee4 90bd
000000c0: fa7e 6240 ef2e 8e40 7c6e 7c41 96ba 70bd
000000d0: 21d6 00c1 e2cc 62bd ea62 8041 96b1 9dbe
000000e0: 022e 93bf 6b37 7abd 375f babf b5e8 febd
000000f0: fda1 12be 8e42 cac0 ef35 0d41 e243 10be

fc2.weight f4 [64, 64]
-0.8549227 -0.19899778 -0.32776353 0.062136818 -3.4299753 0.24548557 0.19954194 -0.35053974
0.40378022 0.15671857 -0.6059903 0.052484874 0.097341485 -0.7456355 -0.22339483 -1.3141372
-0.9607642 0.10045129 0.2435179 -1.4251453 0.26620618 0.079863295 -0.07273622 0.22182235
0.20560323 1.3667194 0.19930802 0.2967525 0.07748311 0.25935096 -0.3962105 -2.181549
0.1865071 -0.72462416 0.32755455 0.20660327 0.08496673 0.23467013 -1.0367594 -1.4925193
-2.163844 0.009506239 0.079880856 -0.06550128 0.018221175 -1.2016025 -0.42739508 0.13646209
0.51599586 0.22448081 0.3303629 -0.5308074 -0.35847056 0.081364624 0.71379036 0.20322087
0.6976311 0.085176095 0.19861066 0.1391558 0.23613602 -1.3444891 0.2496589 0.18972906
-0.6780936 -0.16297466 -0.019033585 0.2881827 -3.0280824 -0.82747436 -0.30317897 -0.80818546
0.30769506 0.13498515 -0.14448546 -0.06793043 -0.694519 -2.363256 0.37026668 -2.4423518
0.10630113 -0.1766539 -0.04457913 -0.56864625 -0.2981093 0.43941024 0.022271989 -0.92043483
-0.005001369 3.228498 -1.1985254 -0.92284274 0.7820808 0.2940313 -0.38611048 -3.2752833
-0.29797766 0.15797599 -0.38661128 -1.0357157 -0.7337663 1.1544064 -2.3438878 -0.6024225
-4.2703614 0.043030538 -0.8281011 -1.3693436 0.07598406 0.2947596 -0.70662117 -0.39538214
0.22696504 -0.47781652 0.8018355 0.48737672 -0.2550642 0.041394573 0.46380633 -1.2307403
-0.3696713 -0.9388124 -0.24585141 -0.9017594 -1.5836792 0.028305966 -0.89792615 -0.53490406
0.035242945 -0.031402286 -0.021279067 -0.074441954 0.027502747 -0.025563095 -0.06955229 -0.10108119
0.12081599 0.0079365885 0.00088479905 -0.038581297 -0.10289459 -0.17123552 0.124276474 0.049641263
-0.0007879883 -0.101303846 -0.0186162 -0.063005984 -0.03853992 -0.0788451 0.026442036 -0.05411357
0.052193176 -0.05536231 -0.08059629 -0.00408682 -0.040811244 -0.14604387 -0.03447649 0.06267703
-0.005294767 -0.08699265 -0.14412977 0.068242766 -0.1347554 -0.037365608 -0.082725145 0.024079049
-0.029321095 0.102859944 0.07499247 0.07914084 0.057898223 -0.14396918 0.06551566 -0.058532897
-0.062265452 0.00055344426 -0.068840176 -0.0007629942 -0.07239662 0.06758357 0.010886878 -0.09699811
-0.093227714 -0.09857371 -0.043072507 -0.06377109 -0.068770945 -0.033116534 -0.13099957 -0.061894964
-0.5640129 0.017128712 -0.0067866165 -0.051244143 -1.0238278 0.95344496 -0.12894142 0.24659015
0.11739 0.10967677 -0.49272323 0.2544059 -0.17347376 -0.9011043 0.9581166 -0.96692127
-0.4770146 0.15345964 -0.17892222 -0.5081068 -0.065141864 -0.0068688267 0.1335201 -0.05270191
-0.051649127 1.7222816 0.017237378 -0.11034376 0.19436038 -0.2456475 -0.10180918 -0.93259996
-0.10210102 -0.39584306 -0.0126053495 -0.060108792 -0.11518986 0.8400389 -0.9960722 0.79161346
-1.5488585 -0.060278 -0.12720065 -0.21674249 -0.042173486 -0.444397 0.44879654 -0.1565444
1.1343622 0.9013292 0.9411505 0.041941017 -0.112647995 -0.04339621 0.21130668 0.108649306
-0.2558132 -0.109946206 0.066037804 0.090743855 0.0051115607 -1.8735904 0.58987147 -0.036996737
00000000: 37dc 5abf 13c6 4bbe 9fd0 a7be 2d83 7e3d
00000010: b784 5bc0 9260 7b3e b954 4c3e f279 b3be
00000020: 48bc ce3e d57a 203e 2e22 1bbf 61fa 563d
00000030: f95a c73d f8e1 3ebf 9dc1 64be a635 a8bf
00000040: a5f4 75bf 68b9 cd3d c25c 793e 296b b6bf
00000050: 2d4c 883e 5e8f a33d baf6 94bd 6625 633e
00000060: a789 523e a9f0 ae3f 6717 4c3e f2ef 973e
00000070: 77af 9e3d a6c9 843e 1adc cabe 809e 0bc0
00000080: b8fb 3e3e f880 39bf 3bb5 a73e cf8f 533e
00000090: 0903 ae3d 5e4d 703e 88b4 84bf df0a bfbf
000000a0: 6c7c 0ac0 0ec0 1b3c 9398 a33d 8925 86bd
000000b0: 9344 953c 1cce 99bf 87d3 dabe b8bc 0b3e
000000c0: 4e18 043f 4cde 653e 5325 a93e fee2 07bf
000000d0: 7489 b7be 7fa2 a63d f7ba 363f 2219 503e
000000e0: f497 323f ce70 ae3d 9860 4b3e dc7e 0e3e
000000f0: a4cd 713e 3818 acbf 95a6 7f3e 5648 423e
00000100: 8b97 2dbf d4e2 26be 52ec 9bbc af8c 933e
00000110: 1acc 41c0 5cd5 53bf 463a 9bbe 3ee5 4ebf
00000120: 358a 9d3e 8c39 0a3e fff3 13be 1c1f 8bbd
00000130: ffcb 31bf 963f 17c0 9893 bd3e 7e4f 1cc0
00000140: 68b4 d93d c3e4 34be 9b98 36bd cd92 11bf
00000150: c8a1 98be 61fa e03e bf73 b63c 9ea1 6bbf
00000160: 86e2 a3bb b69f 4e40 4869 99bf 6c3f 6cbf
00000170: 7336 483f 458b 963e 46b0 c5be 3e9e 51c0
00000180: 8790 98be 75c4 213e eaf1 c5be 5592 84bf
00000190: 1cd8 3bbf 97c3 933f 4202 16c0 5c38 1abf
000001a0: cda6 88c0 ca40 303d 6ffe 53bf a746 afbf
000001b0: 889d 9b3d bbea 963e 20e5 34bf 876f cabe
000001c0: 8669 683e 5ea4 f4be 1745 4d3f 7189 f93e
000001d0: c697 82be 5b8d 293d 0678 ed3e e688 9dbf
000001e0: 8e45 bdbe 0256 70bf 79c0 7bbe b4d9 66bf
000001f0: 00b6 cabf eae1 e73c 7dde 65bf 79ef 08bf
00000200: e85a 103d af9f 00bd 7051 aebc 0675 98bd
00000210: 714d e13c b269 d1bc 6e71 8ebd a803 cfbd
00000220: 606e f73d 7708 023c dcf1 673a 6c07 1ebd
00000230: 66ba d2bd 5d58 2fbe aa84 fe3d a354 4b3d
00000240: 0091 4eba 6478 cfbd 0081 98bc 4809 81bd
00000250: 09dc 1dbd 8a79 a1bd f89c d83c 31a6 5dbd
00000260: 83c8 553d 97c3 62bd ab0f a5bd bbea 85bb
00000270: b129 27bd 868c 15be 3837 0dbd d15c 803d
00000280: ba7f adbb 3429 b2bd c196 13be ddc2 8b3d
00000290: 52fd 09be ae0c 19bd cd6b a9bd 6d41 c53c
000002a0: cb32 f0bc 3ca8 d23d a795 993d 9814 a23d
000002b0: b026 6d3d a86c 13be 132d 863d 31c0 6fbd
000002c0: 0f0a 7fbd 0415 113a 14fc 8cbd ad03 48ba
000002d0: ae44 94bd 4169 8a3d e05e 323c f2a6 c6bd
000002e0: 2cee bebd 03e1 c9bd cc6c 30bd 6b9a 82bd
000002f0: c8d7 8cbd 34a5 07bd c024 06be 9385 7dbd
00000300: 2663 10bf 8351 8c3c 4462 debb 61e5 51bd
00000310: ca0c 83bf f814 743f 3809 04be 2182 7c3e
00000320: 2b6a f03d 379e e03d 3846 fcbe 7d41 823e
00000330: 1ba3 31be c5ae 66bf 2147 753f 2788 77bf
00000340: 423b f4be 8624 1d3e 6337 37be 4a13 02bf
00000350: 1969 85bd e513 e1bb 7eb9 083e f5dd 57bd
00000360: 098e 53bd b973 dc3f 6735 8d3c e9fb e1bd
00000370: 6806 473e 058b 7bbe 5581 d0bd dfbe 6ebf
00000380: 571a d1bd f1ab cabe ab86 4ebc a334 76bd
00000390: a9e8 ebbd ca0c 573f 96fe 7ebf 2ea7 4a3f
000003a0: ff40 c6bf 10e6 76bd e340 02be bef1 5dbe
000003b0: 1bbe 2cbd 0188 e3be a9c8 e53e 2d4d 20be
000003c0: c832 913f 83bd 663f 3def 703f 58ca 2b3d
000003d0: feb3 e6bd 39c0 31bd c760 583e 8783 de3d
000003e0: f3f9 82be 7a2b e1bd d43e 873d ead7 b93d
000003f0: e17e a73b cfd1 efbf d101 173f e489 17bd

fc2.bias f4 [64]
0.31047902 3.1837673 -0.17869008 1.21861 1.9896193 -0.32347703 -0.07082589 0.7185896
8.423083 -0.037074506 -1.5489012 0.14147387 -0.07014468 -0.29472837 0.08993199 0.025632177
-0.13355969 -8.135907 -0.07612746 -0.0048247855 1.7728645 0.029760279 0.37581676 -0.0051253084
-4.403417 4.944976 0.8088833 -0.077396646 -0.34980848 0.00019475188 -0.7963261 -0.08782814
-0.14702623 -0.06896176 -0.72791624 -0.09778507 -0.9115775 -0.3000159 0.025820455 -0.15599908
-0.27686667 -0.18249552 -0.23382066 5.324372 -0.09821105 4.5267987 1.5768266 -0.00483274
0.11885188 0.17247114 4.4306087 -0.16429901 -1.3194726 0.22992222 0.4701999 0.009171933
-0.301439 1.5387043 0.039990883 -0.08732519 -0.5107091 -0.046159353 4.556572 0.14587815
00000000: 1bf7 9e3e d8c2 4b40 88fa 36be 6afb 9b3f
00000010: d8ab fe3f c89e a5be 2a0d 91bd 7df5 373f
00000020: f3c4 0641 70db 17bd 6542 c6bf 87de 103e
00000030: 04a8 8fbd a3e6 96be 432e b83d 92fa d13c
00000040: dfc3 08be ad2c 02c1 b7e8 9bbd 3c19 9ebb
00000050: 39ed e23f d4cb f33c 0e6b c03e 34f2 a7bb
00000060: cbe8 8cc0 3e3d 9e40 fa12 4f3f 2282 9ebd
00000070: 191a b3be 4f36 4c39 07dc 4bbf 3ddf b3bd
00000080: 0b8e 16be d33b 8dbd b858 3abf 8a43 c8bd
00000090: 255d 69bf af9b 99be 6b85 d33c 39be 1fbe
000000a0: 78c1 8dbe 1be0 3abe af6e 6fbe 4161 aa40
000000b0: e022 c9bd 89db 9040 74d5 c93f f65b 9ebb
000000c0: 9d68 f33d 469c 303e 8cc7 8d40 003e 28be
000000d0: 7ae4 a8bf bb70 6b3e 0bbe f03e e045 163c
000000e0: 3656 9abe 43f4 c43f 7bcd 233d 8dd7 b2bd
000000f0: d5bd 02bf 9711 3dbd 70cf 9140 1561 153e

fc3.weight f4 [64, 64]
-0.5324305 -0.17287496 -0.06087826 0.17033838 0.47015086 0.86791694 -0.023576451 0.17872421
-0.22246584 1.0857654 0.021621734 0.043940622 0.9324291 -0.24218792 0.81422573 -0.6603258
0.03350778 -0.006433718 0.3566897 -0.11128555 0.18988657 0.8640525 0.20731156 0.49961695
-0.5918624 -0.45821664 0.7335196 0.98756963 -0.6568675 -0.0521876 -0.5268317 -0.4719513
0.23385175 -0.036546633 -1.1908458 -0.09288576 -0.76859057 -0.87030226 0.006635662 0.051514916
0.16920197 -2.2778866 -0.7006698 -0.44556478 -1.5694667 -0.2697663 -0.034394465 0.102579124
0.81281805 -0.8673608 -0.32302368 0.011678168 0.0285579 -0.27125117 0.073153175 1.1216468
-0.009356707 -1.3664569 -0.029381841 0.033770014 1.0275911 -0.012831051 -0.26884675 -0.8973781
-1.4046191 0.32972634 -0.011442407 -0.096757844 -1.4159381 0.5675995 0.033836298 -1.5327625
0.25269932 1.2763535 0.17920148 0.31680977 0.95550174 -1.1180661 0.91954 2.0826159
0.018662121 0.9725136 0.30387104 -0.006144741 -2.1886294 0.88378185 -0.10497905 0.117082626
0.9771661 -0.8553339 1.7373267 1.4853333 0.015224751 -0.015077927 -1.4088687 -0.46232095
0.38944104 0.027677288 -1.0222378 0.014190799 -3.0729756 -0.39474434 0.11733432 -0.12391224
0.13249241 -1.9211042 -1.3231434 0.3274338 0.1615746 -0.023181485 -0.14609289 -0.9345974
0.8670826 1.6023368 -0.07910201 0.062125392 0.10727262 -2.573909 -0.09494262 1.0500371
0.16383919 0.03448918 0.09972112 -0.09690257 1.3988498 0.03115335 -0.65433925 -0.8062235
-0.042381797 -0.020544603 0.123406395 -0.092707865 0.09501284 -0.016601387 -0.10665238 -0.0249693
-0.11751033 -0.027877111 0.0450199 -0.09126301 0.09479694 -0.07165835 -0.022806562 0.10413652
-0.05285083 -0.03725226 0.06950739 -0.044653 -0.11279728 0.060879447 -0.06992778 -0.119281486
-0.030457474 -0.03963351 0.102950804 0.043269813 -0.12842102 0.10431535 -0.08471003 0.048007432
0.018471066 -0.13249703 -0.07863339 -0.006225216 -0.066508666 -0.099983506 0.09740324 0.022571873
0.11508499 -0.09095318 -0.095706604 0.006579262 0.025814941 -0.1578574 -0.13454534 -0.12611838
0.01593316 0.018454334 0.04030754 0.07851581 -0.050161563 -0.016799688 -0.11059952 -0.09012071
-0.11194656 -0.06930002 -0.05786534 0.0048475266 -0.07620718 0.0032844692 -0.054012556 -0.13432342
-0.11522528 -0.3358689 -0.019446388 -0.08094957 0.7122373 0.20263956 0.053684622 0.7657754
-0.38728952 -1.571423 -0.16012818 -0.2050132 -0.9592968 0.032751996 -1.0440602 -1.9940737
0.034143314 -4.119984 -0.123741135 -0.011306592 0.34200326 -1.0422523 -0.014762578 0.009364975
-0.4523483 -0.008210263 -1.3324648 -1.692166 0.50141096 -0.105683364 -0.18322355 0.19848047
-0.37028706 0.4356651 -0.61898905 0.049905196 0.17857327 0.9275548 0.2891194 -0.01700277
-0.019964933 0.24090056 -0.96034765 -0.24053311 -1.1573632 -0.28689498 -0.58179504 0.11596432
-1.0287656 -0.5896742 0.08599578 -0.03738315 0.42191908 0.5024786 -0.021456901 -1.1432842
0.6434299 -0.11960105 0.09441162 -0.049586013 -1.550606 -0.018525884 -0.31876445 -0.075033285
00000000: 5e4d 08bf 2206 31be 7b5b 79bd 2f6d 2e3e
00000010: 9db7 f03e ce2f 5e3f 6723 c1bc 7b03 373e
00000020: 16ce 63be 5cfa 8a3f 1020 b13c 15fb 333d
00000030: acb3 6e3f 1c00 78be 1971 503f 1d0b 29bf
00000040: 743f 093d f0d1 d2bb 08a0 b63e aee9 e3bd
00000050: a071 423e 8b32 5d3f 7b49 543e cbcd ff3e
00000060: 4b84 17bf 5f9b eabe f1c7 3b3f 5dd1 7c3f
00000070: 7828 28bf aac2 55bd 71de 06bf 9aa3 f1be
00000080: d576 6f3e ecb1 15bd a36d 98bf e43a bebd
00000090: 5ac2 44bf 21cc 5ebf f86f d93b 4e01 533d
000000a0: 4843 2d3e e5c8 11c0 195f 33bf 1121 e4be
000000b0: 49e4 c8bf cf1e 8abe 36e1 0cbd 0115 d23d
000000c0: d814 503f 5b0b 5ebf 5c63 a5be c955 3f3c
000000d0: 42f2 e93c 6fe1 8abe 55d1 953d 1f92 8f3f
000000e0: e04c 19bc 0fe8 aebf 30b2 f0bc 6d52 0a3d
000000f0: 1b88 833f 5439 52bc 48a6 89be 92ba 65bf
00000100: 8fca b3bf e4d1 a83e ef78 3bbc fa28 c6bd
00000110: 763d b5bf 334e 113f ee97 0a3d 9031 c4bf
00000120: ce61 813e 8d5f a33f 9880 373e e434 a23e
00000130: c39b 743f ca1c 8fbf f966 6b3f 9449 0540
00000140: 4ee1 983c a7f6 783f fc94 9b3e d359 c9bb
00000150: 8112 0cc0 873f 623f 42ff d6bd 04c9 ef3d
00000160: 8f27 7a3f 2af7 5abf b960 de3f 671f be3f
00000170: 3c71 793c 6909 77bc cf55 b4bf 55b5 ecbe
00000180: d164 c73e 7bbb e23c b0d8 82bf 8680 683c
00000190: a2ab 44c0 ee1b cabe fa4c f03d b3c5 fdbd
000001a0: 17ac 073e bee6 f5bf c35c a9bf 67a5 a73e
000001b0: d073 253e 19e7 bdbc 6099 15be c641 6fbf
000001c0: 20f9 5d3f 5f19 cd3f 3c00 a2bd 3277 7e3d
000001d0: bfb1 db3d edba 24c0 4771 c2bd 9e67 863f
000001e0: 76c5 273e 8744 0d3d 963a cc3d db74 c6bd
000001f0: 830d b33f 4f35 ff3c c782 27bf aa64 4ebf
00000200: 8998 2dbd 284d a8bc 7ebc fc3d 9fdd bdbd
00000210: 1896 c23d a2ff 87bc 906c dabd 6b8c ccbc
00000220: 42a9 f0bd 8a5e e4bc c966 383d 1ae8 babd
00000230: e624 c23d 9dc1 92bd d4d4 babc 8745 d53d
00000240: 1d7a 58bd d395 18bd e459 8e3d 10e6 36bd
00000250: 4302 e7bd ba5c 793d 4c36 8fbd da49 f4bd
00000260: f481 f9bc bf56 22bd dfd7 d23d b03b 313d
00000270: cd80 03be 49a3 d53d 747c adbd 71a3 443d
00000280: a250 973c 4dad 07be 8b0a a1bd e6fc cbbb
00000290: b235 88bd 27c4 ccbd 5a7b c73d a6e8 b83c
000002a0: aeb1 eb3d a945 babd d301 c4bd da96 d73b
000002b0: db79 d33c 5fa5 21be 41c6 09be 2d25 01be
000002c0: 4286 823c 8b2d 973c 8519 253d e6cc a03d
000002d0: 3676 4dbd 809f 89bc 0082 e2bd 3591 b8bd
000002e0: 3d44 e5bd 2bed 8dbd 3504 6dbd 00d8 9e3b
000002f0: 8312 9cbd 4040 573b 453c 5dbd 148c 09be
00000300: 3bfb ebbd 02f7 abbe 084e 9fbc e3c8 a5bd
00000310: 2f55 363f bf80 4f3e 68e4 5b3d db09 443f
00000320: d04a c6be 6424 c9bf a4f8 23be fbee 51be
00000330: 7a94 75bf f526 063d c4a3 85bf cf3d ffbf
00000340: dcd9 0b3d e9d6 83c0 fe6b fdbd 493f 39bc
00000350: 0d1b af3e 8668 85bf bdde 71bc 8d6f 193c
00000360: 329a e7be 5784 06bc 358e aabf e598 d8bf
00000370: 785c 003f 8570 d8bd f49e 3bbe 773e 4b3e
00000380: 4496 bdbe 7f0f df3e 1176 1ebf 6469 4c3d
00000390: e9db 363e 3b74 6d3f 7507 943e 6549 8bbc
000003a0: 808d a3bc a3ae 763e 58d9 75bf 504e 76be
000003b0: 7a24 94bf e6e3 92be 85f0 14bf b47e ed3d
000003c0: 97ae 83bf e3f4 16bf 8e1e b03d 131f 19bd
000003d0: c705 d83e 70a2 003f 62c6 afbc 2357 92bf
000003e0: d2b7 243f 65f1 f4bd e15a c13d b41a 4bbd
000003f0: 427a c6bf 98c3 97bc 1835 a3be 0dab 99bd

fc3.bias f4 [64]
-6.5704527 -9.25897 -0.13095869 -1.5983653 -9.774202 -9.57056 10.4365015 0.011726659
0.0013677287 -9.428953 9.877789 -9.113099 -10.054712 0.00806146 -9.310962 -0.15109657
-0.12138265 -9.626796 -8.207037 -9.27322 -0.032838885 -4.695968 -3.5105217 -9.584776
-0.052501474 -1.2199414 -6.8757105 -0.06796898 -10.536559 -6.5776772 -0.033359904 8.475652
0.12018502 -9.16033 -1.3796476 -4.368888 -7.5879884 -9.735893 -9.909317 -9.817239
-0.036020726 -9.359093 -7.9058976 0.17982952 -9.227087 -0.19556175 -7.6920204 -8.790703
-8.620886 -5.6492686 -2.9380276 -9.287806 0.08759155 -9.842802 -1.9622405 -2.0726562
-8.520426 9.011977 -5.4480376 -0.1734202 -9.744251 -0.16491887 -9.413084 5.567889
00000000: 2641 d2c0 be24 14c1 091a 06be 3c97 ccbf
00000010: 2263 1cc1 0421 19c1 e9fb 2641 2c21 403c
00000020: 5c45 b33a fedc 16c1 6c0b 1e41 41cf 11c1
00000030: 1ae0 20c1 3714 043c b3f9 14c1 0fb9 1abe
00000040: 7897 f8bd 5b07 1ac1 0650 03c1 1c5f 14c1
00000050: 1182 06bd 5f45 96c0 63ac 60c0 3e5b 19c1
00000060: c90b 57bd 0a27 9cbf d205 dcc0 5233 8bbd
00000070: bf95 28c1 557c d2c0 65a4 08bd 459c 0741
00000080: 9023 f63d b690 12c1 4b98 b0bf eecd 8bc0
00000090: cdd0 f2c0 38c6 1bc1 908c 1ec1 6913 1dc1
000000a0: 788a 13bd d8be 15c1 1dfd fcc0 3b25 383e
000000b0: 26a2 13c1 5741 48be 0825 f6c0 b8a6 0cc1
000000c0: 26ef 09c1 cfc6 b4c0 a508 3cc0 da9a 14c1
000000d0: 3363 b33d 1e7c 1dc1 b22a fbbf 66a6 04c0
000000e0: aa53 08c1 0f31 1041 5356 aec0 1195 31be
000000f0: 74e8 1bc1 7ee0 28be fe9b 16c1 262c b240

q_out.weight f4 [1, 64]
-0.010772611 -1.0577282 -0.030360416 -0.012671099 0.022388455 -1.069432 0.85950685 -0.007907795
-0.034866564 0.013127735 -0.018938461 -0.34616166 -0.8708191 0.02406788 -1.1098847 0.02598148
-0.02365878 -0.85058296 -0.2729487 -1.0540029 0.0074372785 0.23932752 -0.1663782 -0.91309637
0.028689658 0.55814254 -0.30874616 0.022055747 -0.7869962 0.01297389 -0.010756363 0.99495345
-0.0027842273 -0.22708872 -0.89423335 -1.7527146 0.30312866 0.010083955 -0.41958287 -0.023957413
0.007780617 0.025930079 -0.36755016 0.0008668882 -0.235046 -0.0030259783 -0.04489775 -0.1686139
-0.23707983 -0.52356017 -2.7242682 -9.034744e-05 0.023775363 -0.7202017 -0.38519555 -0.013873925
-0.53032166 -0.007540954 -0.0070695584 -0.0030258696 -0.87399596 0.07073991 -1.1129395 1.3037162
00000000: 9b7f 30bc a363 87bf 68b6 f8bc 719a 4fbc
00000010: fe67 b73c 26e3 88bf a408 5c3f b28f 01bc
00000020: 3ed0 0ebd b615 573c d524 9bbc 1a3c b1be
00000030: 00ee 5ebf 012a c53c b410 8ebf 1dd7 d43c
00000040: 0fd0 c1bc cebf 59bf efbf 8bbe 91e9 86bf
00000050: 6ab4 f33b 4612 753e 0c5f 2abe afc0 69bf
00000060: 9306 eb3c 6ee2 0e3f fa13 9ebe 41ae b43c
00000070: 9578 49bf 7090 543c 753b 30bc 45b5 7e3f
00000080: 9577 36bb f289 68be 7aec 64bf f458 e0bf
00000090: ae33 9b3e 2c37 253c 91d3 d6be 5642 c4bc
000000a0: 8cf4 fe3b 516b d43c 892f bcbe e23f 633a
000000b0: e6af 70be 7e4f 46bb b4e6 37bd 1fa9 2cbe
000000c0: 0ec5 72be 0a08 06bf 695a 2ec0 ea78 bdb8
000000d0: 8dc4 c23c 235f 38bf 5a38 c5be 764f 63bc
000000e0: 29c3 07bf 1b1a f7bb c1a7 e7bb ab4d 46bb
000000f0: 33be 5fbf 16e0 903d cd74 8ebf 2ce0 a63f
