Exp3_MPE/parameters_save/simple_push/actor_params.pkl (torch_old, 39275 bytes, 8 tensors)

fc1.weight f4 [64, 12]
0.21800798 -0.25084025 0.0185277 -0.11199333 0.1698945 -0.11977856 0.17399232 -0.08350779
0.17025866 -0.10011048 0.11550029 -0.15633416 0.32020226 0.3276627 0.26588213 0.37601787
-0.073862836 0.31895193 0.060511895 -0.012458249 0.026559977 0.28631255 -0.033370215 0.32616538
0.03957656 -0.14317219 0.036138482 -0.03521268 -0.17982437 -0.15488854 -0.1615425 -0.029893467
0.29834196 -0.05565069 0.06948677 0.035029758 -0.07823733 -0.09840609 0.14473796 -0.020231172
0.06181731 0.24646704 0.21801525 0.07810863 -0.06150103 0.30030644 0.24139763 -0.021113405
0.03875488 0.00981444 0.062231977 0.2487963 0.21917787 0.027047707 0.105793126 0.14046131
-0.25342548 -0.20652656 -0.26832673 0.17999482 -0.28084135 0.16197984 0.16833313 -0.02032116
-0.07883753 0.08170647 0.15977429 -0.27685407 0.0061229747 -0.23863752 0.07818977 0.23523417
0.008891499 0.2662435 -0.15700887 0.07018596 0.1345687 0.07872023 0.15564233 0.039382774
-0.116560444 0.080685385 0.09011631 -0.30642208 -0.11425699 -0.07370339 0.063618906 0.23409562
0.03996475 -0.15525223 0.19704267 -0.024540914 -0.11404164 0.12834623 0.020881776 -0.18202308
-0.048084784 0.025984295 -0.07788463 -0.040246442 0.024647957 0.15980536 -0.0062922686 0.04428946
0.078208804 -0.15170795 0.040637884 0.2698358 -0.15122546 0.2246126 0.009443072 0.25554505
0.21759029 -0.21803856 0.0989813 0.13726696 -0.119247064 -0.23159666 -0.26403725 0.10383333
0.15136473 -0.100798994 0.21437183 0.09496131 -0.17439264 0.018741589 0.12074312 0.11606038
-0.118149325 -0.13224377 0.055723716 -0.22558485 0.105717786 -0.09798443 0.062312625 0.32851863
-0.11626022 0.12748234 0.33001477 0.03528038 -0.011349784 -0.088754974 -0.21831483 -0.1470917
-0.31213918 -0.06222383 0.24709353 -0.09590583 0.2238299 -0.20939021 0.14030747 0.24254234
0.07507413 -0.14962281 -0.31068248 0.20059438 -0.22941919 0.10464956 0.052905973 -0.22970782
0.23801166 -0.1385096 0.029687325 -0.16711643 0.21063422 0.11896652 0.1576861 -0.0027685212
-0.11992261 -0.04144207 -0.17368099 0.23521075 -0.13291317 -0.10409731 0.18123533 0.23624018
0.16116738 -0.054672252 0.14744923 -0.16764162 0.13493085 -0.1614016 -0.14470363 0.18481192
-0.18477364 0.011479197 0.04901997 0.010751671 0.052346386 0.05254134 -0.06384443 0.054519255
0.060166396 0.17121582 0.033336993 -0.07859642 -0.17168595 0.13535173 -0.24783261 0.27556124
-0.1581026 0.21898846 -0.11744435 0.11125117 -0.16434327 -0.2739213 -0.016165152 0.098857455
0.16373979 -0.08500497 -0.23127489 0.24042335 -0.08770969 0.20167892 0.15160091 0.18744838
-0.10107797 -0.028896278 -0.098212704 0.26124787 -0.09822438 0.0076273875 -0.21836963 0.07773007
0.1250343 0.19009934 0.07592187 0.046601076 0.006696703 0.1654856 0.06910299 -0.15877931
-0.05947599 -0.037473954 0.14983602 -0.027068047 0.15856089 -0.060266886 -0.103752226 -0.09970357
-0.11718263 -0.2619197 0.22793476 -0.044451095 0.21010223 0.22988981 0.08555469 -0.21501966
0.17746475 -0.09310447 -0.28962496 0.096265316 0.08241323 0.1767072 0.013332248 0.21369575
00000000: 7c3d 5f3e 226e 80be 67c7 973c c25c e5bd
00000010: d3f8 2d3e 764e f5bd 0b2b 323e 2206 abbd
00000020: 4958 2e3e b906 cdbd 6b8b ec3d 1016 20be
00000030: 8df1 a33e 68c3 a73e b421 883e 6a85 c03e
00000040: 6645 97bd ab4d a33e 52db 773d af1d 4cbc
00000050: 4f94 d93c 8f97 923e 35af 08bd 26ff a63e
00000060: 081b 223d bb9b 12be f205 143d 2c3b 10bd
00000070: e123 38be 1a9b 1ebe 666b 25be 25e3 f4bc
00000080: 47c0 983e faf1 63bd 144f 8e3d 5d7b 0f3d
00000090: e53a a0bd 2289 c9bd 3036 143e d8bb a5bc
000000a0: 2634 7d3d db61 7c3e 643f 5f3e 6bf7 9f3d
000000b0: 81e8 7bbd c4c1 993e f130 773e 05f6 acbc
000000c0: 70bd 1e3d bfcc 203c f5e6 7e3d 75c4 7e3e
000000d0: 2a70 603e 2793 dd3c 11aa d83d 17d5 0f3e
000000e0: fcc0 81be b37b 53be 1f62 89be 9050 383e
000000f0: 70ca 8fbe 0bde 253e 855f 2c3e 9078 a6bc
00000100: 9275 a1bd b955 a73d df9b 233e d1bf 8dbe
00000110: 3ca3 c83b 655d 74be f521 a03d 3ae1 703e
00000120: a6ad 113c 1151 883e efc6 20be a8bd 8f3d
00000130: 61cc 093e 1238 a13d b460 1f3e d54f 213d
00000140: 3eb7 eebd 613e a53d e68e b83d 5be3 9cbe
00000150: 92ff e9bd cef1 96bd a14a 823d c3b6 6f3e
00000160: 14b2 233d 71fa 1ebe 8ec5 493e 070a c9bc
00000170: aa8e e9bd 326d 033e 4210 ab3c 4264 3abe
00000180: 8df4 44bd 04dd d43c fa81 9fbd 74d9 24bd
00000190: 83ea c93c 04a4 233e 602f cebb dd68 353d
000001a0: f02b a03d 5459 1bbe e973 263d eb27 8a3e
000001b0: d9da 1abe d800 663e 1db7 1a3c cdd6 823e
000001c0: fdcf 5e3e 8045 5fbe b5b6 ca3d b68f 0c3e
000001d0: ce37 f4bd ad27 6dbe e42f 87be 92a6 d43d
000001e0: 5bff 1a3e b46f cebd 4a84 5b3e 137b c23d
000001f0: fc93 32be f687 993c 2b48 f73d 11b1 ed3d
00000200: 46f8 f1bd e96a 07be 8d3e 643d b7ff 66be
00000210: 9182 d83d 10ac c8bd 863b 7f3d 9833 a83e
00000220: d719 eebd bb8a 023e b2f7 a83e 2982 103d
00000230: 72f4 39bc 2bc5 b5bd ec8d 5fbe 359f 16be
00000240: b5d0 9fbe 6ade 7ebd 1606 7d3e 476a c4bd
00000250: aa33 653e 636a 56be c3ac 0f3e 055d 783e
00000260: 77c0 993d b936 19be c611 9fbe 9d68 4d3e
00000270: ddec 6abe 8252 d63d efb3 583d 8738 6bbe
00000280: 54b9 733e 76d5 0dbe d532 f33c 9220 2bbe
00000290: 7fb0 573e b8a4 f33d 7778 213e 1470 35bb
000002a0: fc99 f5bd 29bf 29bd 6ed9 31be 16db 703e
000002b0: 641a 08be f830 d5bd c195 393e f2e8 713e
000002c0: 1009 253e 03f0 5fbd eefc 163e 3faa 2bbe
000002d0: 502b 0a3e 7646 25be 302d 14be 563f 3d3e
000002e0: 4d35 3dbe 3e13 3c3c 2ac9 483d c727 303c
000002f0: 2a69 563d 9735 573d dec0 82bd 954f 5f3d
00000300: 0a71 763d 3353 2f3e 5f8c 083d 29f7 a0bd
00000310: 71ce 2fbe a599 0a3e d5c7 7dbe 5d16 8d3e
00000320: a6e5 21be 833e 603e aa86 f0bd a7d7 e33d
00000330: 9a49 28be 6a3f 8cbe c86c 84bc c775 ca3d
00000340: 67ab 273e 1617 aebd 53d3 6cbe 8a31 763e
00000350: 23a1 b3bd eb84 4e3e 453d 1b3e 78f2 3f3e
00000360: f701 cfbd e3b7 ecbc be23 c9bd 48c2 853e
00000370: dd29 c9bd 2aef f93b 4a9c 5fbe f130 9f3d
00000380: fe08 003e 67a9 423e ed7c 9b3d c5e0 3e3d
00000390: 0470 db3b 0f75 293e de85 8d3d 0b97 22be
000003a0: 189d 73bd 4a7e 19bd 9d6e 193e cfbd ddbc
000003b0: c95d 223e 69da 76bd 0c7c d4bd 6331 ccbd
000003c0: 72fd efbd 571a 86be bb67 693e 5a12 36bd
000003d0: 0a25 573e 3c68 6b3e 4c37 af3d 1d2e 5cbe
000003e0: 52b9 353e 8ead bebd b949 94be c026 c53d
000003f0: 44c8 a83d bbf2 343e 806f 5a3c 0fd3 5a3e

fc1.bias f4 [64]
-0.36654937 -0.49401048 1.1240009 -0.21010835 -1.0686284 -0.22190815 -1.453006 -0.3503217
-1.2825468 -0.4850152 -3.2158768 -1.703243 -0.52339953 -0.3950344 -0.42182606 -1.4500004
-0.33733016 -0.41674423 -0.6153469 -0.3119636 -0.3885752 -0.24459691 -0.021330561 -0.9165149
-0.14193894 -0.32031512 -1.0223908 -0.6198675 -0.18126488 -1.3845716 -0.7122766 -0.3893503
0.13895835 2.378076 -0.24342552 -0.5832654 -0.31345832 -0.6014383 -0.8658997 -0.5845939
-0.7878429 -2.8928118 -1.0062062 -0.016458228 -0.38860646 3.7998583 -1.1367242 -0.13893025
-0.16536097 -0.7870603 -0.23340715 -0.5795886 -1.1016644 -0.7134507 -0.25307718 -0.4326309
-0.71848106 -1.0275788 -0.1641978 -3.1816316 -0.75422287 -0.6008702 -0.09098807 0.2267287
00000000: 5cac bbbe f1ee fcbe 43df 8f3f a526 57be
00000010: d1c8 88bf e43b 63be 1afc b9bf 5e5d b3be
00000020: 7e2a a4bf ea53 f8be edd0 4dc0 de03 dabf
00000030: 83fd 05bf f341 cabe 96f9 d7be 9d99 b9bf
00000040: 8ab6 acbe 805f d5be 6087 1dbf b1b9 9fbe
00000050: 54f3 c6be 9d77 7abe 6ebd aebc b8a0 6abf
00000060: 7158 11be 5800 a4be b4dd 82bf a3af 1ebf
00000070: 809d 39be a439 b1bf c257 36bf ec58 c7be
00000080: 194b 0e3e 6632 1840 8a44 79be e250 15bf
00000090: 9c7d a0be dcf7 19bf 9aab 5dbf f2a7 15bf
000000a0: 13b0 49bf d423 39c0 5dcb 80bf 68d3 86bc
000000b0: 6df7 c6be e130 7340 2e80 91bf bb43 0ebe
000000c0: 6354 29be c97c 49bf 4902 6fbe eb5f 14bf
000000d0: 5703 8dbf b4a4 36bf 5593 81be cc81 ddbe
000000e0: 60ee 37bf b487 83bf 7823 28be da9f 4bc0
000000f0: c014 41bf a1d2 19bf f457 babd 912b 683e

fc2.weight f4 [64, 64]
-0.13751025 0.65416366 -0.7946622 -0.100634165 -1.601133 -0.020416569 -0.82903534 0.20527455
-0.7928772 0.051297788 -1.5244079 -1.6761826 -0.18178561 0.28359392 0.57536584 -1.094533
-0.1712691 0.0021218723 0.7356973 0.09232828 -0.40550798 0.19232532 0.0521873 0.18090072
-0.67333907 0.08014529 -1.0700161 -2.4996872 0.114026085 -1.2676212 1.2407068 -0.5025803
1.3482664 -0.105334334 0.09550435 -0.42274374 0.2402508 0.8048097 0.1660172 -0.08408828
0.31359062 -0.8157581 -1.8982643 0.13416786 -0.06812531 -0.7462361 -1.6899004 0.053521644
0.061865076 -0.5582224 0.16458635 0.49527028 -1.3216174 -1.3684903 0.2560503 1.1660274
-0.5673798 -1.0416957 -0.94634426 -1.3026066 0.0005973009 -0.07329668 1.0374529 0.033412434
0.019999588 -0.2780915 -0.6411005 -0.0501606 -2.3104582 0.0027462512 -1.0711867 0.028128127
-0.6333322 -0.024390236 -1.1053965 -1.3668011 0.037511613 0.066712335 -0.026323095 -2.4726357
-0.21367379 0.03878028 -0.06640796 0.01620812 0.07015269 0.06936708 -0.011735464 -0.8515241
-0.13021979 0.113968335 -0.11471114 -0.02943468 0.0065263724 -1.1371748 0.0013250808 -0.22452466
-0.536968 0.062097684 -0.064904556 -1.0166255 -0.2334366 -0.36955014 -0.83284277 -0.0010705
-0.9667828 -0.91759485 -1.4469656 -0.22872782 -0.5504517 -0.6395872 -1.1733124 -0.082654856
0.10760078 -0.9533606 0.0707362 0.07827427 -1.5306393 -1.0428015 0.05672813 -0.69851047
-0.2908533 -1.0785136 -0.022731325 -0.8873687 -0.4306988 -0.3091028 -0.54650104 -0.08905598
-0.0701484 -0.32619914 -0.3936885 0.12280282 -2.500224 0.0013298349 -1.8598882 -0.20930916
-0.515978 -0.1576096 -1.4176387 -1.4074402 0.04518773 -0.122925565 0.15164243 -1.9836551
0.06753964 -0.13193326 0.10120556 -0.06892981 0.10897767 0.13207406 0.044836763 -0.5648832
0.051246315 0.05180517 0.023799673 -0.098709494 0.05015681 -1.0290751 -0.1180277 -0.29535815
-0.64780664 0.092182085 0.005671283 -0.96946144 0.082132116 -0.560639 -0.7046029 0.09025654
-0.72308695 -0.8586996 -1.3527265 -0.030287208 -0.7423844 -0.34712902 -1.2883115 0.06367076
0.066336535 -0.7728039 0.18736622 -0.11274794 -1.7324544 -0.9114919 -0.009802376 -0.49456215
-0.18074025 -1.2841568 -0.106666744 -1.07065 -0.55266047 -0.37666726 -0.41947633 0.009381354
-0.019131806 -0.104872435 -0.80782217 -0.07348773 -0.010054677 -0.12225722 -0.04799269 -0.24496084
-0.12401416 -0.038772456 -0.113677084 0.042632088 0.2778869 -0.12166428 0.15360458 -0.11268325
0.07658133 0.08386788 -0.37212068 -0.08482975 0.05696657 -0.13030271 0.08604723 0.8033816
-0.028874736 0.049825452 0.15745328 0.08783287 -0.13474876 -0.019894654 -0.09441582 -0.036229886
-0.043565463 -0.67446536 0.04471541 0.091459356 -0.086479776 0.62680405 0.77759564 -0.01184074
0.77908474 0.07634453 0.030082172 -0.14011566 -0.41342485 -0.5845806 0.049816642 -0.15715116
-0.025215179 0.040305067 0.043647807 0.27703094 0.084710635 -0.08166396 0.045715645 -0.096762545
0.22958404 0.06642047 -0.064332485 -0.12063705 0.9543701 0.7493366 -0.48946276 -0.1604494
00000000: 7dcf 0cbe 4577 273f fb6e 4bbf 4919 cebd
00000010: edf1 ccbf a640 a7bc a93b 54bf 7e33 523e
00000020: 00fa 4abf a11d 523d cc1f c3bf 278d d6bf
00000030: 0226 3abe 3933 913e 2d4b 133f a819 8cbf
00000040: 2b61 2fbe 1c0f 0b3b a956 3c3f 9c16 bd3d
00000050: be9e cfbe eef0 443e 5ac2 553d 0a3e 393e
00000060: f35f 2cbf 3723 a43d 4af6 88bf e0fa 1fc0
00000070: 8286 e93d 6941 a2bf 7bcf 9e3f 1aa9 00bf
00000080: fe93 ac3f 87b9 d7bd c997 c33d de71 d8be
00000090: 4e04 763e 0208 4e3f 6a00 2a3e 7a36 acbd
000000a0: f38e a03e 86d5 50bf 53fa f2bf 4d63 093e
000000b0: 4885 8bbd 5409 3fbf a84e d8bf 8339 5b3d
000000c0: 3c66 7d3d aae7 0ebf 5389 283e 1194 fd3e
000000d0: c22a a9bf b12a afbf 0619 833e 6340 953f
000000e0: cd3f 11bf 4956 85bf 9e43 72bf d0bb a6bf
000000f0: 2f94 1c3a 921c 96bd 42cb 843f 7adb 083d
00000100: 2dd6 a33c 0262 8ebe 2a1f 24bf 3475 4dbd
00000110: 8cde 13c0 73fa 333b a51c 89bf f56c e63c
00000120: 0f22 22bf 08ce c7bc a27d 8dbf 57f3 aebf
00000130: c7a5 193d 7aa0 883d 88a3 d7bc aa3f 1ec0
00000140: 4dcd 5abe 12d8 1e3d e600 88bd e4c6 843c
00000150: 37ac 8f3d 5410 8e3d 1b46 40bc 7cfd 59bf
00000160: 5658 05be 3b68 e93d aded eabd ff20 f1bc
00000170: 2edb d53b f28e 91bf 55ae ad3a cbe9 65be
00000180: bc76 09bf 245a 7e3d aeec 84bd c920 82bf
00000190: 010a 6fbe ad35 bdbe 2f35 55bf 0550 8cba
000001a0: 147f 77bf 7fe7 6abf 2b36 b9bf a037 6abe
000001b0: 67ea 0cbf fdbb 23bf 1a2f 96bf f346 a9bd
000001c0: cc5d dc3d 710f 74bf 24de 903d 434e a03d
000001d0: fdeb c3bf 857a 85bf c15b 683d 95d1 32bf
000001e0: b9ea 94be bc0c 8abf 0b37 babc 982a 63bf
000001f0: 8e84 dcbe b942 9ebe 7ee7 0bbf fb62 b6bd
00000200: f7a9 8fbd 9303 a7be 8a91 c9be 0b80 fb3d
00000210: ac03 20c0 db4d ae3a d110 eebf 2455 56be
00000220: 2217 04bf 6964 21be 2f75 b5bf 0027 b4bf
00000230: c516 393d 66c0 fbbd 2748 1b3e 69e8 fdbf
00000240: 3952 8a3d 8319 07be dc44 cf3d 122b 8dbd
00000250: af2f df3d 6c3e 073e c1a6 373d 2f9c 10bf
00000260: a8e7 513d a831 543d 88f7 c23c 3428 cabd
00000270: 3a71 4d3d bcb8 83bf 82b8 f1bd 2f39 97be
00000280: a8d6 25bf f6c9 bc3d 2cd6 b93b a02e 78bf
00000290: e234 a83d 0a86 0fbf db60 34bf 6cd8 b83d
000002a0: 3a1c 39bf bdd3 5bbf 2426 adbf e11c f8bc
000002b0: e70c 3ebf e5ba b1be 64e7 a4bf d165 823d
000002c0: 73db 873d 7ad6 45bf eedc 3f3e 64e8 e6bd
000002d0: 11c1 ddbf 8857 69bf 259a 20bc 4037 fdbe
000002e0: f913 39be 405f a4bf 1874 dabd 0f0b 89bf
000002f0: 287b 0dbf 88da c0be 9ac5 d6be 40b4 193c
00000300: 4eba 9cbc 5cc7 d6bd 6fcd 4ebf bc80 96bd
00000310: 5fbc 24bc fe61 fabd fc93 44bd 04d7 7abe
00000320: 23fb fdbd decf 1ebd 88cf e8bd fc9e 2e3d
00000330: 3147 8e3e 1f2b f9bd 854a 1d3e 7ac6 e6bd
00000340: acd6 9c3d ecc2 ab3d 9a86 bebe 38bb adbd
00000350: c755 693d 136e 05be 8839 b03d 6baa 4d3f
00000360: b68a ecbc c615 4c3d 6f3b 213e b8e1 b33d
00000370: 94fb 09be 1dfa a2bc 155d c1bd ca65 14bd
00000380: b371 32bd c3a9 2cbf 8127 373d 0b4f bb3d
00000390: 4f1c b1bd 3b76 203f 8210 473f aaff 41bc
000003a0: 1972 473f 855a 9c3d e36e f63c 7b7a 0fbe
000003b0: 6cac d3be 13a7 15bf 890c 4c3d 3cec 20be
000003c0: 1090 cebc ed16 253d 0bc8 323d 00d7 8d3e
000003d0: c57c ad3d 6f3f a7bd 5440 3b3d 712b c6bd
000003e0: 1418 6b3e 7507 883d c0c0 83bd 8f10 f7bd
000003f0: 9951 743f 86d4 3f3f dd9a fabe d94c 24be

fc2.bias f4 [64]
-0.89681107 0.19130003 0.044155825 -0.6194203 -0.0775242 -0.0777131 -0.23208395 -0.48165345
-0.32804954 -0.8740141 -0.0010236172 -0.27730986 -0.60424197 -0.023433274 -2.3110726 -0.17937316
-0.55142874 -0.7682623 -0.1788683 -0.70200765 0.22358903 -0.0407705 1.5015844 -1.2923418
-0.3667311 -0.84892696 -0.091078006 0.5784267 -1.3334881 -1.2660387 -0.32139358 -0.10236397
0.6212335 -1.5038714 -0.09987653 -0.07709452 0.008357268 -0.3525948 -0.054182764 -0.8637264
-0.2707892 -0.46365565 -0.031995088 0.019684112 -0.5925332 -0.715991 -0.23827504 -0.4383742
-0.04989786 0.027973153 0.113175705 -0.14298147 -0.68121225 0.047357947 -0.055689573 0.44003847
-0.2084308 -0.191877 0.12633409 -0.05864596 -0.11807512 0.51024413 -0.20303245 0.08338617
00000000: 6995 65bf 28e4 433e bddc 343d 5492 1ebf
00000010: 02c5 9ebd 0c28 9fbd 6aa7 6dbe 489b f6be
00000020: 1cf6 a7be 63bf 5fbf e52a 86ba 8ffb 8dbe
00000030: 9aaf 1abf 23f7 bfbc 9de8 13c0 99ad 37be
00000040: 6f2a 0dbf d7ac 44bf 4029 37be c6b6 33bf
00000050: 86f4 643e f8fe 26bd eb33 c03f 756b a5bf
00000060: 2ec4 bbbe 4753 59bf 1b87 babd c613 143f
00000070: bdaf aabf 8e0d a2bf b38d a4be 33a4 d1bd
00000080: 2909 1f3f dc7e c0bf 118c ccbd bbe3 9dbd
00000090: ecec 083c 4e87 b4be bfee 5dbd 2c1d 5dbf
000000a0: e2a4 8abe 4664 edbe 480d 03bd 9340 a13c
000000b0: 41b0 17bf 304b 37bf 5ffe 73be 9572 e0be
000000c0: b361 4cbd f427 e53c aac8 e73d bc69 12be
000000d0: ed63 2ebf 68fa 413d c01a 64bd b94c e13e
000000e0: e26e 55be 677b 44be b95d 013e bf36 70bd
000000f0: 5ed1 f1bd 5c9f 023f bde7 4fbe 5ec6 aa3d

fc3.weight f4 [64, 64]
-0.29418334 -0.6061351 -1.1327244 0.11773448 -0.06763209 0.09405681 -0.054532677 -0.04743654
0.19687426 -1.0222187 0.021548389 0.23419352 -0.14018258 0.09702796 0.68728846 0.11817679
0.30624124 0.13487081 -0.10313811 0.6732575 -0.8911005 0.09112305 0.8247667 0.28199953
-0.16013204 0.79345334 -0.34428555 -0.8885324 -0.29974473 0.94744337 -0.28265187 -0.058171675
-0.4874473 0.18167602 -0.0071419673 0.04043918 0.5562012 -1.0745656 0.07610018 0.4921205
-0.96420586 -0.08474932 0.07505071 -0.78228575 1.1985277 0.17014897 -0.37320915 3.5995345
-0.066614315 -0.8482448 0.09765551 0.045053333 1.0158473 0.9708912 0.15719007 -0.2900794
-0.23047294 0.11123873 -0.51611775 0.055195145 0.07585713 -2.7428517 0.09933724 -0.7143102
0.0910092 1.8635911 0.33924997 0.06592576 0.08012168 0.063756794 -0.05506001 0.009383755
-0.0014904775 0.040146656 0.6278899 0.019170685 0.049308103 0.07212001 0.4663859 0.06791981
-0.25756496 0.087486275 -0.03531467 -0.110060826 2.6290922 0.10904929 0.48798046 0.4922305
0.15208772 0.12639308 0.22214249 0.11149583 0.3776152 0.12902524 -0.0538219 -0.11501424
0.76941824 1.303013 -0.10115967 -0.08113106 0.40284884 0.33209372 0.06494792 -1.4781003
0.3062221 -0.06133636 -0.07707802 0.4836084 0.35667235 0.25507358 0.014245406 2.7948565
0.021448703 0.4922537 1.0082783 -0.13498214 -0.08171607 -2.2423768 0.03459522 1.1893106
0.0008774786 0.0889743 0.22724633 -0.040652856 -0.0982543 0.23332967 0.1548238 1.1816809
-0.17449382 -0.85510945 -0.5314155 1.6585212 0.0836014 -0.034070387 0.12249692 0.28167537
0.032552537 0.8995579 -0.5604124 -0.14764857 0.6839068 -0.11276968 -0.7755186 -0.043269936
0.027507268 0.72414565 -0.13680242 0.22713654 -0.97983676 0.018607056 -1.014758 0.6299687
0.41516304 0.8449528 -0.7395015 -0.46105617 -0.57184786 0.027212165 -0.115957156 0.1361898
-0.39456302 -0.3536293 0.062074494 -0.01514325 0.06406247 0.04422391 0.048127767 -0.17150624
0.25661308 0.31596816 -0.19752702 -0.64164126 -0.1962719 0.9551229 0.2462737 -0.40669763
-0.005767001 -0.7066863 0.0274226 0.041677117 -0.11905943 -0.079984084 -0.11969637 -0.80847824
-0.0011032075 0.0468404 -1.0585816 -0.1246271 -0.11463442 0.09679201 0.097923785 -0.8742997
-0.6681119 1.8357112 0.24328235 -0.3193798 0.041329995 0.12198302 -0.5726073 -0.18670458
0.076150775 -0.06340138 -0.7089542 -0.064877525 0.16241345 0.032991752 0.07813634 0.013193004
-0.032226004 -0.16062777 0.032935504 -0.09173956 6.621261 0.026821854 -0.8804715 -1.0460639
0.15367006 -0.67267674 -0.31834745 1.8140306 0.0694568 -0.286838 -0.22616702 0.078500755
-0.417913 -0.012791405 0.07114172 0.12802294 0.19826302 0.40868968 0.10749861 0.69969934
-0.35898077 -0.09651464 0.09010133 0.37315032 -0.15220636 -0.18588956 0.0012418836 0.14004567
0.1193539 0.5684582 0.9635259 0.3399039 0.19802938 1.7637546 0.10275567 0.72318166
-0.040503886 -0.0014573891 0.0035288183 0.13101308 -0.056337714 0.12824129 0.021899693 1.8196335
00000000: 339f 96be ab2b 1bbf 1dfd 90bf c61e f13d
00000010: b182 8abd dba0 c03d a85d 5fbd d14c 42bd
00000020: 6899 493e 10d8 82bf 3f86 b03c 6dd0 6f3e
00000030: 068c 0fbe 98b6 c63d 23f2 2f3f ac06 f23d
00000040: a7cb 9c3e 931b 0a3e 133a d3bd 9b5a 2c3f
00000050: 2a1f 64bf b99e ba3d e923 533f 3e62 903e
00000060: a7f9 23be c21f 4b3f 3246 b0be dc76 63bf
00000070: 2478 99be a68b 723f bfb7 90be 6c45 6ebd
00000080: b192 f9be 4709 3a3e 2a07 eabb 8ea3 253d
00000090: 3463 0e3f 5e8b 89bf 69da 9b3d 38f7 fb3e
000000a0: 32d6 76bf 0d91 adbd 30b4 993d e143 48bf
000000b0: 5b69 993f 883b 2e3e 4515 bfbe c65e 6640
000000c0: 166d 88bd 9226 59bf 9dff c73d d889 383d
000000d0: 4907 823f 538c 783f 6ff6 203e 4a85 94be
000000e0: 1901 6cbe 22d1 e33d 4b20 04bf 4e14 623d
000000f0: fc5a 9b3d e28a 2fc0 5371 cb3d 09dd 36bf
00000100: 0863 ba3d 278a ee3f 2cb2 ad3e 1604 873d
00000110: d616 a43d ec92 823d 9b86 61bd 52be 193c
00000120: 205c c3ba d270 243d 64bd 203f d70b 9d3c
00000130: 4bf7 493d a8b3 933d 22ca ee3e 8b19 8b3d
00000140: 8edf 83be 012c b33d 1ea6 10bd 9267 e1bd
00000150: 0c43 2840 3c55 df3d 93d8 f93e a305 fc3e
00000160: e2bc 1b3e 306d 013e 5279 633e ed57 e43d
00000170: c856 c13e 311f 043e 5a74 5cbd 968c ebbd
00000180: 98f8 443f 21c9 a63f cd2c cfbd 0b28 a6bd
00000190: 3442 ce3e 3008 aa3e 6a03 853d 6432 bdbf
000001a0: 25c9 9c3e d63b 7bbd 15db 9dbd 859b f73e
000001b0: c29d b63e 0199 823e 9065 693c eede 3240
000001c0: 31b5 af3c ad08 fc3e 430f 813f c238 0abe
000001d0: c15a a7bd 1a83 0fc0 b8b3 0d3d 543b 983f
000001e0: 9806 663a 2838 b63d 43b3 683e 9c83 26bd
000001f0: 8d39 c9bd f9ed 6e3e 218a 1e3e 5241 973f
00000200: 82ae 32be 74e8 5abf d90a 08bf 6c4a d43f
00000210: 3637 ab3d 648d 0bbd aadf fa3d c137 903e
00000220: cf55 053d 6d49 663f 3077 0fbf 3031 17be
00000230: 8414 2f3f caf3 e6bd 6388 46bf d13b 31bd
00000240: ec56 e13c 9c61 393f ef15 0cbe 7b96 683e
00000250: 95d6 7abf d36d 983c 97e3 81bf a145 213f
00000260: 4090 d43e d44e 583f f84f 3dbf 8e0f ecbe
00000270: 9f64 12bf 0cec de3c f27a edbd 5775 0b3e
00000280: 2a04 cabe e60e b5be d341 7e3d 651b 78bc
00000290: 2f33 833d 2124 353d 9f21 453d 559f 2fbe
000002a0: ca62 833e 94c6 a13e 8644 4abe 9a42 24bf
000002b0: 80fb 48be ef82 743f 2c2f 7c3e ac3a d0be
000002c0: 1cf9 bcbb 65e9 34bf 5ca5 e03c a0b5 2a3d
000002d0: 6ed5 f3bd b2ce a3bd 5f23 f5bd 6ef8 4ebf
000002e0: 8099 90ba b8db 3f3d 9a7f 87bf 7e3c ffbd
000002f0: 73c5 eabd e43a c63d 448c c83d 1bd2 5fbf
00000300: 6209 2bbf 96f8 ea3f 021f 793e c085 a3be
00000310: a449 293d 3cd2 f93d 6496 12bf 7c2f 3fbe
00000320: f0f4 9b3d 95d8 81bd 067e 35bf 82de 84bd
00000330: b64f 263e 5c22 073d f205 a03d 7827 583c
00000340: 6aff 03bd 9b7b 24be 61e7 063d f3e1 bbbd
00000350: 5fe1 d340 81b9 db3c 9566 61bf 6ce5 85bf
00000360: af5b 1d3e 8b34 2cbf 70fe a2be 2832 e83f
00000370: 5e3f 8e3d 6edc 92be 5498 67be 01c5 a03d
00000380: b1f8 d5be 0b93 51bc c0b2 913d 7218 033e
00000390: 7605 4b3e c63f d13e 3b28 dc3d 7f1f 333f
000003a0: 54cc b7be 78a9 c5bd 0c87 b83d 8f0d bf3e
000003b0: fcdb 1bbe d559 3ebe b3c6 a23a 2268 0f3e
000003c0: d16f f43d 7a86 113f a2a9 763f e207 ae3e
000003d0: 37c8 4a3e b6c2 e13f 9171 d23d 6f22 393f
000003e0: 67e7 25bd dd05 bfba bf43 673b 4b28 063e
000003f0: 60c2 66bd af51 033e fc66 b33c c0e9 e83f

fc3.bias f4 [64]
-0.7015898 -0.29644048 -1.0975313 -0.040539462 -0.40114722 -0.5125906 -1.4134918 0.45065507
-0.74777657 1.3992945 0.15099524 -0.727861 -0.33932367 -0.6610776 -0.6217195 -1.3200271
0.7684736 -1.5620588 -2.0631623 -0.81623393 -0.29825556 -1.1213794 -0.42543954 -2.4091172
-0.24325095 -1.0740733 -0.7334634 0.08209743 -0.1729144 -1.2681811 -0.22507268 -1.2118862
-0.760032 -0.5020047 -0.6449812 -1.2785363 -0.35842457 -0.2406992 -0.07989482 0.71865517
0.08715709 -1.3067153 -1.0409268 -0.3129981 -1.0397209 -0.293844 -0.13922252 -0.24458447
-0.95689917 -0.3096598 -1.3845533 -0.7319515 -0.093594335 -1.9359919 0.46161038 0.7885821
-0.32746145 -0.80309683 -0.5146191 -0.324293 -0.68123704 1.1072253 -1.3920019 -0.23707534
00000000: 649b 33bf 0cc7 97be e87b 8cbf b50c 26bd
00000010: 2b63 cdbe 2339 03bf 4ded b4bf 43bc e63e
00000020: 496e 3fbf 151c b33f 7f9e 1a3e 1955 3abf
00000030: d5bb adbe 623c 29bf 0229 1fbf a6f6 a8bf
00000040: b0ba 443f 8bf1 c7bf da0a 04c0 b5f4 50bf
00000050: f4b4 98be 5c89 8fbf 36d3 d9be fa2e 1ac0
00000060: c716 79be 3c7b 89bf 42c4 3bbf b322 a83d
00000070: 7910 31be c253 a2bf 7479 66be 161f 9bbf
00000080: 7591 42bf 6183 00bf 7d1d 25bf 14a7 a3bf
00000090: 6d83 b7be da79 76be e59f a3bd c9f9 373f
000000a0: 6b7f b23d 7242 a7bf 173d 85bf 4941 a0be
000000b0: 9315 85bf b972 96be 5990 0ebe 5a74 7abe
000000c0: 58f7 74bf bb8b 9ebe 0b39 b1bf 2c61 3bbf
000000d0: 63ae bfbd 95ce f7bf 3258 ec3e 84e0 493f
000000e0: 07a9 a7be c197 4dbf 14be 03bf bb09 a6be
000000f0: 8d65 2ebf 8fb9 8d3f 1e2d b2bf e1c3 72be

action_out.weight f4 [5, 64]
4.2406855 0.1425572 -2.3537638 -0.53732973 0.6454567 0.26661387 1.3310665 11.418891
-0.018068187 0.9502626 -0.5783597 3.529857 0.11005287 1.6373366 0.5459446 8.276746
3.3783388 -2.8085456 2.2703333 1.9529201 -0.08604578 -1.1112444 4.681392 0.35160398
0.029314293 0.6338403 2.8637 -1.3784585 0.045349985 -1.9553875 4.001884 -0.839326
0.037399486 0.022100344 -2.1041727 0.03997683 3.8582914 0.84362614 3.46714 1.401465
3.6597521 2.8749273 -3.2981772 0.0025095213 0.21434335 0.063719295 -0.055170827 0.045332484
-2.6731288 0.12106926 0.17431612 -0.9451766 -0.044416215 -0.6428572 -0.4976217 2.5847836
-0.0059583182 -0.010242429 -0.20350929 1.4243742 -0.109171994 3.1751146 0.123236306 1.7813326
5.828504 1.5423763 -0.7686072 4.460724 0.03600586 -0.55756134 2.0958953 1.9879597
-0.5608186 -1.7972542 0.01408197 -2.5424907 0.05977936 -0.29396105 -0.61244863 3.4688594
6.15025 -1.4624805 0.6940285 1.5051699 0.10053764 -0.1566248 2.5763683 4.6649294
0.10866791 1.2783905 7.0043945 -0.319515 0.07042156 -1.281515 -3.5759988 0.36118832
-0.24059825 0.034057923 -0.1528315 -0.6927472 1.1943978 1.5999343 1.0078708 3.2070577
0.23511957 0.3192511 -1.2810348 2.4490867 2.8558295 -0.1592787 -0.016359417 0.06909943
0.05884726 -0.035891894 -3.6072917 -0.7906021 -0.39321873 2.2172575 0.55132985 10.161988
0.15466152 0.45938024 5.3726425 -0.05841905 -0.19745217 1.5181293 0.48368713 8.917568
10.384879 2.2773924 -2.8592286 10.433371 1.3814536 -0.61955553 4.086503 4.2080007
0.067739904 -0.7786652 -2.1189947 4.4437313 0.1656157 -0.5002073 0.14169082 2.8350976
11.182162 -3.5666213 1.4716402 0.34901926 0.075526245 -1.9754493 10.095817 0.7139905
0.1273175 0.77178097 5.7456417 -1.8225609 -0.03530555 -3.1782892 2.1625676 -1.2522309
0.2084059 -0.079305544 -2.9449418 -0.103910215 2.480955 9.796979 7.3673964 6.242263
7.7499194 4.7644105 -3.7414052 0.14308687 -0.22417322 0.050644662 0.02660772 -0.09946613
-3.5193424 -0.11439938 0.28344938 -1.9816211 -1.4711586 0.87674135 1.6086787 7.4520392
-0.100329444 0.14421576 -1.1382871 1.0519059 -0.83371997 1.9168551 0.044267643 0.05007727
-1.9249095 0.9999879 -1.6948649 1.6283576 -1.4293042 0.62719333 6.2078333 2.5259182
-1.6915642 -3.7038493 -1.3085818 -4.966535 0.6023138 1.8083055 0.9992993 -11.092639
-8.701057 -5.398298 -7.0077634 0.63110787 -0.06646713 -0.9782389 3.4181921 4.1478977
0.102151774 0.7258116 4.316675 0.18327458 -0.017004028 -4.907339 -0.52549386 1.3629769
-1.7537067 0.33237997 -1.429683 -1.1160785 -2.514825 0.216318 -0.31330377 1.617771
0.40234753 0.34792677 -2.4099262 0.7794104 -0.6997 -0.46700382 0.008273219 -0.029834751
-1.2039723 0.008736024 -4.958717 -1.2445573 1.590573 -1.1538866 0.47399828 1.3662579
-0.13391808 -1.115212 -0.037208777 1.0509683 0.3275595 1.7512655 -7.558076 1.7164189
00000000: b2b3 8740 84fa 113e 11a4 16c0 718e 09bf
00000010: a63c 253f 9d81 883e 6360 aa3f c7b3 3641
00000020: bc03 94bc 6944 733f 620f 14bf 2de9 6140
00000030: 6663 e13d 3f94 d13f 06c3 0b3f 8d6d 0441
00000040: b436 5840 36bf 33c0 244d 1140 49f9 f93f
00000050: c538 b0bd 423d 8ebf f7cd 9540 7005 b43e
00000060: 8724 f03c 5c43 223f dc46 3740 5471 b0bf
00000070: e8c0 393d 234a fabf 6f0f 8040 12de 56bf
00000080: 3430 193d c80b b53c c4aa 06c0 bfbe 233d
00000090: 3fee 7640 e2f7 573f 9fe5 5d40 3563 b33f
000000a0: 6139 6a40 cffe 3740 5615 53c0 c876 243b
000000b0: d37c 5b3e 437f 823d cefa 61bd 8eae 393d
000000c0: 8b14 2bc0 29f3 f73d ed7f 323e 18f7 71bf
000000d0: c7ed 35bd 4a92 24bf 45c8 febe 186d 2540
000000e0: ff3d c3bb dccf 27bc bd64 50be e551 b63f
000000f0: 9195 dfbd 1435 4b40 5163 fc3d b502 e43f
00000100: 1b83 ba40 966c c53f 71c3 44bf 40be 8e40
00000110: e17a 133d 57bc 0ebf 2623 0640 7775 fe3f
00000120: cf91 0fbf 6d0c e6bf 10b8 663c 2bb8 22c0
00000130: 34db 743d 1082 96be 6fc9 1cbf cb01 5e40
00000140: d9ce c440 9032 bbbf daab 313f 68a9 c03f
00000150: aee6 cd3d 4062 20be 38e3 2440 1a47 9540
00000160: 488d de3d 4da2 a33f 0024 e040 7897 a3be
00000170: 2e39 903d af08 a4bf 2add 64c0 aded b83e
00000180: 635f 76be 5280 0b3d dc7f 1cbe e157 31bf
00000190: 07e2 983f a6ca cc3f e901 813f 6f40 4d40
000001a0: 2fc3 703e e174 a33e f3f8 a3bf d6bd 1c40
000001b0: e9c5 3640 f519 23be 2f04 86bc 0184 8d3d
000001c0: d309 713d 6103 13bd dedd 66c0 e664 4abf
000001d0: f753 c9be 8ce7 0d40 f423 0d3f 8197 2241
000001e0: 975f 1e3e e333 eb3e b0ec ab40 d048 6fbd
000001f0: e730 4abe 1052 c23f d7a5 f73e 5cae 0e41
00000200: 7728 2641 ccc0 1140 9afd 36c0 16ef 2641
00000210: 79d3 b03f 319b 1ebf a2c4 8240 f1a7 8640
00000220: 38bb 8a3d 9a56 47bf 9c9d 07c0 0c33 8e40
00000230: 2997 293e 960d 00bf 6617 113e 3d72 3540
00000240: 23ea 3241 8643 64c0 b55e bc3f a7b2 b23e
00000250: 81ad 9a3d 86db fcbf 7788 2141 15c8 363f
00000260: 855f 023e 7093 453f 4cdc b740 ad49 e9bf
00000270: 8d9c 10bd 1769 4bc0 8267 0a40 1a49 a0bf
00000280: 5b68 553e f26a a2bd ed79 3cc0 e1ce d4bd
00000290: f7c7 1e40 6dc0 1c41 b6c1 eb40 9ec0 c740
000002a0: 57ff f740 0d76 9840 2f73 6fc0 5d85 123e
000002b0: aa8d 65be c770 4f3d 6ff8 d93c e6b4 cbbd
000002c0: e83c 61c0 394a eabd 4720 913e c3a5 fdbf
000002d0: ed4e bcbf 1f72 603f 2fe9 cd3f 1b77 ee40
000002e0: 8679 cdbd 4cad 133e 64b3 91bf daa4 863f
000002f0: ac6e 55bf 825b f53f fd51 353d d31d 4d3d
00000300: 6f63 f6bf 35ff 7f3f 55f1 d8bf 066e d03f
00000310: 71f3 b6bf be8f 203f 92a6 c640 a5a8 2140
00000320: 2d85 d8bf de0b 6dc0 9c7f a7bf dbed 9ec0
00000330: 3d31 1a3f 8e76 e73f 14d2 7f3f 737b 31c1
00000340: 8837 0bc1 dbbe acc0 993f e0c0 4990 213f
00000350: eb1f 88bd dd6d 7abf a9c3 5a40 94bb 8440
00000360: f334 d13d cace 393f 3422 8a40 55ac 3b3e
00000370: 084c 8bbc ec08 9dc0 c486 06bf 0776 ae3f
00000380: 7679 e0bf b52d aa3e daff b6bf a9db 8ebf
00000390: e5f2 20c0 7782 5d3e 5a69 a0be 1f13 cf3f
000003a0: 7f00 ce3e 7523 b23e 3b3c 1ac0 7187 473f
000003b0: 8a1f 33bf 201b efbe 658c 073c 0268 f4bc
000003c0: c41b 9abf 8a21 0f3c cfad 9ec0 a74d 9fbf
000003d0: e597 cb3f 8eb2 93bf e7af f23e 8ae1 ae3f
000003e0: d221 09be 44bf 8ebf 3b68 18bd 2186 863f
000003f0: e1b5 a73e 7829 e03f c2db f1c0 9db3 db3f

action_out.bias f4 [5]
1.0821229 1.1193092 -0.52229893 -0.23735054 -1.122852
00000000: 0183 8a3f 8645 8f3f 62b5 05bf 050c 73be
00000010: 9db9 8fbf
