Exp3_MPE/parameters_save/simple_push/critic_params.pkl (torch_old, 39499 bytes, 7 tensors)

fc1.weight f4 [64, 17]
0	0x3cae0203	0.021241194
1	0x3e01724f	0.12641262
2	0x3e0ae863	0.13565211
3	0xbdc64c79	-0.09682555
4	0xbdfa8851	-0.122330315
5	0x3ab49cfd	0.0013779696
6	0xbcc4ab50	-0.02400747
7	0xbcd34a6e	-0.025792327
8	0xbda8c520	-0.082407236
9	0xbda2216c	-0.07916531
10	0x3d548e8a	0.05189375
11	0x3ddb04ec	0.10694298
12	0xbe8bcaf7	-0.27303287
13	0xbecff74f	-0.4061837
14	0xbe9fc88b	-0.3120769
15	0xbd6cb40c	-0.057788894
16	0xbe51eaa9	-0.20499672
17	0x3df02784	0.11726287
18	0x3e94186a	0.28924876
19	0x3e2d8d87	0.1694852
20	0x3d6dbaac	0.058039352
21	0xbc9b0945	-0.018925318
22	0xbe0f3715	-0.13985856
23	0x3cd18412	0.025575671
24	0x3c994183	0.018707996
25	0x3e91b148	0.28455567
26	0x3e908064	0.28222954
27	0x3e0b9b7b	0.1363353
28	0x3e803e3e	0.25047487
29	0xbf1e2748	-0.6177869
30	0xbf406344	-0.7515147
31	0xbedce20c	-0.4314121
32	0xbf3edbe4	-0.74554276
33	0xbf4cfd9a	-0.80074465
34	0xbe76206b	-0.24035804
35	0x3e5d591a	0.21616021
36	0xbe50a2a1	-0.20374538
37	0xbe5052eb	-0.2034413
38	0xbd873a36	-0.066029
39	0x3ded2ae7	0.115804486
40	0x3e337847	0.17526351
41	0x3df7fb01	0.12108422
42	0x3da80809	0.082046576
43	0x3db17b1f	0.086660616
44	0xbe570b05	-0.21000297
45	0x3e0157d7	0.12631164
46	0x3d83108b	0.0639964
47	0x3d5b141c	0.053485975
48	0xbddd6c27	-0.10811644
49	0x3e03cb0d	0.12870426
50	0x3dfcb798	0.12339705
51	0xbc95f882	-0.018306974
52	0xbe5914da	-0.2119936
53	0xbe0d0ba0	-0.13773966
54	0xbc968d4e	-0.018377926
55	0xbc31e59c	-0.010857966
56	0xbe74cab9	-0.23905458
57	0x3ddcd1ed	0.10782228
58	0x3e4ce133	0.20007782
59	0xbe66ecf4	-0.22551328
60	0x3dab01da	0.083499625
61	0xbe030d4d	-0.12798043
62	0x3e0fbf11	0.1403773
63	0x3c7e11f3	0.015507209
64	0xbd7beae8	-0.06150332
65	0x3cae4db4	0.021277286
66	0xbd99df62	-0.0751331
67	0x3c0f9c7c	0.008765336
68	0x3e4de240	0.20105839
69	0xbc7aeaea	-0.015314797
70	0x3dec4b0f	0.11537754
71	0x3d4cca63	0.0499977
72	0x3e26c01d	0.16284223
73	0xbe26f414	-0.16304046
74	0xbe632fcd	-0.22186203
75	0x3e5b638c	0.21424693
76	0xbe1546dd	-0.14577813
77	0xbcd869bd	-0.026417607
78	0xbdbd68e7	-0.09248524
79	0x3e1e3edf	0.15453671
80	0xbf84f0b5	-1.0385958
81	0xbf92b928	-1.1462755
82	0xbf621bee	-0.8832387
83	0xbf8ba420	-1.0909462
84	0xbf653207	-0.8952946
85	0xbdd8ef5c	-0.10592529
86	0xbe454be8	-0.19267237
87	0x3e29788d	0.16549893
88	0xbe56a66b	-0.20961921
89	0xbe06c7cb	-0.13162152
90	0xbe0e0a82	-0.13871196
91	0x3e4e2c6a	0.2013413
92	0x3d787c60	0.06066549
93	0x3d593b4a	0.053035058
94	0x3e05c172	0.13062075
95	0x3dcd6df1	0.10030735
96	0x3d9b683b	0.0758824
97	0xbe5597a0	-0.20858622
98	0x3dab327d	0.08359239
99	0x3da08b05	0.07839016
100	0x3dc8e302	0.09808923
101	0xbe62326b	-0.22089545
102	0x3dfbf440	0.12302446
103	0x3e7bdb99	0.24595489
104	0xbcfabdac	-0.03060802
105	0x3d3863c0	0.045017004
106	0xbe04304f	-0.12909053
107	0xbdf93121	-0.12167574
108	0xbd28c37d	-0.041202057
109	0xbded69d1	-0.115924485
110	0x3cd440fb	0.025909891
111	0xbe11a92b	-0.14224689
112	0x3e230715	0.1592067
113	0x3a8098ff	0.0009811221
114	0xbe8940e2	-0.26807314
115	0xbe0db353	-0.13837938
116	0xbc9fa365	-0.019487092
117	0xbd8ee932	-0.06978072
118	0xbd39aad9	-0.04532895
119	0xbe070a80	-0.13187599
120	0x3e4ab535	0.19795687
121	0x3e6a417e	0.22876546
122	0xbe43887a	-0.1909503
123	0xbdbaae35	-0.091152586
124	0xbc47c714	-0.01219346
125	0xbc407d22	-0.011748584
126	0xbd790b26	-0.060801648
127	0xbd5a326d	-0.053270746
128	0x3c8b1a87	0.016980423
129	0xbc84ab63	-0.016195005
130	0x3e0c5aad	0.13706465
131	0xbed9ff10	-0.4257741
132	0xbea0021a	-0.31251603
133	0xbecdee7c	-0.40221012
134	0xbe9cc25f	-0.30617043
135	0xbe9d086a	-0.30670482
136	0x3d9b128e	0.075718984
137	0x3e10c3bf	0.14137171
138	0x3e27f306	0.164013
139	0xbd80307a	-0.06259246
140	0xbd05461f	-0.032537576
141	0xbd8a4887	-0.06752115
142	0xbde6e3f8	-0.1127395
143	0x3d989c5e	0.074517
144	0xbdf43a0c	-0.11925134
145	0x3e54800b	0.2075197
146	0xbe04bf9e	-0.12963721
147	0xbe0a6cf6	-0.13518128
148	0x3d4b4715	0.049628336
149	0x3dd1e95e	0.102495894
150	0x3d9b824e	0.07593213
151	0xbe48ad31	-0.19597317
152	0xbd96c732	-0.07362212
153	0xbe2e0546	-0.16994199
154	0x3e6f1d47	0.23351012
155	0xbe1d1fff	-0.15344237
156	0xbcd35804	-0.025798805
157	0xbda6ab68	-0.08138162
158	0x3ccc725a	0.02495687
159	0xbe4d5e3c	-0.20055479
160	0xbdc703fa	-0.09717555
161	0x3ca71492	0.02039555
162	0x3e37f099	0.17962874
163	0x3e8337bf	0.25628468
164	0x3e6b5e7f	0.22985266
165	0xbf32a449	-0.6978193
166	0xbf34d027	-0.70630115
167	0xbf15e2e6	-0.58549345
168	0xbf415bfd	-0.7553099
169	0xbf7d0abd	-0.9884451
170	0x3dfb0547	0.12256866
171	0x3dd632fe	0.10458945
172	0x3de13443	0.10996296
173	0xbdb9cc76	-0.09072201
174	0x3e3d9307	0.18513118
175	0xbe57aa7f	-0.21061133
176	0xbe0cf733	-0.13766174
177	0x3dda520b	0.1066018
178	0x3d935719	0.07194347
179	0xbe3ace15	-0.18242677
180	0x3db90f2c	0.09036097
181	0xbe133058	-0.1437391
182	0xbe88907e	-0.2667274
183	0xbea55fbe	-0.32299608
184	0xbe9096c3	-0.28240022
185	0xbe4ac802	-0.1980286
186	0xbdce0add	-0.10060666
187	0x3e7d846b	0.24757545
188	0xbd42570d	-0.0474463
189	0x3ea00e9d	0.3126115
190	0xbd3f95d2	-0.04677374
191	0x3cf47a7a	0.029843558
192	0xbd8348b3	-0.06410351
193	0x3e8a7ecf	0.27049872
194	0x3e1bac92	0.15202549
195	0x3e63c72c	0.22243947
196	0x3ebb3ea8	0.3657124
197	0xbb77367e	-0.003772169
198	0x3eaa5d38	0.33274245
199	0xbf485568	-0.7825532
200	0xbf1f68cb	-0.62269276
201	0xbf52e957	-0.823873
202	0xbf664bbb	-0.89959306
203	0xbf837795	-1.0270869
204	0xbd927b4e	-0.07152425
205	0x3e28a6ce	0.16469881
206	0xbd94f002	-0.0727234
207	0x3e0919ec	0.13388795
208	0x3c5521f0	0.01300858
209	0xbe6476d0	-0.22310948
210	0xbde29e9a	-0.11065407
211	0x3e34b587	0.17647372
212	0x3dbcfbbc	0.09227702
213	0xbe5cc2f1	-0.21558739
214	0x3dbb3666	0.09141235
215	0x3cbe533f	0.023233054
216	0x3a66471c	0.00087844
217	0xbdcf7a35	-0.10130731
218	0xbd99a8af	-0.07502877
219	0xbe6ddcca	-0.23228756
220	0x3d0472bd	0.032335985
221	0xbcc4ea1c	-0.024037413
222	0x3e02220a	0.12708297
223	0xbd3062b4	-0.04306288
224	0xbe01cef6	-0.12676606
225	0xbc5e888c	-0.01358236
226	0xbccbc46a	-0.024873931
227	0x3e80f11f	0.2518396
228	0x3c899cad	0.016798342
229	0xbd022daf	-0.03178185
230	0xbe288a55	-0.1645902
231	0xbda0ff61	-0.0786121
232	0x3de7c7d2	0.113174096
233	0xbf08a70e	-0.53379905
234	0xbf2f3b5b	-0.68449944
235	0xbf48a990	-0.7838373
236	0xbf2c028d	-0.6719139
237	0xbeeb09ea	-0.45906
238	0x3f186d76	0.59542024
239	0x3f6773bb	0.90410966
240	0x3f2ef198	0.6833739
241	0x3f21df0c	0.6323097
242	0x3f186906	0.59535253
243	0x3f601d5a	0.87544787
244	0x3f33b6c5	0.7020076
245	0x3efeb83e	0.4974994
246	0x3f2c3875	0.67273647
247	0x3efcb67a	0.4935797
248	0x3f73a337	0.9517092
249	0x3f5c943e	0.861637
250	0xbf8dd6ee	-1.1081216
251	0xbf896e8b	-1.073686
252	0xbf86a62e	-1.0519464
253	0xbfba5a5e	-1.4558828
254	0xbf946f47	-1.1596459
255	0xbd8a9537	-0.06766742

fc1.bias f4 [64]
0	0xbfe57505	-1.7926337
1	0xbd8b0c88	-0.067894995
2	0xbe8bf061	-0.27331832
3	0x3ffc9d1b	1.9735445
4	0x403852f2	2.8800626
5	0xbefd2be0	-0.49447536
6	0xbf788e66	-0.9709228
7	0xc005c4fa	-2.0901475
8	0xbe643034	-0.22284013
9	0x3fdfcc11	1.7484151
10	0xbffbaba9	-1.9661762
11	0x3f79905e	0.9748591
12	0xbed057b0	-0.406919
13	0xc054b685	-3.32364
14	0xc0921b70	-4.5658493
15	0xc015d602	-2.341187
16	0xbffab121	-1.9585305
17	0xbf962cb8	-1.1732397
18	0x400ad8ee	2.1694903
19	0xbe8bf7d0	-0.27337503
20	0xbfb3e5d0	-1.4054508
21	0xbed730ac	-0.4202932
22	0xbf06413a	-0.5244328
23	0xbf2a45c4	-0.66512704
24	0x3f89216c	1.0713325
25	0xbe3e5780	-0.18588066
26	0xbeddf58f	-0.4335141
27	0xc10f29e6	-8.947729
28	0xbfb435f8	-1.407897
29	0xbe846633	-0.25859222
30	0xc0d63bff	-6.6948237
31	0x3f7a745f	0.9783382
32	0x3fbaec5e	1.4603384
33	0xbeeadcd6	-0.4587161
34	0xbe954382	-0.29153067
35	0xbf978602	-1.1837771
36	0xc00507b2	-2.0785947
37	0xbe89dd45	-0.26926628
38	0xbf8b794c	-1.0896392
39	0xc12b7acd	-10.717481
40	0xbf53351a	-0.825029
41	0xbf78d26b	-0.9719607
42	0xbf75bb95	-0.9598935
43	0xbef7aeb5	-0.48375478
44	0xc0882a92	-4.2551966
45	0xc052b0a9	-3.2920325
46	0xbfa65ff3	-1.2998031
47	0x40112d52	2.2683911
48	0x3fb443a4	1.4083142
49	0x3f97527c	1.1822047
50	0xbf4253c3	-0.7590906
51	0xbfc4d3da	-1.5377152
52	0xbf0dbfbb	-0.5537068
53	0xbf95fa84	-1.1717076
54	0xbfdf76cb	-1.7458128
55	0xc00e37a4	-2.222146
56	0x3fb77dfc	1.4335322
57	0x417d1ba3	15.819247
58	0xbebd1622	-0.36930948
59	0xbfc9bfc2	-1.5761645
60	0xbf000e49	-0.500218
61	0xc016b75c	-2.3549414
62	0xbfce6168	-1.6123476
63	0xc057ec08	-3.3737812

fc2.weight f4 [64, 64]
0	0x3cff8fd2	0.031196509
1	0xbd25e96e	-0.04050582
2	0xbdca7de4	-0.09887293
3	0xbc49ab57	-0.012308917
4	0xbd596de7	-0.053083327
5	0xbdda4e56	-0.10659473
6	0xbc8af05c	-0.016960315
7	0xbe25a5ce	-0.1617653
8	0x3d431ba2	0.047633775
9	0xbd7d80cd	-0.061890412
10	0xbdbf6de1	-0.093471296
11	0xbe120917	-0.1426128
12	0xbd961fb1	-0.073302634
13	0xbdecd3f9	-0.11563868
14	0xbdc94a0c	-0.098285764
15	0xbdbf1fb6	-0.0933222
16	0x3d891419	0.066932864
17	0xbd8afb3f	-0.06786203
18	0xbd4daf94	-0.050216272
19	0x3cb76ed9	0.022391723
20	0xbd238474	-0.03992124
21	0xbdaafee5	-0.083493985
22	0xbe0fb7b4	-0.14034921
23	0xbd9db97d	-0.07701395
24	0x3daa9850	0.083298326
25	0xbdf61915	-0.12016503
26	0xbdca76b4	-0.09885922
27	0xbd5f1191	-0.054460112
28	0xbd79d120	-0.060990453
29	0x3da68d90	0.0813247
30	0x3d7d4db5	0.061841685
31	0x3bdf377b	0.0068120337
32	0xbe01b4c6	-0.12666616
33	0xbcd497d7	-0.02595131
34	0x3d9e61c0	0.07733488
35	0xbd92d65f	-0.07169794
36	0x3d8251a4	0.06363228
37	0x3c24d694	0.010060925
38	0xbda7f0dc	-0.08200237
39	0xbdf7dabf	-0.121022694
40	0x39540976	0.0002022142
41	0xbe144e20	-0.14482927
42	0xbd189280	-0.03724909
43	0x3c674e40	0.014117777
44	0x3d42ffce	0.047607236
45	0xbe27ce6d	-0.16387339
46	0x3d22bde9	0.039731894
47	0xbd85faa3	-0.06541946
48	0x3ca1e2d6	0.019761484
49	0xbe16d789	-0.14730658
50	0x3df2d0c4	0.11856225
51	0x3cf7437b	0.030183544
52	0xbc32aaf0	-0.0109050125
53	0x3da9c6cb	0.0828987
54	0x3ca98851	0.020694884
55	0xbe089b1f	-0.13340424
56	0x3c3f3480	0.011670232
57	0xbdc9e77b	-0.098586045
58	0xbcec0e05	-0.028815279
59	0xbe063fed	-0.13110323
60	0x3c66a711	0.014077918
61	0x3d93f824	0.072250634
62	0xbe0c1026	-0.13678035
63	0x3d4c28a4	0.049843445
64	0x3f0b1aae	0.54337585
65	0x3ea12682	0.31474692
66	0x3cf27138	0.029595003
67	0x3e6c0c6b	0.23051612
68	0x3fa09b21	1.2547342
69	0xbe151505	-0.145588
70	0x3ea865f0	0.32890272
71	0x3e881dc4	0.2658521
72	0x3e18aecc	0.1491043
73	0xbef03df7	-0.46922275
74	0x3effa52d	0.49930707
75	0x3d7153a3	0.058917653
76	0xbd9e5a28	-0.0773204
77	0x3d2eafd7	0.042648163
78	0xbffbe463	-1.9679073
79	0x3b0673d2	0.0020515812
80	0x3ec1b219	0.3783119
81	0x3d609134	0.054825976
82	0x3fa8b8af	1.3181361
83	0xbdf998f6	-0.12187378
84	0x3d43ed84	0.047833934
85	0xbd8306d3	-0.06397786
86	0xbeb60dc3	-0.35557374
87	0x3e8598d4	0.2609316
88	0x3d536e34	0.05161877
89	0x3d6c4574	0.057683423
90	0x3e2de6b5	0.16982539
91	0xbf1a0437	-0.6016268
92	0x3d6f6d57	0.058453884
93	0x3e150212	0.14551571
94	0xbf0b8fdb	-0.5451638
95	0x3f270348	0.6523938
96	0x3f69478f	0.91124815
97	0xbdb45998	-0.08806151
98	0x3d22f134	0.03978081
99	0x3e3d8b44	0.18510157
100	0x3f0ac75d	0.54210454
101	0xbee50176	-0.44727677
102	0x3e1abf84	0.1511212
103	0xbfd85152	-1.6899817
104	0x3e80402e	0.25048965
105	0x3e810cec	0.2520517
106	0xbef49de6	-0.47776717
107	0xbe18ae54	-0.14910251
108	0xbdf9059c	-0.12159273
109	0xbe48ae9f	-0.19597863
110	0x3e0f3ce1	0.13988067
111	0x3e70914b	0.23492925
112	0xbfaf5665	-1.369824
113	0xbf10c262	-0.56546605
114	0xbecde75e	-0.40215582
115	0x3d336953	0.043801617
116	0xbe70c2e8	-0.23511851
117	0xbdd933b3	-0.10605564
118	0x3c531abd	0.012884793
119	0x3e197de6	0.14989433
120	0x3e78fdc3	0.24315552
121	0x3f14afd7	0.5808081
122	0xbd46c388	-0.048526317
123	0x3d4d9e51	0.05019981
124	0xbec7da86	-0.39033908
125	0x3e5a485b	0.21316664
126	0x3f95441d	1.1661412
127	0x3e9f0cda	0.31064492
128	0xbd6f034b	-0.05835275
129	0x3ea1ea50	0.3162408
130	0xbd1ac37d	-0.03778409
131	0xbfd4cc1d	-1.662479
132	0xbf148b87	-0.580254
133	0xbe632f16	-0.2218593
134	0xbea75a8d	-0.32686272
135	0x3dd2bb29	0.10289604
136	0xbda31a3e	-0.0796399
137	0xc0a109c5	-5.0324426
138	0x3e998231	0.2998214
139	0xbf12c740	-0.5733528
140	0xbcb55c5f	-0.022138773
141	0x3dd42045	0.103577174
142	0x3f1de4df	0.61677355
143	0xbe34f1c4	-0.17670351
144	0xbf42337f	-0.75859827
145	0xbe1f54f6	-0.15559754
146	0xbf4af1eb	-0.7927539
147	0xbd4625a0	-0.048375726
148	0xbe86b307	-0.26308462
149	0xbdb61e43	-0.08892491
150	0xbd0d2af6	-0.0344648
151	0xbdd5b6f3	-0.104352854
152	0xc04f3d56	-3.2381186
153	0xbcf8f114	-0.030388393
154	0xbea766b5	-0.32695547
155	0xbf3663b3	-0.7124588
156	0xbe985617	-0.2975318
157	0xbc6bb5fb	-0.014386649
158	0x3d174de0	0.0369395
159	0xbd0f9286	-0.035051845
160	0x3ed77a47	0.42085478
161	0x3ce19711	0.027537854
162	0x3cdb4b67	0.026769353
163	0xbd0a80a2	-0.03381408
164	0x3f0e6ac5	0.5563167
165	0xbee1fb00	-0.4413681
166	0x3dcdcd7f	0.10048961
167	0xbc07a4fa	-0.00827908
168	0x3e121db1	0.14269139
169	0x3e848511	0.25882772
170	0xbefbb5c5	-0.49162117
171	0xbd221c3d	-0.03957771
172	0x3e0029f8	0.1251601
173	0x3d6b1361	0.057391528
174	0xbec317de	-0.38104147
175	0xc08eb800	-4.459961
176	0xbed1eb83	-0.40999994
177	0x3cd0bc95	0.025480548
178	0x3d626616	0.055273138
179	0xbebb40f1	-0.36572984
180	0x3d103d23	0.035214555
181	0xbea1d023	-0.31604108
182	0xbe98139a	-0.29702455
183	0x3e94a311	0.2903066
184	0x3e3f09eb	0.18656127
185	0xbffe4dcc	-1.9867492
186	0xbdbc0cc9	-0.09182126
187	0xbdf3b5b6	-0.11899893
188	0xbe1fda72	-0.15610674
189	0x3e88259e	0.265912
190	0xbd0a12e2	-0.033709414
191	0x3e32170c	0.17391604
192	0xbe8a7b24	-0.27047074
193	0x3f89aec6	1.0756462
194	0xbf92e8cf	-1.1477298
195	0xbe744122	-0.23852971
196	0xbe95440a	-0.29153472
197	0xbf040e95	-0.5158475
198	0xbc986e11	-0.018607171
199	0x3d4d294e	0.05008822
200	0x3d8acc73	0.06777277
201	0x3e30d893	0.17270117
202	0xbe112184	-0.14172941
203	0x3d8a8d16	0.06765191
204	0xbe96f5e4	-0.29484475
205	0xbe8ba5c5	-0.2727491
206	0xbdf9d754	-0.12199274
207	0xbec920eb	-0.39282927
208	0xbde1a438	-0.1101765
209	0x3cd29638	0.025706396
210	0x3e2fcaa3	0.17167144
211	0x3ee7eb61	0.45296767
212	0xbfc2d92c	-1.5222526
213	0x3e6e1f08	0.23254025
214	0xbe2d0c4e	-0.16899225
215	0xbf1f5f81	-0.622551
216	0x3e42a168	0.19006884
217	0x3e483f0c	0.195553
218	0x3d70eb7a	0.058818318
219	0xbdec0d88	-0.115260184
220	0xbe4b30f7	-0.19842897
221	0xbe055799	-0.13021697
222	0x3de3cb46	0.11122756
223	0xbee6f09b	-0.45105442
224	0x3e293f7b	0.16528122
225	0x3daacae0	0.083394766
226	0xbfd8dd9d	-1.6942631
227	0xbeaab21a	-0.33339006
228	0xbe92011a	-0.28516465
229	0x3cc7ffca	0.024413962
230	0xbe8c5073	-0.27405128
231	0xbfc595e3	-1.5436367
232	0x3ecc19dc	0.3986348
233	0xbec4cfdd	-0.38439837
234	0xbd7786df	-0.060431357
235	0x3d81c0c6	0.06335597
236	0x3e5bec8c	0.21476954
237	0xbdceb6ef	-0.100934856
238	0x3dae3a56	0.085072204
239	0xbf5f81a4	-0.8730719
240	0xc017b393	-2.3703353
241	0xbfec783f	-1.8474196
242	0xbddbf007	-0.10739141
243	0xbeb8fce8	-0.36130452
244	0xbe738b5e	-0.23783633
245	0x3f0da03e	0.55322635
246	0x3e0a18a8	0.13485968
247	0x3d887c6f	0.06664359
248	0x3e9a31c9	0.30116108
249	0x3f0dfb13	0.55461234
250	0xbe8e0c26	-0.27743644
251	0xbe49dd3b	-0.19713299
252	0x3e5e2af1	0.21696068
253	0x3d8110e3	0.06302049
254	0xbeec8166	-0.46192473
255	0x3abd4092	0.0014438799

fc2.bias f4 [64]
0	0xbe1c8073	-0.15283374
1	0x3fcebd36	1.6151493
2	0x3cacb325	0.021081517
3	0xbf22a7f6	-0.6353754
4	0x3f2d5131	0.67702013
5	0xbef4f7d7	-0.47845337
6	0x3efce38c	0.49392354
7	0xbce4fa21	-0.027951302
8	0xbe59442d	-0.21217413
9	0xbdc6b459	-0.09702367
10	0x3f198320	0.59965706
11	0xbeaf68fb	-0.3425978
12	0x3fb51abe	1.4148786
13	0xbd127cb2	-0.03576345
14	0xbda0c1fa	-0.07849498
15	0x3e0b2e25	0.13591821
16	0xbea3d676	-0.31999558
17	0xbe6fc2cf	-0.23414157
18	0x3eb0ed3f	0.34556004
19	0x40588048	3.3828297
20	0xbdd4d006	-0.1039124
21	0x4000a624	2.0101404
22	0x40d1f727	6.56142
23	0xbe14a54f	-0.14516185
24	0xbf61a8c1	-0.88148123
25	0x3e1f564d	0.15560265
26	0x3d89a14b	0.06720217
27	0xbc96af4f	-0.01839414
28	0x3c3e941a	0.01163199
29	0xbdc327f2	-0.09529103
30	0xbdd5eb08	-0.10445219
31	0xbde04990	-0.10951531
32	0xbdddf82b	-0.1083835
33	0xbcc860c3	-0.024460202
34	0xbf30e30f	-0.69096464
35	0xbf1e4381	-0.6182175
36	0x3fc5d089	1.5454265
37	0x3f0ae035	0.5424836
38	0x3fc07305	1.5035101
39	0x3fbe235e	1.4854543
40	0x3f187621	0.5955525
41	0x3f1d51fc	0.61453223
42	0xbe8d6585	-0.27616516
43	0xbe42daab	-0.19028728
44	0x4013d10c	2.3096342
45	0x40138c66	2.3054442
46	0x3eb0ab02	0.3450547
47	0xbe3385d3	-0.17531519
48	0xbf347e7b	-0.70505494
49	0xbeba117b	-0.36341462
50	0xbd8aaba8	-0.06771022
51	0xbe2880fe	-0.16455457
52	0x405f850f	3.4924963
53	0xbeecaef5	-0.46227232
54	0xbf5d8e50	-0.86545277
55	0xbe36f34a	-0.17866245
56	0x3fea6b0d	1.8313919
57	0xbc6d6b33	-0.01449089
58	0xbe31afca	-0.17352214
59	0xbe86ce9a	-0.263295
60	0xc00fd4f7	-2.2473733
61	0xbe0d7d6a	-0.13817373
62	0x4054d2c1	3.3253634
63	0x3b9cbffe	0.0047836294

fc3.weight f4 [64, 64]
0	0x3daacf54	0.08340326
1	0xbe686801	-0.22695924
2	0xbda2ee1c	-0.07955572
3	0xbce5c48b	-0.02804782
4	0xbdc03945	-0.09385923
5	0xbdcd4107	-0.100221686
6	0xbda4be3a	-0.08044095
7	0xbd15ce12	-0.036573477
8	0x3d82ca3c	0.063862294
9	0x3dc9fe2a	0.09862931
10	0xbda9b6a3	-0.08286788
11	0x3dc60962	0.096697584
12	0xbde2ee24	-0.11080578
13	0x3de54422	0.11194636
14	0xbc305262	-0.010761829
15	0xbd1f6589	-0.03891519
16	0x3caa6a88	0.020802751
17	0x3ded4b6e	0.11586653
18	0xbc9a56c5	-0.018840203
19	0xbd5bb536	-0.053639613
20	0xbd6ceb89	-0.05784181
21	0xbde12d60	-0.10994983
22	0x3cc5e97b	0.024159184
23	0x3d99cbca	0.07509573
24	0xbe232340	-0.15931416
25	0xbb9537fb	-0.0045537925
26	0x3d6e1255	0.05812295
27	0x3daad64e	0.083416566
28	0x3d0bad6b	0.03410093
29	0xbd6a9164	-0.05726756
30	0x3dbbc4ac	0.091683716
31	0x3d75b9ac	0.059991524
32	0x3c071dba	0.008246833
33	0x3d27ee78	0.040998906
34	0xbd993111	-0.07480062
35	0x3d91e6cd	0.071241
36	0xbe4ac00a	-0.1979982
37	0x3e812c57	0.2522914
38	0xbdcb14a9	-0.0991605
39	0xbdd3d83c	-0.10343978
40	0xbedf84ab	-0.43655905
41	0x3d0b191e	0.0339595
42	0x3d8a4688	0.06751734
43	0xbb724c17	-0.0036971623
44	0xbeafa095	-0.34302202
45	0xbc39385e	-0.011304943
46	0x3d9f1284	0.077672035
47	0x3d20c99b	0.039254766
48	0xbc98512e	-0.018593397
49	0x3d823d6d	0.06359372
50	0xbdb18893	-0.086686276
51	0xbd9bf793	-0.076155804
52	0xbdad1246	-0.08450751
53	0xbea751d1	-0.32679608
54	0x3de7f576	0.11326115
55	0x3dc0f4fe	0.094217286
56	0xbda28963	-0.07936361
57	0xbdc75f06	-0.09734921
58	0x3d96ed84	0.07369521
59	0xbd878c3b	-0.06618544
60	0x3d6bf1db	0.0576037
61	0x3dfe830e	0.124273404
62	0xbb7c6d49	-0.0038517287
63	0xbdaff377	-0.08591359
64	0x3c24b943	0.010053935
65	0x3c651dc5	0.013984148
66	0xbdf38862	-0.11891247
67	0xbeaebdf9	-0.34129313
68	0xbec2b803	-0.38031015
69	0xbd96e642	-0.07368137
70	0xbda534fd	-0.08066747
71	0x3d94aece	0.07259904
72	0xbf0aba38	-0.541904
73	0xbdf36fc3	-0.11886551
74	0x3d7729d5	0.06034263
75	0xbe3ec415	-0.18629487
76	0xbe8efba9	-0.27926376
77	0xbd484af5	-0.04889961
78	0xbe98abbe	-0.2981853
79	0xbe38c474	-0.18043691
80	0xbdc08cbd	-0.09401844
81	0x3df3938f	0.11893379
82	0xbdef681a	-0.11689778
83	0x3e390bfa	0.18070975
84	0xbdef0d80	-0.11672497
85	0xbe4ba6a9	-0.19887795
86	0xbe2b6897	-0.16739117
87	0xbd579928	-0.052636296
88	0xbdd8e0fe	-0.10589789
89	0xbe976be3	-0.295745
90	0x3d536321	0.05160821
91	0x3d2915f5	0.041280705
92	0xbe60e46d	-0.21962138
93	0xbda7af77	-0.08187764
94	0xb6cf9264	-6.186123e-06
95	0x3dbd83ac	0.0925363
96	0xbd2700d1	-0.040772263
97	0x3d67a9a4	0.056558266
98	0xbe694c6b	-0.22783057
99	0xbdfd7f4c	-0.123777956
100	0x3f02f003	0.5114748
101	0xbf90540e	-1.1275651
102	0xc014141f	-2.313728
103	0xbe34a0a7	-0.17639409
104	0xbeb5169c	-0.35368812
105	0xbd7ab20e	-0.061204962
106	0xbce9169d	-0.028453166
107	0x3d930142	0.07177974
108	0xbe38e1d9	-0.18054904
109	0x3d0acdda	0.03388772
110	0xbdefc775	-0.11707965
111	0xbd62af7d	-0.05534314
112	0xbd974838	-0.073868215
113	0xbd9b9f10	-0.07598698
114	0x3ef49313	0.4776846
115	0xbef8bc8e	-0.48581356
116	0xbcab9a32	-0.02094755
117	0xbeb3082b	-0.3496717
118	0xbe649005	-0.22320564
119	0x3d8bab9c	0.06819841
120	0x3ca3db32	0.020001981
121	0xbe410942	-0.18851188
122	0x3dfdc123	0.123903535
123	0xbdf2689a	-0.118363574
124	0xbe8d5df1	-0.27610734
125	0xbe4a8f63	-0.1978126
126	0xbe0d5965	-0.13803633
127	0x3d3bb209	0.045824084
128	0x3dbe3115	0.092867054
129	0xbd5f4393	-0.054507803
130	0x3efd74f2	0.49503285
131	0x3f757ba3	0.9589178
132	0xbf5914d7	-0.84797424
133	0x3ebf36ad	0.37346402
134	0xbf31e43d	-0.6948889
135	0xbcaf9e18	-0.02143769
136	0x3f067f2a	0.52537787
137	0xbdb932da	-0.09042902
138	0x3f2881b8	0.65822935
139	0x3eea21a9	0.45728806
140	0xbf71beb1	-0.94431597
141	0x3d979ebf	0.07403325
142	0x3ea40cf6	0.32041138
143	0x3aba4b40	0.00142131
144	0x3e85ad26	0.26108664
145	0x3df5482f	0.119766586
146	0x3f237981	0.63857275
147	0xbedb26f6	-0.42803162
148	0x3d310846	0.04322078
149	0xbeb85f0e	-0.3601002
150	0xbeed75e6	-0.46379012
151	0x3d864bb8	0.06557411
152	0xbc52535e	-0.012837259
153	0x3d731642	0.0593474
154	0xbe2028bd	-0.1564054
155	0x3d8935c8	0.06699711
156	0xbccad56f	-0.024759976
157	0x3c003cb0	0.007826969
158	0x3e1d77c8	0.15377724
159	0x3e15f693	0.14644842
160	0x3dce3878	0.10069364
161	0xbd8eb7de	-0.06968664
162	0x3e11995c	0.14218658
163	0x3e8f9c95	0.2804915
164	0x3c3b1ce2	0.01142046
165	0x4017f97f	2.374603
166	0x3fdfb794	1.7477899
167	0x3f1d990d	0.6156166
168	0xbf33142b	-0.6995265
169	0xbeae6b90	-0.3406644
170	0x3f1c6a21	0.6109944
171	0x3cd7b082	0.026329283
172	0xbefd9e38	-0.49534774
173	0xbd8e5965	-0.069506444
174	0x3eb9ef73	0.36315498
175	0x3d65a47e	0.056065075
176	0x3f8ab97b	1.0837854
177	0xbd879c15	-0.06621567
178	0xbf119064	-0.5686095
179	0x3eaf1c98	0.34201503
180	0x3d466a1a	0.04844103
181	0xbcff589c	-0.031170182
182	0x3d4435dd	0.04790293
183	0xbd0c188a	-0.03420309
184	0xbe1620b9	-0.1466092
185	0xbeb9c56f	-0.36283442
186	0x3d67d30f	0.056597766
187	0xbc9be8e8	-0.019031957
188	0x3f1e272d	0.6177853
189	0x3e4e3829	0.20138611
190	0x3f096af5	0.5367883
191	0x3d84e75e	0.06489442
192	0xbd86d27a	-0.06583114
193	0xbf42f2f8	-0.7615199
194	0x3db2c881	0.08729649
195	0xbf2a0455	-0.6641286
196	0xbf278bf2	-0.65447915
197	0xbe07273e	-0.13198563
198	0x3e90e3df	0.28298852
199	0xbd9d11d0	-0.07669413
200	0xbf54f8cb	-0.8319213
201	0xbb91a755	-0.0044449964
202	0xbdf99ee2	-0.121885076
203	0xbe7312e9	-0.23737682
204	0xbf86d2e6	-1.0533111
205	0x3d9888d4	0.07447973
206	0xbdc277bc	-0.09495494
207	0xbf087944	-0.53310037
208	0xbdd86870	-0.10566795
209	0xbd36393a	-0.04448817
210	0x3a91fb83	0.0011137578
211	0xbf98e5c5	-1.194512
212	0xbd4b1fef	-0.049591
213	0xbe71c106	-0.23608789
214	0xbf004689	-0.5010763
215	0x3e047322	0.12934545
216	0x3f9f9fd9	1.2470657
217	0x3df7b7d0	0.12095606
218	0xbee431b0	-0.4456916
219	0x39d6a6fb	0.0004094167
220	0xbe1d712e	-0.15375206
221	0xbe89357e	-0.26798624
222	0xbdfff679	-0.12498183
223	0xbe135dc5	-0.14391239
224	0x3e255f46	0.16149625
225	0x3d1dbc54	0.03850968
226	0xbf4e15d4	-0.8050206
227	0xbdbbdec6	-0.0917335
228	0x3f8fa251	1.122141
229	0xbf63732b	-0.8884761
230	0xbffa6948	-1.9563379
231	0xbe945824	-0.28973496
232	0xc027762a	-2.6165872
233	0xbecabbbb	-0.39596352
234	0xbe53ee63	-0.20696406
235	0x3d39ee3f	0.045393225
236	0xbfc260ea	-1.5185826
237	0xbe90c55a	-0.28275567
238	0x3f27ad69	0.6549898
239	0x3d3d03d2	0.04614622
240	0xbdeb0b86	-0.11476807
241	0xbe3f64c6	-0.18690786
242	0x3ecdf7f8	0.40228248
243	0xbee82b5c	-0.4534558
244	0xbf2064df	-0.6265392
245	0x3f270361	0.6523953
246	0xbf2b6b5b	-0.66960686
247	0xbd9e69ab	-0.07734998
248	0x3f10cb84	0.5656054
249	0xbedca1c6	-0.43092173
250	0x3d0e1641	0.03468919
251	0xbd933f12	-0.07189764
252	0xbed2f5a7	-0.41203043
253	0xbed3115c	-0.41224182
254	0xbea162ce	-0.31520694
255	0x3dc811cf	0.09769022

fc3.bias f4 [64]
0	0xbdeac799	-0.114638515
1	0x3e132902	0.14371112
2	0xbfe9099f	-1.8206061
3	0x3ee62118	0.44947124
4	0xbc18f982	-0.009336831
5	0x3be91fb1	0.0071143736
6	0xbe4fd795	-0.20297082
7	0xbe9826a0	-0.2971697
8	0x3d7dafbc	0.06193517
9	0xbe0fdeb5	-0.140498
10	0xbefa998d	-0.48945275
11	0x3f65ddc6	0.89791524
12	0xbb8ae4fc	-0.004238723
13	0x3b23b635	0.002498043
14	0x3f03707a	0.513435
15	0xbd873a15	-0.06602875
16	0xbefffa58	-0.49995685
17	0x3e9bb213	0.30409297
18	0xbe887c11	-0.26657155
19	0x3edeba49	0.435015
20	0xbe7ec4ba	-0.24879733
21	0x3efbcb08	0.49178338
22	0xbe99ff0c	-0.30077398
23	0xbd9f78c3	-0.07786705
24	0xbe39ad17	-0.18132435
25	0xbe04d33a	-0.12971202
26	0x3bd08e95	0.0063646534
27	0xbe51061d	-0.20412488
28	0x3dbffa51	0.09373916
29	0xbd0ffddb	-0.035154205
30	0x3fd56477	1.6671284
31	0xbf0e6a60	-0.55631065
32	0x3e40f284	0.18842512
33	0xbd817489	-0.063210554
34	0x3e8931ed	0.26795903
35	0xbe3d25a8	-0.18471396
36	0xbd8af085	-0.06784157
37	0xbedb759d	-0.4286317
38	0xbf01ab26	-0.50651777
39	0xbc43e448	-0.011956282
40	0xbd005c2c	-0.031337902
41	0x3dfaf755	0.12254206
42	0xbfc048e5	-1.5022246
43	0xbeeea6b3	-0.46611556
44	0x3eea4050	0.45752192
45	0xbd395f44	-0.045256868
46	0xbe4ec892	-0.20193699
47	0xbe9129bd	-0.28352156
48	0xbca71360	-0.02039498
49	0xbda83492	-0.08213152
50	0x3d717549	0.058949742
51	0x3f39a01a	0.7250992
52	0x3fa48fd8	1.2856398
53	0x3eca8c12	0.3955999
54	0x3f1ac232	0.6045257
55	0x3fadd3be	1.3580244
56	0x3e259a72	0.16172197
57	0x3ea756c2	0.32683378
58	0xbe3ee9d3	-0.18643884
59	0x40083da8	2.1287632
60	0xbe39b1c6	-0.18134221
61	0xbe247d43	-0.16063409
62	0xbda2a71e	-0.07942031
63	0x3f094228	0.5361657

q_out.weight f4 [1, 64]
0	0x3bca2585	0.0061690235
1	0x3c97b5d8	0.018519327
2	0xbd121a60	-0.035669684
3	0xbf8289ee	-1.0198343
4	0x3d8af81f	0.067856066
5	0xbc6e7a12	-0.014555471
6	0xbc3795a1	-0.011205108
7	0xbc1af8cc	-0.009458732
8	0x3c112092	0.008857863
9	0x3affa697	0.0019504604
10	0xbbe964ff	-0.0071226354
11	0x3e6f1c3b	0.23350613
12	0x3c334f8f	0.010944261
13	0x3da621d9	0.08111925
14	0xbebef75f	-0.37298104
15	0x3dac9e3d	0.08428619
16	0x3cb29e38	0.02180396
17	0xbf4793a0	-0.7795963
18	0x3b5b8f83	0.0033502288
19	0xbc9d4e8a	-0.01920249
20	0x3cf79c2d	0.030225838
21	0xbccfb72d	-0.0253559
22	0x3cae5dcc	0.02128496
23	0xbc55d81b	-0.013052012
24	0xbd912234	-0.07086602
25	0xbbab6882	-0.005230964
26	0x3d3b9bfa	0.045803048
27	0x3ac39367	0.0014921249
28	0x3dc74dcd	0.09731636
29	0x3cadc3a8	0.02121146
30	0xbd8cf8eb	-0.06883415
31	0x3ba5d8cc	0.0050612446
32	0x3d538f5c	0.05165039
33	0xbc10f969	-0.0088485265
34	0x3d267269	0.040636454
35	0x3b6cc859	0.0036130159
36	0xbe095655	-0.1341184
37	0xbb3dda28	-0.0028969143
38	0x3cc55ac6	0.024091136
39	0x3d71e82e	0.059059314
40	0x3c230361	0.009949536
41	0x3ac16811	0.0014755746
42	0xbb26f5b0	-0.002547603
43	0x3c1d4714	0.009599466
44	0xbc9ae3b8	-0.018907413
45	0x3d86b5a3	0.06577613
46	0x3df04d7d	0.1173353
47	0x3cb14554	0.021639504
48	0x3c7716b1	0.015081094
49	0x3c6192d4	0.013767917
50	0x3d651022	0.05592359
51	0xbec3b9be	-0.38227648
52	0x3ebeeb1f	0.37288758
53	0x3c9d8503	0.019228464
54	0xbcbb06ae	-0.022830334
55	0xbf26290a	-0.6490637
56	0x3e40d971	0.18832947
57	0xbf7203e6	-0.945372
58	0xbc10afe6	-0.008831
59	0xbe53a127	-0.20666943
60	0xbcf84787	-0.030307544
61	0xbd73d9ee	-0.059534006
62	0xbcca3842	-0.024685029
63	0xbe87ba23	-0.265092
