Exp3_MPE/parameters_save/simple_crypto/actor_params.pkl (torch_old, 36967 bytes, 8 tensors)

fc1.weight f4 [64, 4]
0	0x3e8a01c4	0.26954472
1	0x3e828ea0	0.2549944
2	0xbe8befc4	-0.27331364
3	0x3cf4abe0	0.029867113
4	0x3eb0a79e	0.34502882
5	0xbbfde000	-0.00774765
6	0x3e999dcc	0.30003202
7	0x3e9953b6	0.2994668
8	0xbeab7ed8	-0.33495212
9	0xbe9c640e	-0.30545086
10	0x3e613584	0.21993071
11	0xbd86c418	-0.06580371
12	0x3e530f54	0.20611316
13	0x3e8af77a	0.27141935
14	0x3e9841ca	0.29737693
15	0xbe3040d4	-0.1721223
16	0x3eaefe5a	0.3417843
17	0xbdf44630	-0.1192745
18	0xbeeebe8e	-0.46629757
19	0x3eefa51a	0.4680565
20	0xbed01022	-0.40637308
21	0xbea5ab2e	-0.32357162
22	0x3e9f6eca	0.31139213
23	0xbdc8fb28	-0.09813529
24	0x3ef53cb4	0.47897875
25	0xbece859a	-0.40336305
26	0x3ee1f9a2	0.44135767
27	0x3ca7f320	0.020501673
28	0x3e879e92	0.26488167
29	0xbe67ef48	-0.22649872
30	0xbe86e906	-0.26349658
31	0x3e59766c	0.2123658
32	0xbdf34ed0	-0.11880267
33	0x3ef3d52a	0.4762357
34	0x3e2029c0	0.15640926
35	0x3ec02c96	0.37534016
36	0xbe4384c0	-0.19093609
37	0xbea08f9a	-0.3135956
38	0x3e3629d8	0.177894
39	0xbe9e3a92	-0.3090406
40	0x3eef153e	0.46695894
41	0x3e7ec100	0.24878311
42	0xbeea706c	-0.45788896
43	0xbe656a80	-0.22403908
44	0xbe01c914	-0.12674361
45	0x3dfe4a08	0.12416464
46	0x3d279aa0	0.040918946
47	0xbd4ff720	-0.050772786
48	0x3e7cbc74	0.24681264
49	0xbd812a48	-0.06306893
50	0xbe84c980	-0.25934982
51	0xbe1ff6ec	-0.15621537
52	0xbeffde1e	-0.4997415
53	0xbdd2b330	-0.102880836
54	0xbef505fe	-0.47856134
55	0x3d9f72d0	0.077855706
56	0x3ee66272	0.44996983
57	0x3ebf804e	0.37402576
58	0xbbca9300	-0.0061820745
59	0xbecfdfb4	-0.4060036
60	0x3e8b6cb6	0.27231377
61	0x3ea02bf6	0.3128354
62	0xbe35675c	-0.1771521
63	0x3ee7e4c4	0.45291722
64	0xbdd0d410	-0.10196698
65	0xbe88e682	-0.26738364
66	0x3ec08ddc	0.3760823
67	0x3dc621a8	0.09674388
68	0xbd9aad28	-0.07552558
69	0xbca395a0	-0.019968808
70	0xbdfbf908	-0.12303358
71	0xbdf61c18	-0.12017077
72	0xbe2e8a48	-0.17044938
73	0x3ea25a7a	0.31709653
74	0xbee01322	-0.43764597
75	0xbed21bd2	-0.4103685
76	0x3ea5e730	0.32402945
77	0x3e5d721c	0.2162556
78	0x3ed6449a	0.41849214
79	0x3ec5abb2	0.38607556
80	0xbed0e874	-0.40802348
81	0x3de068e8	0.10957509
82	0x3d8cdbe0	0.06877875
83	0xbd1266e0	-0.03574264
84	0xbe023400	-0.12715149
85	0x3e871a4a	0.26387244
86	0x3e3aa460	0.18226767
87	0xbefba1c8	-0.49146867
88	0x3eda111a	0.42591172
89	0xbeeedb2e	-0.46651596
90	0x3edddb98	0.433316
91	0xbec02388	-0.37527108
92	0x3ec8e9cc	0.39240873
93	0x3ef8aa28	0.4856732
94	0xbd129fc0	-0.03579688
95	0x3e81730a	0.2528308
96	0xbe53e800	-0.2069397
97	0x3e7c965c	0.24666733
98	0xbed0c77c	-0.40777194
99	0xbdb90b90	-0.090354085
100	0x3ec62070	0.38696623
101	0x3eda0e36	0.42588967
102	0x3d9dd6e8	0.07707006
103	0x3ea30e68	0.3184693
104	0xbd80a690	-0.06281769
105	0x3e99d378	0.3004415
106	0xbed2a542	-0.41141707
107	0xbccae9e0	-0.024769723
108	0xbeae66ee	-0.34062904
109	0x3e6d8124	0.23193794
110	0x3ef36e8a	0.47545272
111	0x3e4ea874	0.20181447
112	0xbe8d0f94	-0.27550948
113	0xbe4b4048	-0.1984874
114	0xbe9861ac	-0.29762018
115	0xbdc10c90	-0.09426224
116	0xbe251ac0	-0.16123486
117	0x3e68bef8	0.22729099
118	0x3eb7ab9c	0.35873115
119	0x3e5356ec	0.20638627
120	0x3ee87a58	0.4540584
121	0xbeebdd1a	-0.46067125
122	0x3e087530	0.13325953
123	0x3e964fdc	0.29357803
124	0x3ef64e98	0.48106837
125	0xbedb359c	-0.42814338
126	0xbdd62ce8	-0.10457784
127	0xbebde28a	-0.37086898
128	0x3d3616d0	0.04445535
129	0xbedcf308	-0.43154168
130	0xbec654d0	-0.38736582
131	0x3ef8c210	0.48585558
132	0xbeb3d1c2	-0.3512097
133	0xbeee61e4	-0.4655906
134	0xbee7a8ca	-0.45245963
135	0x3e27e2a4	0.1639505
136	0xbed6903a	-0.4190691
137	0x3eee0364	0.46486962
138	0x3dfc2cb0	0.12313211
139	0x3dfde1d8	0.12396592
140	0x3ede55f6	0.43424958
141	0xbeaf7dba	-0.3427561
142	0xbe0c09a4	-0.13675553
143	0xbe7f24c0	-0.24916363
144	0x3e60c770	0.2195108
145	0x3d154890	0.036446154
146	0xbeab1306	-0.3341295
147	0x3eedb62e	0.46428055
148	0xbe8b432e	-0.27199692
149	0x3e83b97c	0.2572745
150	0xbb317c00	-0.0027081966
151	0xbdac2088	-0.08404642
152	0x3dce5f68	0.10076791
153	0x3d027830	0.0318529
154	0x3da7d268	0.08194429
155	0x3e1d8b68	0.1538521
156	0x3e217690	0.15767884
157	0x3ec8ec7c	0.39242923
158	0xbd2948f0	-0.041329324
159	0xbde6c860	-0.11268687
160	0x3e19acc0	0.15007305
161	0xbdc6d730	-0.097090125
162	0x3d807dd0	0.06273997
163	0x3ee58a9e	0.4483232
164	0xbeb30598	-0.34965205
165	0x3d19ddc0	0.037564993
166	0x3ed5ea3c	0.4178027
167	0x3ee32d0e	0.44370311
168	0x3ea7c58e	0.3276791
169	0x3ee79b22	0.45235544
170	0x3ec9ee3c	0.3943957
171	0xbdb438a8	-0.08799869
172	0x3d94d108	0.07266432
173	0x3e3eb21c	0.18622631
174	0xbefc6eb2	-0.49303204
175	0x3debe190	0.11517632
176	0x3eb3dd88	0.35129952
177	0xbeb37a8e	-0.3505444
178	0xbe9cb46e	-0.30606407
179	0x3eafe9fe	0.3435821
180	0xbe9f69ec	-0.311355
181	0xbca06d00	-0.019583225
182	0xbed646fe	-0.41851038
183	0x3d6f7ca0	0.05846846
184	0xbe9fc1d8	-0.3120258
185	0x3e9ae286	0.3025095
186	0x3d801118	0.062532604
187	0x3e5b96e0	0.21444273
188	0xbe29873c	-0.16555494
189	0x3ee94628	0.45561337
190	0x3edeb408	0.43496728
191	0xbec142f4	-0.37746394
192	0xbeb9353a	-0.3617342
193	0xbefd01ec	-0.4941553
194	0x3e4930e4	0.19647557
195	0xbe6e2ab4	-0.23258477
196	0xbe9547f6	-0.29156464
197	0xbddcc2e0	-0.10779357
198	0xbecc03aa	-0.39846545
199	0xbdda9790	-0.106734395
200	0xbed00e3a	-0.40635854
201	0xbeb39536	-0.35074776
202	0xbe0fd22c	-0.14045018
203	0xbeb1a566	-0.34696501
204	0x3eecdbdc	0.4626149
205	0x3e24705c	0.16058487
206	0x3ec430e8	0.38318563
207	0x3edf754e	0.43644184
208	0xbec377a8	-0.38177228
209	0x3d0d41a0	0.034486413
210	0x3e9cc028	0.30615354
211	0xbee4aec4	-0.44664586
212	0x3ee7c224	0.45265305
213	0x3dcddf80	0.10052395
214	0x3d438850	0.04773742
215	0xbc138540	-0.009003937
216	0x3ecda78c	0.4016689
217	0xbe174510	-0.14772439
218	0xbe69fa20	-0.22849321
219	0xbc1a8fc0	-0.009433687
220	0x3ec23692	0.3793226
221	0xbe82abda	-0.25521737
222	0xbee7579a	-0.45184022
223	0x3d05fee0	0.03271377
224	0x3eaf1708	0.3419726
225	0x3dc975c0	0.09836912
226	0xbed7566e	-0.42058128
227	0x3eccb3b4	0.39980853
228	0xbe290e4c	-0.1650936
229	0xbe4b6ba0	-0.19865274
230	0x3ec24f50	0.37951136
231	0x3e14ca78	0.1453036
232	0x3ead7714	0.33879912
233	0xbdc56318	-0.09638041
234	0xbe856776	-0.26055497
235	0xbed48c1e	-0.4151315
236	0xbe42ca68	-0.19022524
237	0xbebb3c26	-0.36569327
238	0xbe51d850	-0.20492673
239	0xbbf05680	-0.0073345304
240	0xbeae8358	-0.34084582
241	0x3dc4c460	0.09607768
242	0x3c91f200	0.01781559
243	0x3d385720	0.045004964
244	0x3e84bc68	0.25924993
245	0xbedf1ea0	-0.43578053
246	0xbe1745cc	-0.14772719
247	0xbe2399b4	-0.15976602
248	0x3e783ce8	0.24241984
249	0x3dc7ccb8	0.09755844
250	0x3d1f9760	0.03896272
251	0x3eaa00c2	0.33203703
252	0xbec8ce5a	-0.39219934
253	0x3ef90552	0.48636872
254	0x3eb8d8a2	0.36102778
255	0xbed8da3e	-0.42354006

fc1.bias f4 [64]
0	0xbe177408	-0.14790356
1	0xbd8901d0	-0.06689799
2	0xbae6e566	-0.0017615973
3	0xb9e5c0e8	-0.0004382201
4	0xbb8d9fd9	-0.004322034
5	0xba12f085	-0.0005605298
6	0xb9969d5f	-0.0002872748
7	0xbe1446b4	-0.14480096
8	0xbdb9d8a0	-0.09074521
9	0xbe80bdaa	-0.25144702
10	0xba90446c	-0.001100672
11	0xbb581953	-0.0032974079
12	0xbac57bff	-0.0015066861
13	0xbb87bd21	-0.004142419
14	0xb9a24488	-0.00030950108
15	0xb9acf156	-0.00032986206
16	0xb88d3688	-6.733561e-05
17	0xbc7373c0	-0.01485914
18	0xba2da990	-0.0006624693
19	0xb9fb5d9f	-0.00047944204
20	0xba0c023a	-0.0005340908
21	0xbe13c448	-0.14430344
22	0xba75085f	-0.00093472557
23	0xbdfe1a18	-0.12407321
24	0xbe67b5b4	-0.22627908
25	0xb9b76e0f	-0.0003498648
26	0xbb262134	-0.002534938
27	0xbc2aaee3	-0.010417673
28	0xbc0b0839	-0.008485847
29	0xba0ad93d	-0.0005296653
30	0xbc5d31ec	-0.013500672
31	0xbe4ce95c	-0.20010895
32	0xbe687bf4	-0.22703534
33	0xbe2fd64c	-0.17171592
34	0xbcc20ba0	-0.023687184
35	0xbade8ae4	-0.0016978648
36	0xbd7d09f0	-0.061777055
37	0xba3969b3	-0.00070729404
38	0xbba469d9	-0.005017501
39	0xba6749cf	-0.0008822949
40	0xbb8ec22c	-0.004356643
41	0xba0a8f59	-0.00052856427
42	0xbc1c0afa	-0.009524101
43	0xbd7c65e0	-0.061620593
44	0xbeca3d46	-0.39499873
45	0xbee62b80	-0.44955063
46	0xbe30e624	-0.17275292
47	0xbef6d618	-0.48210216
48	0xbb1f19d6	-0.0024276874
49	0xba6c1478	-0.00090057356
50	0xbe55db7c	-0.20884508
51	0xba799516	-0.0009520812
52	0xbef4d412	-0.47818047
53	0xba095b3b	-0.00052397297
54	0xbe1de480	-0.15419197
55	0xbee1dcd0	-0.4411378
56	0xbe8a61d8	-0.27027774
57	0xbef4d068	-0.4781525
58	0xbbf57a51	-0.007491388
59	0xb9b53444	-0.0003456195
60	0xbadee5bb	-0.0017005721
61	0xbe842430	-0.2580886
62	0xbab09552	-0.0013472235
63	0xbed6d8ba	-0.41962224

fc2.weight f4 [64, 64]
0	0xbdbe84ea	-0.09302695
1	0x3dc2da56	0.095143005
2	0x3cd904d8	0.026491567
3	0xbd4fe774	-0.05075784
4	0x3dab6e88	0.083706915
5	0x3daec9fe	0.08534621
6	0xbcff4888	-0.031162515
7	0x3dd84bbc	0.1056132
8	0xbda6ed8a	-0.08150776
9	0x3d3e54e4	0.046467677
10	0xbdd80230	-0.10547292
11	0xbd6b793c	-0.057488665
12	0x3dd11e94	0.102109104
13	0xbd19dbfc	-0.03756331
14	0x3dce609c	0.100770205
15	0x3dbf0da0	0.09328771
16	0xbde43498	-0.11142844
17	0x3d02ef04	0.031966224
18	0xbdce7ff8	-0.10083002
19	0xbdffd756	-0.12492244
20	0xbd39e904	-0.045388237
21	0xbde21392	-0.11038889
22	0xbd11c534	-0.03558846
23	0x3dd6056e	0.104502544
24	0xbc0b8d50	-0.008517578
25	0xbdde0890	-0.10841477
26	0x3d612d7c	0.054975018
27	0x3d5872e0	0.05284393
28	0x3d777a18	0.060419172
29	0xbdc649f4	-0.09682074
30	0x3ba190c0	0.0049305856
31	0x3deb8dfe	0.11501692
32	0x3d2aaa4c	0.041666314
33	0x3ddc9742	0.10771038
34	0x3d9ec848	0.07753044
35	0xbde94d6a	-0.11391719
36	0x3d9005b8	0.07032341
37	0x3d62cfac	0.055373833
38	0xbd40f840	-0.04711175
39	0x3b77b2c0	0.0037795752
40	0x3d2cb55c	0.042165145
41	0xbd34b5dc	-0.044118747
42	0xbd86bd88	-0.06579119
43	0x3d0088f8	0.031380624
44	0x3df63a96	0.12022893
45	0x3ba2f560	0.0049730986
46	0xbdc3210a	-0.09527786
47	0xbd396774	-0.045264676
48	0x3db7dd08	0.08977705
49	0xbd03c6b0	-0.032171905
50	0x3d7587a4	0.05994381
51	0xbda86b4e	-0.08223592
52	0xbde62eac	-0.11239371
53	0xbb86d8c0	-0.004115194
54	0xbc610eb0	-0.013736412
55	0x3da27aa6	0.079335496
56	0xbd64b010	-0.05583197
57	0x3dd42912	0.10359396
58	0xbdac928c	-0.08426389
59	0xbd7ce7f0	-0.06174463
60	0x3cdccd00	0.02695322
61	0xbdfa20e4	-0.12213305
62	0x3d8f7500	0.07004738
63	0xbd13a98c	-0.036050364
64	0xbc830e28	-0.015997961
65	0xbd221f98	-0.03958091
66	0xbda9eb6e	-0.08296858
67	0x3db48c82	0.08815862
68	0xbdba1adf	-0.090871565
69	0xbb54dbb3	-0.0032479584
70	0xbe0af2f2	-0.13569239
71	0x3cd71ea8	0.026259735
72	0xbde1e0f2	-0.11029233
73	0x3dae3b1e	0.085073695
74	0x3d1696a4	0.036764756
75	0x3d28f7ef	0.041252073
76	0xbd3171d1	-0.043321434
77	0xba61666b	-0.00085983303
78	0xbdd6d3d5	-0.104896225
79	0xbde76fa6	-0.11300592
80	0x3cdb7b5a	0.026792217
81	0x3ca517a0	0.020152867
82	0xbe21e075	-0.1580828
83	0xbe32d6f2	-0.17464808
84	0xbe18cb3b	-0.14921276
85	0xbaeaa280	-0.0017901212
86	0xbc5bc08e	-0.013412608
87	0xbd30ffb4	-0.043212608
88	0xbdc9998c	-0.0984374
89	0xbd94ef41	-0.072721966
90	0xbd3bbb40	-0.045832872
91	0xbd1acd92	-0.037793703
92	0xbae86d96	-0.0017732854
93	0xbd5956d6	-0.05306133
94	0x3d3644cd	0.044499207
95	0x3dbd41de	0.09241079
96	0xbd9b9932	-0.07597579
97	0x3df536be	0.11973332
98	0xbdc47256	-0.0959212
99	0xbe2e11d9	-0.16998996
100	0xbd063bc8	-0.032771856
101	0xbdd3e5b8	-0.1034655
102	0xbe0a7b9e	-0.13523719
103	0xba251f2e	-0.00062988966
104	0x3d5b6549	0.05356339
105	0xbdcf1177	-0.10110753
106	0xbd83a390	-0.064276814
107	0xbdaecaaa	-0.08534749
108	0xbd802432	-0.06256904
109	0xbdbb5b06	-0.09148221
110	0x3d8ea672	0.06965341
111	0xbd281e68	-0.041044623
112	0xbe3ab569	-0.18233265
113	0x3d38a064	0.045074835
114	0x3c94c7b8	0.01816164
115	0x3e09b296	0.13447031
116	0xbd78bc4c	-0.06072645
117	0xbbc9a3e1	-0.006153569
118	0xbd1f2e68	-0.038862616
119	0x3dc409e0	0.09572196
120	0x3db2c846	0.087296054
121	0xbdd1cd64	-0.10244253
122	0x3ce3b0c5	0.027794251
123	0xbe3b3dc2	-0.18285277
124	0x3cf09cdd	0.029371673
125	0x3d877c3c	0.06615493
126	0xbd850f3c	-0.06497046
127	0xbd78689c	-0.06064664
128	0xbb8c07a0	-0.00427337
129	0xbd65db2c	-0.05611722
130	0xbd592202	-0.053010948
131	0xbbb34fd4	-0.0054721627
132	0xbe0162b7	-0.12635313
133	0x3d4ca6f3	0.049963903
134	0x3bfa1ae1	0.0076325987
135	0x3d4ce33c	0.050021395
136	0x3ceb8c10	0.02875331
137	0xbd92cf0a	-0.07168396
138	0xbe24cf29	-0.1609465
139	0x3d1a35bd	0.037648905
140	0x3baad598	0.0052134506
141	0xbdfb4391	-0.12268747
142	0x3d870fe2	0.06594826
143	0xbd78ab3a	-0.06071017
144	0x39fb84ca	0.00047973386
145	0xbc351410	-0.011052147
146	0xbdbd0923	-0.09230258
147	0xbe1f9793	-0.15585165
148	0xbcc901d0	-0.024536997
149	0x3d9c7e1a	0.076412395
150	0xb9204953	-0.00015286104
151	0xbd8dc8ec	-0.069230884
152	0xbda007b0	-0.07813966
153	0xbd70ecaf	-0.05881947
154	0xbd84c083	-0.06482031
155	0xbdd9d787	-0.10636812
156	0xbbdc9a6a	-0.006732275
157	0x3ba01ff3	0.004886621
158	0xbbfc15f2	-0.007693046
159	0x3d8fac14	0.07015243
160	0xbd47b314	-0.048754767
161	0xbda63ae8	-0.08116704
162	0xbdf7fdb6	-0.121089384
163	0x3d864365	0.06555823
164	0x3cd53170	0.02602455
165	0xbe0994ca	-0.13435665
166	0x3cc1f8d8	0.023678228
167	0xbb52fb11	-0.0032193104
168	0x3dfd70cf	0.12375032
169	0xbb214327	-0.0024606676
170	0xbdf51c6d	-0.119683124
171	0xbc178840	-0.009248793
172	0xbd9264a0	-0.07148099
173	0xbdd74d26	-0.10512762
174	0xbd994116	-0.07483117
175	0xbc730690	-0.014833108
176	0xbc8a02a4	-0.016846962
177	0xbe26fdaa	-0.16307703
178	0xbdcf41cc	-0.10119972
179	0x3d605e84	0.054777637
180	0xbd8badd4	-0.068202645
181	0x3d677729	0.056510124
182	0x3def1416	0.11673753
183	0xbbd99d40	-0.00664106
184	0x3dec3c22	0.11534907
185	0xbd90e876	-0.070755884
186	0x3d29bc09	0.04143909
187	0xbd344616	-0.04401215
188	0xbdd56e48	-0.10421425
189	0xbd692d10	-0.05692774
190	0x3d78d24c	0.06074743
191	0xbde619ce	-0.112353906
192	0xbd3bc1ac	-0.045838997
193	0x3d8b17e2	0.06791665
194	0xbd6c244c	-0.057651803
195	0x3d32d3a4	0.043658867
196	0x3dee8816	0.1164705
197	0x392df400	0.00016589463
198	0xbdad94ec	-0.0847567
199	0xbdc5e2ec	-0.096624225
200	0x3ab56780	0.001384005
201	0x3c7ee050	0.01555641
202	0x3c711400	0.014714241
203	0xbd86be82	-0.06579305
204	0xbd7a2e84	-0.061079517
205	0xbdd38898	-0.103287876
206	0x3a6b2600	0.0008970201
207	0x3cee9b48	0.029126778
208	0x3d3e01e0	0.046388507
209	0x3d17b4f8	0.03703782
210	0xbd611d04	-0.054959312
211	0x3dc37f22	0.09545733
212	0xbdd9e3c0	-0.10639143
213	0xbdd44b50	-0.10365927
214	0xbd92e1ac	-0.0717195
215	0x3dcf7f08	0.10131651
216	0x3da49c60	0.08037639
217	0x3d8f0d78	0.06984991
218	0xbd32cff0	-0.043655336
219	0xbdd60d42	-0.104517475
220	0x3cca7688	0.024714723
221	0xbd866324	-0.06561878
222	0xbce08700	-0.027408123
223	0xbdf35af6	-0.11882584
224	0x3dda8a46	0.10670905
225	0x3de175b2	0.11008777
226	0xbdddf32e	-0.108373985
227	0x3d678e54	0.05653222
228	0x3d99dbe4	0.07512644
229	0x3dbc5392	0.09195627
230	0x3d765ffc	0.06015013
231	0xbdf71f06	-0.12066464
232	0xbdd16cf0	-0.10225856
233	0x3d8584f2	0.06519498
234	0xbd0681b0	-0.032838523
235	0x3da098c8	0.07841641
236	0xbddb8878	-0.10719389
237	0x3c77d170	0.015125617
238	0x3d032dd0	0.032026112
239	0x3cedc988	0.029026762
240	0xbd943db8	-0.072383344
241	0xbc949220	-0.018136084
242	0x3dd5d5ce	0.10441171
243	0xbd2b5084	-0.041824833
244	0xbd35d5ec	-0.044393465
245	0xbb6fd680	-0.0036596358
246	0xbd7c0ee4	-0.06153764
247	0x3d75f920	0.060052037
248	0xbd8bd2aa	-0.0682729
249	0x3c5d5910	0.013510004
250	0xbc90f570	-0.017695159
251	0xbded35f6	-0.11582558
252	0xbd3fc95c	-0.04682289
253	0x3d47d868	0.048790365
254	0x3df86a50	0.121296525
255	0xbde264a2	-0.110543504

fc2.bias f4 [64]
0	0xbdef8872	-0.11695947
1	0xbb404126	-0.0029335706
2	0xbbbf2529	-0.0058332873
3	0xbb817440	-0.0039506257
4	0xbd08810c	-0.033326194
5	0xbcdcdedd	-0.026961738
6	0xbca1a694	-0.019732751
7	0xbc72c51e	-0.014817504
8	0xbd0d0f04	-0.03443815
9	0xbabb841e	-0.0014306342
10	0xbba9799f	-0.005171969
11	0xbda38ac9	-0.079854555
12	0xbe0e24e8	-0.13881266
13	0xbc999242	-0.018746499
14	0xbc3cabe4	-0.011515591
15	0xbdbe81cc	-0.093021005
16	0xbdf1868e	-0.117932424
17	0xbddaf3ca	-0.1069103
18	0xbc9c3f74	-0.019073226
19	0xbd96a5a1	-0.0735581
20	0xb8a3b908	-7.8069104e-05
21	0xba37d0d1	-0.0007012012
22	0xbd130f5f	-0.03590333
23	0xba16e3c4	-0.00057559856
24	0xbc2f2a25	-0.0106912
25	0xbc1c6319	-0.009545111
26	0xbdeb1655	-0.11478869
27	0xba7210c7	-0.00092340674
28	0xbcb0267b	-0.021502724
29	0xbdc962ae	-0.09833275
30	0xbd9771a4	-0.07394722
31	0xbcef0162	-0.029175464
32	0xbd835f66	-0.0641468
33	0xbde7e206	-0.113224074
34	0xbd5cd6ba	-0.053915717
35	0xba7bb3ba	-0.00096016715
36	0xbc2c53b7	-0.010518006
37	0xbcbaec46	-0.022817742
38	0xbdf7bdb2	-0.120967284
39	0xbc085ea8	-0.008323349
40	0xbd5a3018	-0.053268522
41	0xbc15c4c0	-0.009141147
42	0xbcddb33d	-0.027063007
43	0xbd6eff5e	-0.058349006
44	0xbc4bd058	-0.01243981
45	0xbcbc5f7f	-0.022994755
46	0xbd01b814	-0.03166969
47	0xbdb6a72e	-0.08918606
48	0xbd7e6bd3	-0.062114548
49	0xbabda9d1	-0.0014470165
50	0xb99cf64a	-0.00029938138
51	0xbd56850c	-0.052372977
52	0xbc62bc60	-0.013838857
53	0xbd2a8249	-0.041628156
54	0xbac50e8f	-0.0015034246
55	0xbcf97793	-0.030452525
56	0xbb456db3	-0.00301252
57	0xbd3808bc	-0.044930205
58	0xbdb1bc08	-0.08678442
59	0xbc8e45d4	-0.017367281
60	0xbd0d1634	-0.034445003
61	0xba840e7e	-0.001007512
62	0xbd85854c	-0.06519565
63	0xbdc60b0e	-0.09670077

fc3.weight f4 [64, 64]
0	0xbdf4e2ac	-0.11957297
1	0xbca62f09	-0.0202861
2	0xbd8b3dd8	-0.06798905
3	0x3d80cdbe	0.06289242
4	0xbdb3f5a3	-0.08787086
5	0x3dad4125	0.08459691
6	0xbdc2ebd7	-0.09517639
7	0x3dd34ff6	0.10317986
8	0xbd33790e	-0.04381662
9	0xbb234d83	-0.0024918027
10	0x3d6064d1	0.054783646
11	0x3dd1ee49	0.102505274
12	0xbd2f973d	-0.04286884
13	0x3dacbe28	0.08434707
14	0x3d1488e0	0.036263347
15	0x3d7ba25c	0.061434135
16	0xbd7b3f00	-0.06133938
17	0xbd522eec	-0.05131428
18	0xbaedad53	-0.001813332
19	0x3d38625c	0.045015678
20	0xbe04e8a4	-0.1297937
21	0x3ba1d965	0.0049392455
22	0xbc69fc3c	-0.014281329
23	0x3cf1a70e	0.029498603
24	0xb928a855	-0.00016084437
25	0xbdb7400b	-0.08947762
26	0xbc684b4e	-0.01417811
27	0xbd50e255	-0.050997097
28	0xbd783106	-0.060593627
29	0xbc695860	-0.014242262
30	0xbd32e208	-0.04367259
31	0xbd62853c	-0.055302843
32	0x3db776d7	0.08958214
33	0x3d1e7730	0.038687885
34	0x3ddd48ea	0.10804923
35	0xbd98b784	-0.07456878
36	0x3d80a83c	0.06282088
37	0x3d40a750	0.04703456
38	0x3d55e500	0.052220345
39	0x3c90103f	0.017585872
40	0xbcb24d70	-0.02176544
41	0xbd725b3e	-0.059169047
42	0xbd9d8ef5	-0.076932825
43	0xbd87fcaa	-0.06639989
44	0x3d0b0c9c	0.033947572
45	0xbdba720c	-0.09103784
46	0xbdd75584	-0.10514358
47	0x3c93fd38	0.01806508
48	0xbc5b24bb	-0.013375456
49	0x3d296a18	0.041360945
50	0xbe0208ed	-0.12698717
51	0x3df7dc0a	0.12102516
52	0xbd6b23b4	-0.057407096
53	0xbd92d392	-0.0716926
54	0xbdb94ba1	-0.09047628
55	0x3dac1654	0.08402696
56	0xbca63655	-0.02028958
57	0x3ae454c6	0.0017420284
58	0xbdc359f6	-0.09538643
59	0x3c3ad733	0.011403847
60	0xbc3b3850	-0.011427
61	0xbc50266f	-0.012704476
62	0xbccfa518	-0.025347278
63	0x3d56a55c	0.052403793
64	0x3d1edc10	0.038784087
65	0xbdbfca26	-0.09364729
66	0x3d667d1c	0.056271657
67	0xbd2fbbb4	-0.042903617
68	0x3d2a1bb8	0.04153034
69	0xbd8cb654	-0.06870714
70	0xbc3744f0	-0.01118587
71	0xbce31010	-0.02771762
72	0xbdddb298	-0.1082508
73	0xbdae46b6	-0.08509581
74	0x3dfddd04	0.12395671
75	0xbdac3896	-0.084092304
76	0xbcb91ad0	-0.022595793
77	0xbd6ad820	-0.05733502
78	0xbd6fee4c	-0.058576867
79	0xbd9e08e2	-0.07716538
80	0x3d9bc1ce	0.07605325
81	0x3d124494	0.035709932
82	0xbaf2d480	-0.0018526465
83	0xbd985f16	-0.07440011
84	0xbd9bdaa4	-0.07610062
85	0x3c9a8690	0.018862993
86	0xbde2db96	-0.11077039
87	0xbda8f23c	-0.082493275
88	0x3de18442	0.11011554
89	0x3ddc95ae	0.10770737
90	0xbdda0680	-0.10645771
91	0x3ba8d920	0.0051528364
92	0x3d87c66a	0.06629641
93	0x3d80dd00	0.062921524
94	0x3d919f6a	0.07110484
95	0x3d38f1b0	0.045152366
96	0xbd24fc8c	-0.04027991
97	0x3cd411d8	0.025887415
98	0xbd9dacbe	-0.076989636
99	0xbdf2368c	-0.1182681
100	0xbd89b3ea	-0.06723769
101	0xbd646810	-0.055763304
102	0xbc9c3e08	-0.019072548
103	0xbda15be6	-0.07878856
104	0x3c63c230	0.013901278
105	0xbdc4e7ca	-0.09614523
106	0xbc94e608	-0.018176094
107	0x3daa8338	0.08325809
108	0xbc91ce28	-0.017798498
109	0xbc506940	-0.012720406
110	0x3c11d200	0.008900166
111	0xbdbd805e	-0.09253
112	0x3cebf5d8	0.02880375
113	0x3d749a48	0.059717447
114	0xbdc361b6	-0.09540121
115	0xbbb3ae60	-0.0054834336
116	0xbdf4f696	-0.11961095
117	0xbd1a7824	-0.03771223
118	0xbd882e90	-0.06649506
119	0x3da5fca2	0.081048265
120	0xbcbab060	-0.02278918
121	0xbb91f960	-0.0044547766
122	0xbd1fcca4	-0.03901352
123	0xbdc48b1a	-0.09596844
124	0xbd8d0e70	-0.06887519
125	0x3dc96dec	0.09835419
126	0xbc8f7dd0	-0.017516047
127	0x3d11e41c	0.035617933
128	0x3d0b7d48	0.034055024
129	0x3c32ce2e	0.010913415
130	0xbd774408	-0.060367614
131	0xbdb5b1ae	-0.0887178
132	0xbd722c9c	-0.059124574
133	0xbd622648	-0.05521229
134	0xbdc87eb8	-0.09789795
135	0x3dd19c54	0.10234895
136	0xbd4a4be0	-0.049388766
137	0x3d7406cc	0.059576795
138	0xbc1ee8e0	-0.009699076
139	0xbdc5cc0c	-0.096580595
140	0xbd722924	-0.059121266
141	0xbd3a2bf0	-0.04545206
142	0xbcae3950	-0.021267563
143	0x3d9c0e6e	0.0761994
144	0x3de5fbc2	0.112296596
145	0x3d943b70	0.07237899
146	0xbce8006d	-0.028320516
147	0x3c397a2a	0.01132063
148	0x3d36d044	0.04463221
149	0x3da98d38	0.082788885
150	0xbdc4f0d8	-0.0961625
151	0xbdf2c3ac	-0.11853728
152	0x3d3b9955	0.045800526
153	0xbc6950b0	-0.014240429
154	0xba9a6680	-0.0011779815
155	0x3d05e6cc	0.03269081
156	0xbb9963a0	-0.0046810657
157	0xbdf34f8c	-0.11880407
158	0xbdcf3b3e	-0.101187214
159	0xbdb9d32c	-0.09073481
160	0xbd400f8c	-0.046889827
161	0xbd047ae0	-0.032343745
162	0xbcf86b30	-0.030324548
163	0xbc6eadca	-0.014567802
164	0x3d94993c	0.0725579
165	0xbda3948e	-0.07987319
166	0x3abcbe00	0.0014399886
167	0xbde1a488	-0.1101771
168	0xbd7684a0	-0.060185075
169	0xbdb4f989	-0.088366576
170	0x3d9788de	0.07399152
171	0xbd09bd98	-0.033628076
172	0xbdc93352	-0.09824242
173	0xbd3790a0	-0.04481566
174	0x3de71f70	0.11285293
175	0xbd6938d4	-0.05693896
176	0xbc87d9b6	-0.016583305
177	0x3dff0204	0.12451556
178	0x3c6a2ca7	0.0142928725
179	0x3dc65a32	0.09685172
180	0x3dc2e372	0.09516038
181	0x3de149ee	0.11000429
182	0xbd7bd64d	-0.06148367
183	0xbdb0a8b5	-0.08625928
184	0xbccbaf40	-0.02486384
185	0x3b814540	0.003945023
186	0x3d533c40	0.05157113
187	0x3d37a44c	0.04483442
188	0x3d98a408	0.074531615
189	0x3de97776	0.113997385
190	0x3ba304a0	0.0049749166
191	0xbc86c530	-0.016451448
192	0xbccfbbe0	-0.02535814
193	0x3b08c590	0.002086971
194	0xbc9c8e90	-0.019110948
195	0xbda7b6c4	-0.08189157
196	0x3d54dda8	0.0519692
197	0xbd93331e	-0.07187484
198	0x3d4f3d64	0.050595656
199	0x3bc3c620	0.005974546
200	0xbdfd61d6	-0.12372176
201	0xbc799520	-0.015233308
202	0x3d8a6b7e	0.06758784
203	0xbd9b1c3a	-0.07573743
204	0xbde0bd76	-0.10973637
205	0x3c026860	0.007959455
206	0x3dd643a4	0.1046212
207	0xbdd2d9b2	-0.10295428
208	0xbdf18e20	-0.11794686
209	0xbbd37680	-0.0064533353
210	0xbddafad4	-0.10692373
211	0x3de0270a	0.10944946
212	0xbdd02596	-0.10163419
213	0x3dc346dc	0.09535
214	0x3dcad0b6	0.0990309
215	0xbd9016af	-0.070355766
216	0xbda065a3	-0.07831886
217	0x3d6946d4	0.056952313
218	0xbbceea60	-0.006314561
219	0x3d30db8c	0.043178126
220	0x3dac095a	0.08400221
221	0xbde49c96	-0.11162679
222	0x3dff8878	0.12477201
223	0xbdd69f3e	-0.10479592
224	0xbb34843d	-0.002754464
225	0xbb562e80	-0.0032681525
226	0xbd8af4e6	-0.06784992
227	0xbda6b71e	-0.081403956
228	0xbda3083e	-0.079605564
229	0xbda319e2	-0.07963921
230	0xbb89f3e0	-0.0042099804
231	0x3d4e43c8	0.05035761
232	0xbdff56c4	-0.12467721
233	0xbd76b18f	-0.060227927
234	0x3b767ee6	0.0037612258
235	0x3d9b7376	0.07590382
236	0xbd5df4a8	-0.0541884
237	0x3d87d25a	0.06631918
238	0x3dcaea64	0.09907988
239	0x3c2bff20	0.010497838
240	0xbc7d5b5c	-0.015463676
241	0x3dbcce88	0.0921908
242	0x3d682b9b	0.05668221
243	0x3c502790	0.012704745
244	0xbd847858	-0.06468266
245	0xbdc238f6	-0.09483521
246	0x3d8ccdb3	0.068751715
247	0x3d18794d	0.037225056
248	0xbde08612	-0.10963072
249	0xbd0484b8	-0.032353133
250	0xbdd7bae6	-0.10533695
251	0xbddda157	-0.10821789
252	0xbdcaa7ae	-0.098952636
253	0xbdcaa9c2	-0.0989566
254	0x3c932628	0.01796253
255	0x3d891d4e	0.066950426

fc3.bias f4 [64]
0	0xbab68457	-0.0013924938
1	0xbdbae84e	-0.0912634
2	0xbdd91b30	-0.10600889
3	0xbd1a50e3	-0.037674796
4	0xbc1da0dd	-0.009620872
5	0xbdb1b500	-0.08677101
6	0xbdcd218f	-0.100161664
7	0xbc6526c0	-0.0139862895
8	0xbbbc98dc	-0.005755527
9	0xbd8140c0	-0.06311178
10	0xbcf35b0d	-0.029706502
11	0xbd7f2cd8	-0.062298626
12	0xbb4aad5b	-0.0030926082
13	0xbc4d4d26	-0.012530601
14	0xbc891903	-0.01673556
15	0xbd8d3a68	-0.06895906
16	0xbd2c7326	-0.042102
17	0xbd84c17d	-0.064822175
18	0xbc9e77a5	-0.01934416
19	0xbceaac36	-0.02864657
20	0xbda88cd0	-0.08229983
21	0xbcf2b827	-0.029628826
22	0xbca94d55	-0.020666758
23	0xbd79c2da	-0.06097684
24	0xbccbd288	-0.024880663
25	0xbc0d4008	-0.008621223
26	0xbc83e92c	-0.016102396
27	0xbe0773a1	-0.13227703
28	0xbcd7e1a8	-0.026352718
29	0xbdc6b532	-0.09702529
30	0xbe30f5bb	-0.17281239
31	0xbd90982b	-0.07060274
32	0xbd9b629d	-0.07587168
33	0xbdc409a9	-0.09572155
34	0xbc161f12	-0.009162681
35	0xbd53a9ad	-0.051675487
36	0xbc306014	-0.010765094
37	0xbabbeee5	-0.0014338164
38	0xbc5ba8a6	-0.013406908
39	0xbcf2b691	-0.02962807
40	0xbdd912c0	-0.105992794
41	0xbc1bad1f	-0.0095017245
42	0xbcfaaaa1	-0.03059894
43	0xbe08400b	-0.1330568
44	0xbd8d35f1	-0.06895054
45	0xbdc8527e	-0.09781359
46	0xbcf363b8	-0.029710636
47	0xbdc27484	-0.0949488
48	0xbde0e692	-0.10981478
49	0xbc932e6a	-0.017966468
50	0xbcccf034	-0.025016882
51	0xbd90bfc9	-0.0706783
52	0xbdc0cd84	-0.09414199
53	0xbd8523a0	-0.065009356
54	0xbd34e15d	-0.044160236
55	0xbde6f1c8	-0.11276585
56	0xbc819ced	-0.015821898
57	0xbd6964b9	-0.056980822
58	0xbd2f51f1	-0.042802755
59	0xbcf3191d	-0.02967506
60	0xbd2a54ee	-0.0415849
61	0xbd9a0598	-0.07520598
62	0xbdfe25c1	-0.12409545
63	0xbcefcf06	-0.029273521

action_out.weight f4 [4, 64]
0	0xc05ecd5b	-3.481284
1	0xbc252090	-0.010078564
2	0xbda15c51	-0.07878936
3	0x3d8601f2	0.0654334
4	0xbba8c817	-0.0051508057
5	0xbdc3bb47	-0.09557205
6	0x3d216e82	0.03941203
7	0xbdc0a8b0	-0.094071746
8	0x3d649eb7	0.055815425
9	0xbd446d04	-0.047955528
10	0x3e82afc2	0.25524718
11	0xbd7a70b8	-0.061142653
12	0xbdb6e8e2	-0.089311376
13	0xbc915ed2	-0.01774541
14	0xc060e426	-3.513925
15	0xbc50ea90	-0.012751237
16	0x3df19ff4	0.11798087
17	0x3def6654	0.116894394
18	0xbdecfb51	-0.11571372
19	0x3d4c74a6	0.049915932
20	0xbdbfc033	-0.09362831
21	0x3de3db94	0.111258656
22	0xbed151e9	-0.40882805
23	0xbdd0107a	-0.10159393
24	0xbd5b82d2	-0.053591557
25	0xbe73ed57	-0.23821007
26	0xbe6fd2e1	-0.23420288
27	0x3e99cc88	0.30038857
28	0x3cf4dd09	0.029890554
29	0x3d16c3ee	0.036807947
30	0x3dc41e60	0.09576106
31	0xbd30e227	-0.043184426
32	0xbcb26348	-0.021775857
33	0x3cc17bc0	0.023618579
34	0xbe946f29	-0.28991058
35	0xbd77a22c	-0.060457394
36	0xc0212731	-2.518017
37	0xc00e93e7	-2.2277772
38	0x3d08755c	0.033315048
39	0xc053d9ca	-3.3101678
40	0xbac8f000	-0.0015330315
41	0x3c84c6ed	0.016208136
42	0xbf667951	-0.90028864
43	0xbce343d1	-0.027742298
44	0xbd387d76	-0.045041524
45	0xbcae1b16	-0.02125315
46	0xbdcb67c2	-0.099318996
47	0xc0406995	-3.0064442
48	0x3dccdb1d	0.1000273
49	0xbf16a990	-0.5885248
50	0xbf4328c7	-0.76234096
51	0x3d58b11d	0.052903283
52	0x3d6ce1bc	0.057832465
53	0x3cd4bfdd	0.025970394
54	0x3d985d9e	0.07439731
55	0x3d020554	0.031743363
56	0x3cedbb44	0.02901996
57	0xbe499c48	-0.19688523
58	0x3e842446	0.25808924
59	0xbebd3d91	-0.36961034
60	0xc09e52ab	-4.9475913
61	0xbdd9d354	-0.10636011
62	0xbd2ed2dd	-0.042681564
63	0xc0ace627	-5.403095
64	0x3b02da37	0.0019966492
65	0xbc8405a8	-0.016115978
66	0x3d21f777	0.03954264
67	0xbd140b18	-0.036143392
68	0xba07096d	-0.0005151246
69	0xbd6bb05b	-0.057541233
70	0xbe1de93f	-0.15421008
71	0xbd048eb4	-0.032362655
72	0xbd3eb9cc	-0.04656391
73	0x3d4d7620	0.05016148
74	0xbcae22ef	-0.021256892
75	0x3b359d80	0.0027712286
76	0xbbe75f47	-0.0070609185
77	0xbc525344	-0.012837235
78	0x3d034ddb	0.03205667
79	0x3c317d60	0.010833114
80	0x3d487709	0.048941646
81	0xbc26acd2	-0.0101730395
82	0xbd2eccc9	-0.042675767
83	0x3d29fc9c	0.041500673
84	0x3c9a2d41	0.018820407
85	0xbd114680	-0.035467625
86	0x3c5bd87e	0.013418315
87	0xbd9b0a84	-0.07570365
88	0xbadc8391	-0.0016823878
89	0xbb346a2f	-0.002752911
90	0xbd484b6b	-0.04890005
91	0x3cb51d9c	0.022108845
92	0x3dbdb142	0.09262325
93	0x3bf3d562	0.0074412087
94	0x3c8c3a55	0.017117659
95	0xbc163f03	-0.009170297
96	0xbcfaa779	-0.030597435
97	0x3d239db3	0.039945316
98	0x3cd5a8a2	0.026081387
99	0x3d9b70a6	0.07589845
100	0x3d24f7fc	0.04027556
101	0x3b9c027d	0.004761039
102	0xbcdf273c	-0.027240388
103	0xbcb50c8b	-0.022100708
104	0x3d5b3354	0.053515747
105	0xbcf599a6	-0.029980492
106	0xbc07e35c	-0.008293953
107	0x3d9094c7	0.07059627
108	0x3cdf8c68	0.02728863
109	0x3c330761	0.010927052
110	0x3dceb282	0.100926414
111	0xbd85a7af	-0.06526124
112	0xbd1dea63	-0.038553607
113	0x3d1aa6df	0.037756797
114	0x3b94aeb9	0.00453743
115	0xbda2032a	-0.0791076
116	0xbd76dcbc	-0.060269102
117	0xbd9bfb7c	-0.07616326
118	0xbc48fe9b	-0.012267734
119	0xbce086a0	-0.027407944
120	0x3d0cf4c0	0.0344131
121	0x3b98fcef	0.004668824
122	0xb940fbc9	-0.00018404344
123	0xbcb34342	-0.021882657
124	0x3a06913b	0.00051333354
125	0xbc2f9cb0	-0.01071851
126	0xbcb4c69c	-0.02206736
127	0xbcbf1a90	-0.023328096
128	0x4018c239	2.3868544
129	0x3d857406	0.0651627
130	0xbdd51213	-0.10403838
131	0x3c9e76ca	0.019343752
132	0x3e38820c	0.18018359
133	0x3d83d5a4	0.06437233
134	0x3d5eb710	0.0543738
135	0xbd8c71ac	-0.06857619
136	0x3f290bf8	0.6603389
137	0xbd6625a0	-0.056188226
138	0x3f51cd8e	0.81954277
139	0x3daeffee	0.085449085
140	0x3e006e78	0.1254214
141	0xbd86ddbb	-0.065852605
142	0x407defad	3.9677536
143	0x3dc54602	0.096324936
144	0x3e5c8e1a	0.21538582
145	0xbdcaf7fa	-0.09910579
146	0x3cbc469d	0.02298289
147	0x3dc4fda5	0.09618691
148	0x3d5b041c	0.053470716
149	0x3fa5f6e2	1.2965968
150	0x3f59a104	0.85011315
151	0xbda71c6d	-0.08159719
152	0x3faae345	1.3350607
153	0x3ecf4b56	0.40487164
154	0x406450c2	3.567429
155	0x3f26f185	0.6521228
156	0xbd5d996b	-0.05410139
157	0x3e1723cc	0.14759749
158	0x3c1de0cc	0.009636115
159	0x3e7bae56	0.24578223
160	0x3d02d8e5	0.031945128
161	0x3d24e95d	0.040261615
162	0x3fc65436	1.5494449
163	0x3e04bcfc	0.12962717
164	0x404c90b1	3.1963313
165	0x404d7eb6	3.2108588
166	0x3f98518b	1.1899885
167	0x40680fdb	3.6259677
168	0x39c3bc00	0.0003733337
169	0x3c1422d6	0.009041509
170	0x3f11e611	0.5699168
171	0x3cad3a9f	0.021146117
172	0x3da60e3f	0.08108186
173	0x3e010fc7	0.12603675
174	0xbcdb43f0	-0.026765794
175	0x40342c2b	2.8151958
176	0x3d97fed0	0.074216485
177	0x3f513a1e	0.81729305
178	0x408d3b72	4.4135065
179	0xbd1988d0	-0.03748399
180	0xbd796ae0	-0.06089294
181	0x3d3d58f9	0.04622743
182	0xbcbaaae9	-0.022786574
183	0x3d1a9a54	0.037744835
184	0x3d2f1b90	0.042750895
185	0x3f9d6fa9	1.2299701
186	0x3fb64425	1.4239546
187	0x3e1aa682	0.1510258
188	0x3f84e797	1.0383176
189	0xbd9f5176	-0.07779209
190	0x3f02bf3a	0.5107304
191	0x40be3b6e	5.9447546
192	0x3f8a08ae	1.0783899
193	0xbcfc8048	-0.030822888
194	0xbe10dcc6	-0.14146718
195	0x3a8837e0	0.0010392629
196	0x3c8076d2	0.015681658
197	0xbcc23fc4	-0.023712046
198	0xbbbc7d83	-0.005752267
199	0x3d9efe8c	0.07763395
200	0xbeaf34f5	-0.3422009
201	0xbd77cff0	-0.06050104
202	0xbda163a1	-0.07880331
203	0xbd0b9474	-0.034077123
204	0xbf11b5cc	-0.56918025
205	0x3ddfa7f2	0.10920705
206	0xc0716a53	-3.7721145
207	0x3df60484	0.1201258
208	0x3dd991b0	0.10623491
209	0xbd32abbf	-0.04362082
210	0x3ddaf24f	0.10690748
211	0xbd88890d	-0.06666765
212	0x3decdaf3	0.11565199
213	0xbf76444b	-0.96197957
214	0xb9576de3	-0.00020544934
215	0x3c91c988	0.017796293
216	0xbf7f4f91	-0.99730784
217	0xbf1f7719	-0.62291104
218	0xc0a5a88b	-5.176824
219	0xbcd6d632	-0.026225183
220	0x3e1dcfd8	0.15411317
221	0xbd0eec46	-0.034893297
222	0x3bcc6874	0.0062380377
223	0x3dd2eb59	0.10298795
224	0xbcdc3062	-0.02687854
225	0xbd39d2f7	-0.045367207
226	0xbfd7522a	-1.682195
227	0x3c9062fc	0.017625324
228	0x3cf084ad	0.02936014
229	0xbea5ff6a	-0.32421428
230	0xbf42c780	-0.7608566
231	0xbeccb77d	-0.3998374
232	0x3d89cada	0.06728144
233	0xbc94cf3e	-0.018165227
234	0xbfaabea4	-1.3339429
235	0x3db6713e	0.08908318
236	0x3d907e80	0.07055378
237	0xbe02452d	-0.12721701
238	0x3cabf938	0.02099286
239	0x3db9dc83	0.090752624
240	0xbd11c88f	-0.03559166
241	0xbc59efb1	-0.013301776
242	0xc0a08fa4	-5.0175343
243	0x3d524778	0.05133769
244	0xbd95cf5a	-0.0731494
245	0x3d3b4667	0.045721438
246	0xbdabd208	-0.0838967
247	0x3be5cba0	0.0070127994
248	0x3d6a0e45	0.057142515
249	0xbddcb088	-0.10775858
250	0xbe901bad	-0.28146115
251	0xbf8e57c7	-1.1120538
252	0xc0afc75b	-5.4930854
253	0xbd362ae0	-0.044474483
254	0x3cbc4daf	0.022986261
255	0xc0a979c5	-5.2961144

action_out.bias f4 [4]
0	0xc1104864	-9.0176735
1	0x41103c5e	9.014738
2	0x41103a7e	9.01428
3	0xc1103fe7	-9.015601
