Exp3_MPE/parameters_save/simple_crypto/critic_params.pkl (torch_old, 37195 bytes, 7 tensors)

fc1.weight f4 [64, 8]
-0.018473506 -0.26521853 -0.11917472 -0.21076994 -0.3316571 0.20241393 0.035328984 0.0831308
-0.22030284 -0.105774686 -0.07704115 0.16305533 -0.28084803 0.025768159 0.33936462 -0.08330019
-0.2674344 0.00010314584 0.023726195 -0.040878147 0.22758213 -0.1381068 -0.032495968 -0.07850625
0.2532511 0.064216614 0.0889875 -0.33842978 0.00025676048 -0.08736574 0.060202938 0.027035713
-0.32668763 -0.14261748 -0.064713866 -0.07031813 0.1255292 -0.02184239 -0.22626805 0.18704566
-0.025123388 0.17748782 -0.16510543 -0.26444677 -0.107503496 -0.07759536 -0.022101672 0.1631599
-0.06859496 0.11504248 0.2619138 0.040062338 -0.18108036 -0.29537266 0.30704078 0.16788688
0.27685294 -0.25233412 0.29174885 -0.20925222 -0.19307753 -0.2292639 0.3503611 0.010762553
0.10950509 -0.06895316 -0.139201 0.02093333 0.220794 -0.21481998 -0.18235542 0.16845259
0.22539374 0.32683256 -0.016400188 -0.25927234 0.0255988 -0.05419188 -0.061030697 -0.01877492
-0.043129712 0.077919155 -0.28895795 -0.25398454 0.08188512 0.19071804 0.1024525 -0.11115483
0.0998286 0.07141742 0.16147664 -0.08784336 0.17150983 0.14526646 -0.17001867 -0.11146538
0.20289305 0.30764547 -0.047505915 -0.1027624 -0.22140127 0.061893165 0.053495347 0.14507532
-0.1094702 0.26972976 0.2153643 -0.34489807 0.21619941 0.116519146 -0.053650722 0.07784093
0.10657516 0.057839513 -0.24152142 -0.2796002 0.07101861 0.19928178 0.07715806 -0.2372401
0.31816176 -0.27664834 -0.13533518 -0.289512 -0.270578 0.11557792 -0.192784 0.34710827
0.2176275 0.33097616 -0.017721772 -0.14587584 -0.2394692 0.18129343 -0.27077988 -0.26584363
-0.29363662 -0.34745857 -0.058347464 -0.3289697 -0.30826083 0.061935216 0.08394486 0.08395696
-0.24057597 -0.16907625 0.24151328 -0.345551 0.08294086 -0.23213767 0.17747454 0.10218533
0.31123683 -0.2074741 -0.30042058 0.0041914284 0.12338439 -0.0777869 0.19367851 0.18280251
0.21590903 -0.052330077 0.034543484 0.22075513 -0.096748285 -0.09729158 0.273074 -0.062186845
0.034211934 0.2059227 -0.16878662 0.0953837 0.08644844 -0.06421837 -0.059802372 0.03527292
0.18366578 0.3105475 -0.16373356 0.0021478832 0.082688615 0.16426593 -0.0615783 -0.18579654
-0.21791273 -0.22716098 0.3468016 0.16067973 0.033809807 -0.064679354 -0.1499126 0.1777862
-0.17718914 0.16043195 -0.2164097 0.10120815 -0.12357743 -0.13509645 0.22854197 0.12875023
0.28317544 0.029999197 0.052253485 -0.14131063 0.12051775 -0.036475785 -0.004979322 -0.06268986
-0.25716048 0.05250919 -0.3071718 -0.0955244 -0.02380128 0.056830164 0.13560335 -0.18080823
-0.10401003 -0.045273542 -0.15542552 -0.27683616 -0.15306969 0.067784555 0.04182928 -0.008350631
-0.016851485 0.23683265 -0.13238296 0.011511385 -0.010598813 0.014720903 0.18950215 -0.1994478
-0.12835279 -0.24744844 0.013090044 -0.0039068162 0.10347283 -0.12923433 -0.19499627 0.16312835
0.20180777 -0.013435185 0.09455907 -0.22915755 -0.32526594 0.15838338 -0.075423345 0.25634712
0.23241523 -0.16237275 -0.2540087 -0.2617603 -0.15354872 -0.3022941 0.13929807 -0.2720335
00000000: c055 97bc b9ca 87be e011 f4bd 13d4 57be
00000010: f6ce a9be 9945 4f3e 20b5 103d 7b40 aa3d
00000020: 1197 61be 66a0 d8bd c0c7 9dbd faf7 263e
00000030: 50cb 8fbe bf17 d33c 33c1 ad3e 4a99 aabd
00000040: 29ed 88be 0050 d838 705d c23c d86f 27bd
00000050: 4a0b 693e de6b 0dbe 7e1a 05bd e3c7 a0bd
00000060: 21aa 813e 0084 833d 143f b63d ab46 adbe
00000070: cf9d 8639 cfec b2bd 5b97 763d 007a dd3c
00000080: 9a43 a7be 510a 12be b488 84bd f402 90bd
00000090: ba8a 003e d0ee b2bc d0b2 67be e688 3f3e
000000a0: 90cf cdbc 5ebf 353e 6611 29be 9165 87be
000000b0: cb2a dcbd 51ea 9ebd 910e b5bc 6413 273e
000000c0: 847b 8cbd 649b eb3d 9119 863e 6818 243d
000000d0: 216d 39be 163b 97be 7334 9d3e 8aea 2b3e
000000e0: abbf 8d3e f031 81be 1b60 953e 3746 56be
000000f0: 1eb6 45be 28c4 6abe 8862 b33e 6b55 303c
00000100: 3444 e03d 5037 8dbd b58a 0ebe 607c ab3c
00000110: d317 623e c5f9 5bbe 61bb 3abe d67e 2c3e
00000120: 9ecd 663e 9956 a73e b059 86bc 58bf 84be
00000130: 93b4 d13c 4ef8 5dbd 53fb 79bd dccd 99bc
00000140: c8a8 30bd 1494 9f3d 4cf2 93be 430a 82be
00000150: 63b3 a73d 974b 433e 9ed2 d13d 25a5 e3bd
00000160: f072 cc3d 4c43 923d 225a 253e 38e7 b3bd
00000170: 46a0 2f3e bbc0 143e 6019 2ebe f647 e4bd
00000180: 32c3 4f3e b583 9d3e 9095 42bd 1875 d2bd
00000190: 04b7 62be b083 7d3d f01d 5b3d a08e 143e
000001a0: ea31 e0bd 051a 8a3e 7688 5c3e 7b96 b0be
000001b0: 6163 5d3e 97a1 ee3d dcc0 5bbd 116b 9f3d
000001c0: 1444 da3d 20e9 6c3d 6451 77be c227 8fbe
000001d0: 3472 913d 8610 4c3e 0c05 9e3d 12ef 72be
000001e0: 19e6 a23e daa4 8dbe 4e95 0abe eb3a 94be
000001f0: 3389 8abe 1eb4 ec3d 2b69 45be 2db8 b13e
00000200: bed9 5e3e b575 a93e 402d 91bc 7a60 15be
00000210: 6a37 75be fca4 393e a9a3 8abe a81c 88be
00000220: 8a57 96be 17e6 b1be c0fd 6ebd b76e a8be
00000230: 5dd4 9dbe c8af 7d3d 48eb ab3d a0f1 ab3d
00000240: 8c59 76be 5322 2dbe 424f 773e 10ec b0be
00000250: e6dc a93d 7fb5 6dbe e3bb 353e 8b46 d13d
00000260: 6f5a 9f3e 1774 54be bad0 99be 4058 893b
00000270: f4b0 fc3d bd4e 9fbd a953 463e 9530 3b3e
00000280: 4217 5d3e 1058 56bd 787d 0d3d a20d 623e
00000290: f723 c6bd cf40 c7bd 5bd0 8b3e a2b7 7ebd
000002a0: d021 0c3d 66dd 523e 66d6 2cbe 8858 c33d
000002b0: e10b b13d ec84 83bd 55f3 74bd 567a 103d
000002c0: e212 3c3e 1500 9f3e c5a9 27be 80c3 0c3b
000002d0: a658 a93d 5435 283e 8739 7cbd 7341 3ebe
000002e0: 8424 5fbe e39c 68be fb8f b13e 3a89 243e
000002f0: 277c 0a3d 9c76 84bd b082 19be 960d 363e
00000300: 1271 35be 4648 243e 819a 5dbe 3846 cf3d
00000310: 2a16 fdbd b956 0abe e806 6a3e 1ad7 033e
00000320: 5ffc 903e e0c0 f53c c007 563d bcb3 10be
00000330: 03d2 f63d a267 15bd 9529 a3bb 8b63 80bd
00000340: 8aaa 83be e013 573d 9f45 9dbe 4ca2 c3bd
00000350: e7fa c2bc bfc6 683d 9bdb 0a3e cb25 39be
00000360: 3603 d5bd c070 39bd de27 1fbe 78bd 8dbe
00000370: 4dbe 1cbe a1d2 8a3d 2e55 2b3d 16d1 08bc
00000380: 200c 8abc 4284 723e 668f 07be 409a 3c3c
00000390: a5a6 2dbc f12f 713c da0c 423e 0b3c 4cbe
000003a0: ea6e 03be 2063 7dbe a077 563c c004 80bb
000003b0: 90e9 d33d 0156 04be 1aad 47be 1e0b 273e
000003c0: b2a6 4e3e 401f 5cbc 30a8 c13d 47a8 6abe
000003d0: 4289 a6be 412f 223e 8e77 9abd ee3f 833e
000003e0: 42fe 6d3e 0b45 26be 6e0d 82be 7205 86be
000003f0: e03b 1dbe 4bc6 9abe 27a4 0e3e fa47 8bbe

fc1.bias f4 [64]
-0.010861908 -0.0015849322 -0.023226377 -0.0015902737 -0.2709287 -0.04407949 -0.0065560923 -0.062122855
-0.024640229 -0.11107604 -0.26512754 -0.044581577 -0.13854946 -0.36676133 -0.30046365 -0.0029324896
-0.5991437 -0.2583039 -0.1326236 -0.42723322 -0.019771965 -0.0040933667 -0.00049401325 -0.003084582
-0.13228281 -0.017616015 -0.01219602 -0.055937704 -0.010300208 -0.18071042 -0.01513332 -0.5906422
-0.019598767 -0.0059706485 -0.060183633 -0.39069825 -0.041068636 -0.06554764 -0.006929922 -0.28567526
-0.015074872 -0.34843186 -0.08668496 -0.26827264 -0.008150169 -0.0015541104 -0.0091066705 -0.3017967
-0.0036702093 -0.021004722 -0.03302656 -0.018258143 -0.023793971 -0.0037984399 -0.0024372595 -0.12369976
-0.006242198 -0.0013677755 -0.0015532617 -0.0034866587 -0.11445406 -0.004147363 -0.14912988 -0.48913258
00000000: 25f6 31bc 80bd cfba 3e45 bebc bb70 d0ba
00000010: 2bb7 8abe b28c 34bd 7dd4 d6bb 8974 7ebd
00000020: 4eda c9bc d67b e3bd ccbe 87be 2c9b 36bd
00000030: e9df 0dbe 24c8 bbbe 5fd6 99be 032f 40bb
00000040: 7b61 19bf 6940 84be 7bce 07be 50be dabe
00000050: d1f8 a1bc a621 86bb ab80 01ba b326 4abb
00000060: 2575 07be 764f 90bc d1d1 47bc ef1e 65bd
00000070: 34c2 28bc 270c 39be bff1 77bc 5434 17bf
00000080: 988d a0bc 6ea5 c3bb 1d83 76bd 9a09 c8be
00000090: 9637 28bd d73d 86bd 6614 e3bb 0744 92be
000000a0: 99fc 76bc a965 b2be e287 b1bd 085b 89be
000000b0: 4988 05bc 4bb3 cbba 2534 15bc 1985 9abe
000000c0: e587 70bb 1812 acbc dc46 07bd 1a92 95bc
000000d0: 93eb c2bc 3fef 78bb 6eba 1fbb 4d56 fdbd
000000e0: 5a8b ccbb ee46 b3ba d096 cbba 6d80 64bb
000000f0: e466 eabd 9ae6 87bb 81b5 18be 966f fabe

fc2.weight f4 [64, 64]
-0.018609347 -0.07944685 0.065524995 0.08229852 -0.05208093 -0.006884247 -0.14064482 -0.026384652
-0.16879296 0.02030972 -0.07903311 -0.008319286 -0.028898269 -0.10945979 -0.11347917 0.08960927
-0.058744058 0.024871752 0.07783823 0.011975446 0.018084532 -0.06884151 0.07769821 0.09401014
-0.094729066 -0.022487761 -0.10551835 0.018557027 0.10025254 0.06667517 -0.015034446 -0.032207772
-0.118932806 -0.06534444 -0.1030827 0.056094617 -0.014689282 -0.06270607 -0.031920563 -0.11428036
-0.16393578 0.10737422 -0.02150315 0.036832422 -0.07251225 -0.023704212 -0.08666153 0.025831742
-0.045202248 -0.13110738 -0.12071065 -0.13025542 -0.13258794 0.092668496 -0.0958323 -0.09133048
-0.102077566 -0.071339354 -0.084617265 0.03749494 0.10697405 0.04178083 0.11917582 -0.0730917
-0.029482028 0.015971877 0.11412845 -0.04560462 -0.12247357 0.056706533 -0.030233553 -0.05711384
-0.012584285 -0.011468064 -0.060419634 0.020694897 -0.009266064 0.10261499 0.032003015 0.10070515
-0.045443512 -0.08580245 0.0025046538 -0.010551227 -0.037336927 -0.04405948 -0.053176787 0.12813066
-0.033688195 0.059104815 0.02911232 -0.076457046 0.14659408 -0.055658907 -0.062408943 0.02309757
-0.013313568 0.10933365 0.051644396 -0.0563089 -0.015754914 -0.029480455 0.060972285 -0.065405
0.030431902 -0.06020218 0.024745954 0.08189006 -0.03676607 0.08506674 0.0076644667 0.02275423
-0.08187946 0.12131009 -0.046354078 -0.028100975 0.12930398 0.009055579 -0.014127567 -0.051295742
-0.037054896 0.068564996 -0.021218622 0.12233452 0.101764336 -0.07611835 -0.00859037 0.016870884
-0.028810661 0.028639589 -0.11735755 -0.011202269 -0.09788239 -0.037578244 0.083676174 -0.010194627
0.09089857 0.025011284 -0.00097026484 0.025808048 -0.022691593 0.008021919 -0.06995995 -0.04663318
-0.14039333 0.055770755 0.106480695 -0.07697372 0.107835956 -0.0739366 -0.039986346 -0.12158413
-0.10601882 0.086173564 -0.0118754795 0.14341694 -0.08695853 0.08490981 -0.0124049205 -0.09022043
-0.024795761 -0.10510812 -0.021895189 -0.0037224682 -0.014185632 -0.0020633629 0.060469855 0.01976882
0.079918526 -0.0843811 -0.034132574 -0.048696145 -0.09604665 0.015314914 0.08098231 -0.10469583
-0.05224648 0.060055163 -0.03427313 0.016508022 -0.12429109 0.048227347 0.07223229 0.068120554
0.005068992 0.039692562 0.08397387 0.0940361 0.03391984 0.073396906 -0.051377103 -0.06326284
0.012177131 0.00082954764 -0.12162451 -0.003339615 -0.07654655 -0.024908796 -0.06133883 -0.0044931322
-0.064799115 -0.01751489 -0.047726337 0.0007222448 -0.032220766 -0.119451076 0.12411429 -0.073922314
-0.012905583 -0.10223493 0.010932719 -0.012069577 0.021177176 -0.016842056 -0.021639157 0.064182326
-0.108328834 -0.12094653 0.014927755 -0.023672149 0.1009079 -0.07312454 -0.009876758 -0.0014166385
-0.023980217 0.06304803 0.05180767 0.106280565 -0.043979317 -0.078607574 -0.12737092 -0.12454821
-0.06998822 -0.035539463 0.051587135 0.080805376 -0.11204384 -0.16666347 -0.05070598 0.105564356
-0.064974695 -0.15419522 0.111652315 -0.028281035 0.075872965 -0.04632085 -0.092132665 0.11868061
0.0027953542 0.010189787 -0.013923667 0.03099304 -0.068579525 0.08994091 0.03241153 -0.079599254
00000000: a172 98bc 08b5 a2bd f831 863d 208c a83d
00000010: d052 55bd 4095 e1bb 3205 10be a024 d8bc
00000020: 10d8 2cbe 9260 a63c 1cdc a1bd 9d4d 08bc
00000030: 10bc ecbc 742c e0bd c467 e8bd 1185 b73d
00000040: 9c9d 70bd d8bf cb3c a669 9f3d a934 443c
00000050: 0326 943c c7fc 8cbd 3d20 9f3d 6388 c03d
00000060: 5001 c2bd 4138 b8bc 011a d8bd e804 983c
00000070: 3451 cd3d fe8c 883d 0953 76bc 4cec 03bd
00000080: 0b93 f3bd 4ed3 85bd 061d d3bd 78c3 653d
00000090: 50ab 70bc 0a6c 80bd 23bf 02bd d20b eabd
000000a0: c8de 27be 04e7 db3d 6027 b0bc 98dd 163d
000000b0: 4d81 94bd 562f c2bc 9a7b b1bd 179d d33c
000000c0: fe25 39bd 0341 06be 2537 f7bd ad61 05be
000000d0: 22c5 07be fbc8 bd3d ba43 c4bd 7a0b bbbd
000000e0: 0b0e d1bd 5e1a 92bd d14b adbd 4b94 193d
000000f0: 3615 db3d 6022 2b3d 7412 f43d 1ab1 95bd
00000100: 4b84 f1bc 74d7 823c 2dbc e93d e9cb 3abd
00000110: 6cd3 fabd 1c45 683d 5bac f7bc 34f0 69bd
00000120: 512e 4ebc 8ce4 3bbc 947a 77bd 5888 a93c
00000130: b0d0 17bc cf27 d23d 9815 033d 803e ce3d
00000140: fa22 3abd 32b9 afbd 1e25 243b 0edf 2cbc
00000150: 9bee 18bd b777 34bd e7cf 59bd af34 033e
00000160: a2fc 09bd e417 723d f67c ee3c 8395 9cbd
00000170: c21c 163e 98fa 63bd 85a0 7fbd 1d37 bd3c
00000180: 2721 5abc 52ea df3d 1389 533d 29a4 66bd
00000190: 7310 81bc ff80 f1bc 13be 793d 0ef3 85bd
000001a0: 534c f93c 9096 76bd 07b8 ca3c fab5 a73d
000001b0: 0598 16bd 7937 ae3d 3526 fb3b 1467 ba3c
000001c0: 6bb0 a7bd 6d71 f83d c6dd 3dbd 0434 e6bc
000001d0: 4368 043e da5d 143c 5077 67bc 7c1b 52bd
000001e0: e0c6 17bd ce6b 8c3d add2 adbc 858a fa3d
000001f0: d269 d03d f0e3 9bbd a0be 0cbc cf34 8a3c
00000200: 5604 ecbc 929d ea3c 2859 f0bd b989 37bc
00000210: 9076 c8bd a5eb 19bd 6a5e ab3d 5d07 27bc
00000220: 0829 ba3d 77e4 cc3c 5f59 7eba 666b d33c
00000230: b8e3 b9bc 5e6e 033c 2a47 8fbd 6f02 3fbd
00000240: 45c3 0fbe e06f 643d 8d12 da3d 66a4 9dbd
00000250: 19d9 dc3d 126c 97bd b9c8 23bd 1a01 f9bd
00000260: 6520 d9bd c47b b03d 5f91 42bc e4db 123e
00000270: 5017 b2bd 32e5 ad3d 023e 4bbc 7dc5 b8bd
00000280: 7b20 cbbc ed42 d7bd 8a5d b3bc a7f4 73bb
00000290: da6a 68bc 7c39 07bb 3daf 773d 38f2 a13c
000002a0: 53ac a33d 00d0 acbd 99ce 0bbd 9c75 47bd
000002b0: 1bb4 c4bd 68eb 7a3c 0eda a53d c46a d6bd
000002c0: 6800 56bd 67fc 753d fb61 0cbd d53b 873c
000002d0: 548c febd 0a8a 453d 86ee 933d ca82 8b3d
000002e0: c919 a63b ab94 223d 7efa ab3d 0096 c03d
000002f0: 88ef 0a3d 1e51 963d cc70 52bd f38f 81bd
00000300: 9782 473c 0076 593a 4516 f9bd 71dd 5abb
00000310: 70c4 9cbd 880d ccbc 6d3e 7bbd 203b 93bb
00000320: 66b5 84bd 637b 8fbc b17c 43bd 0755 3d3a
00000330: ecf9 03bd c4a2 f4bd a22f fe3d 9564 97bd
00000340: f071 53bc 8c60 d1bd 261f 333c 7abf 45bc
00000350: c27b ad3c 5af8 89bc 9a44 b1bc 0672 833d
00000360: 82db ddbd d0b2 f7bd 8b93 743c 18ec c1bc
00000370: cda8 ce3d 52c2 95bd 20d2 21bc 80ae b9ba
00000380: 2972 c4bc 531f 813d 4834 543d a0a9 d93d
00000390: a823 34bd 02fd a0bd 866d 02be 2213 ffbd
000003a0: fc55 8fbd d491 11bd 084d 533d 4a7d a53d
000003b0: 3e77 e5bd d4a9 2abe 13b1 4fbd 2032 d83d
000003c0: 7411 85bd 5ae5 1dbe f8a9 e43d a1ad e7bc
000003d0: 4963 9b3d eeba 3dbd 0db0 bcbd d20e f33d
000003e0: 4332 373b 10f3 263c 1820 64bc 1ee5 fd3c
000003f0: 6c73 8cbd f132 b83d f4c1 043d ef04 a3bd

fc2.bias f4 [64]
-0.0008238665 0.9163145 0.58603126 -0.100695066 -0.12376919 -0.10826309 -0.16584134 0.88053
-0.041004613 0.88922435 -0.07603001 -0.013067829 0.439872 -0.029873218 -0.027902666 -0.08466263
-0.11888464 -0.13249035 -0.13903233 -0.18381754 -0.007520268 0.74032104 0.8207513 -0.07220201
-0.111426994 -0.0017495638 -0.09624435 -0.07428197 0.8734532 0.9240567 0.87490463 -0.07296601
0.60073256 -0.0037903064 0.9051811 -0.096640855 -0.096467376 -0.027184011 0.41074377 -0.10170382
0.9221124 -0.00895916 -0.014058803 -0.009235597 -0.049030766 -6.0311726e-07 0.65717304 0.46547955
-0.000110726025 -0.022814218 -0.0733117 -0.10081177 -0.03278555 -0.020899007 -0.0016546256 0.5438805
-0.21339138 0.91871196 0.61679566 -0.001998627 -0.007198886 -0.00019473159 0.8079658 -0.030034753
00000000: bff8 57ba 9693 6a3f 2506 163f 3739 cebd
00000010: b37a fdbd 0ab9 ddbd 50d2 29be 6a6a 613f
00000020: 74f4 27bd 35a4 633f 9fb5 9bbd 731a 56bc
00000030: e736 e13e aeb8 f4bc 2294 e4bc 9a63 adbd
00000040: ca79 f3bd 8dab 07be 7e5e 0ebe aa3a 3cbe
00000050: 956c f6bb ae85 3d3f c21c 523f a6de 93bd
00000060: d633 e4bd 9f51 e5ba c21b c5bd 2521 98bd
00000070: a19a 5f3f fb8e 6c3f c0f9 5f3f 346f 95bd
00000080: 9cc9 193f ca66 78bb f3b9 673f a4eb c5bd
00000090: b090 c5bd 01b1 debc 024d d23e 184a d0bd
000000a0: 8f0f 6c3f 71c9 12bc e556 66bc e750 17bc
000000b0: 7cd4 48bd e7e5 21b5 7e3c 283f 5653 ee3e
000000c0: 9535 e8b8 e2e4 babc 7224 96bd 6776 cebd
000000d0: 244a 06bd 6534 abbc 06e0 d8ba c13b 0b3f
000000e0: 4583 5abe b530 6b3f 52e6 1d3f 66fb 02bb
000000f0: a2e4 ebbb dd30 4cb9 d9d6 4e3f 710b f6bc

fc3.weight f4 [64, 64]
0.022111475 -0.101882935 -0.097061366 -0.047587812 0.012157872 -0.07133339 0.007908925 -0.0011412948
-0.011000037 0.034460157 0.11289428 0.05375053 -0.1215443 0.013981596 -0.11802676 0.04552844
-0.1025753 0.04408309 0.04404719 0.026202306 -0.07781224 -0.04642874 -0.09952983 -0.061430097
0.008889854 -0.09381166 -0.060680702 -0.046971664 -0.02065663 -0.12293765 -0.007841572 0.057304576
-0.0091009885 0.049266517 0.05206096 0.045421496 0.11200905 -0.037731245 -0.1192282 -0.08338609
-0.07690045 0.04805264 -0.09619887 -0.0626774 0.02387257 -0.068118855 0.08244513 0.12230879
-0.06304808 -0.100771934 -0.05503775 0.044057503 0.107783794 -0.048710346 0.08588584 0.09644078
0.0782489 0.0063994825 0.10951805 -0.10591145 0.03705126 -0.08805831 -0.09811351 -0.07775281
-0.0700345 -0.067872725 -0.08078852 -0.13454346 -0.022254419 0.07342775 0.086799815 0.06369387
0.00856933 0.011097561 -0.034366496 0.036032956 -0.13118784 0.0033096576 0.039748292 0.03854848
-0.029392526 0.008601204 -0.050821945 0.018064426 0.035598386 -0.014298469 -0.14335452 -0.090690225
0.08998901 0.08378532 0.05777967 -0.13252117 -0.056288533 0.077923246 -0.06979986 0.11677997
-0.060925614 -0.13321686 -0.029991344 0.08449413 0.0346738 0.04785087 -0.01912015 -0.082469255
-0.07111057 0.10293367 0.010437691 0.08455878 0.060713813 -0.14293212 -0.1327367 0.013283366
-0.07139232 -0.0080819 -0.1214941 -0.024248496 -0.06503841 0.10665123 0.09663431 -0.007788116
-0.07115585 -0.097208075 0.02316337 0.032808937 -0.12196792 0.011346007 -0.05471942 -0.1272598
0.07985441 0.3777505 0.121763624 0.10566752 -0.06834728 -0.058061447 0.069886476 0.1855124
-0.04424829 0.26027822 -0.067252405 -0.02575232 0.11036289 0.0316571 0.01059526 -0.04873576
-0.0012781763 -0.02556093 -0.08306715 0.0039130673 -0.09887869 0.15868098 0.22396423 0.07137866
0.016706694 0.06065482 0.08570635 -0.12931834 0.20567301 0.3815142 0.30629638 -0.01723145
0.15727055 -0.13710922 0.29186314 0.0056618154 0.020241663 0.07822692 0.22807224 -0.082610995
0.5084464 0.16589698 -0.067327164 -0.01931129 0.043402076 0.06343596 0.24263358 0.11264769
0.0858862 -0.104291536 -0.112548724 0.05682449 -0.0009866945 -0.019733293 -0.081440516 0.036391653
0.083281666 0.36598352 0.20258819 -0.0777791 -0.056378037 -0.12334462 0.13315527 -0.107184626
-0.026604628 -0.04810828 -0.14470442 -0.010028726 0.033323504 0.09239717 -0.10066926 -0.022976939
-0.10005962 0.055180274 -0.034087446 0.056405395 -0.17638339 -0.0025696368 -0.09199631 -0.040059682
0.09949523 -0.103199646 -0.0037025805 -0.21039157 -0.063416615 -0.1372431 -0.106811516 0.01532422
-0.01473865 0.091200136 -0.02673611 0.10340867 0.03371233 -0.049160607 0.020997142 -0.013800396
-0.0077492762 -0.18131857 -0.068004824 -0.0010359138 0.05543825 -0.0856348 0.04075869 0.044158965
0.098360844 0.025274957 -0.029474221 -0.12749347 0.086041674 -0.075057216 -0.011465372 -0.07182513
-0.09277453 0.047293764 -0.042107552 -0.09137447 -0.06184186 -0.059513308 -0.17878239 -0.08479806
-0.1395449 -0.02326897 0.008343282 0.106615886 -0.005467173 -0.12011784 -0.08919401 -0.06873311
00000000: 2023 b53c 00a8 d0bd 1cc8 c6bd 70eb 42bd
00000010: d031 473c 3e17 92bd 7094 013c 8097 95ba
00000020: 8039 34bc 1826 0d3d 1e35 e73d 8429 5c3d
00000030: 38ec f8bd 1013 653c 04b8 f1bd 087c 3a3d
00000040: 0013 d2bd 7890 343d d46a 343d 38a6 d63c
00000050: 065c 9fbd 102c 3ebd 4cd6 cbbd 209e 7bbd
00000060: c0a6 113c 5420 c0bd 548c 78bd 5c65 40bd
00000070: 1838 a9bc bcc6 fbbd f079 00bc 34b8 6a3d
00000080: 501c 15bc b0cb 493d e03d 553d e40b 3a3d
00000090: 0065 e53d 148c 1abd ea2d f4bd 54c6 aabd
000000a0: fc7d 9dbd d8d2 443d ea03 c5bd 025d 80bd
000000b0: 6890 c33c e681 8bbd fed8 a83d 087d fa3d
000000c0: 5a1f 81bd 8461 cebd 446f 61bd a475 343d
000000d0: c0bd dc3d 8084 47bd eae4 af3d be82 c53d
000000e0: f640 a03d c0b2 d13b 004b e03d 1ae8 d8bd
000000f0: 10c3 173d ea57 b4bd bcef c8bd de3c 9fbd
00000100: 3f6e 8fbd db00 8bbd 7474 a5bd c3c5 09be
00000110: e64e b6bc 4a61 963d 1ac4 b13d ef71 823d
00000120: 6066 0c3c 8bd2 353c e2c3 0cbd 4b97 133d
00000130: 1b56 06be d7e6 583b 1bcf 223d 03e5 1d3d
00000140: 98c8 f0bc 10ec 0c3c ac2a 50bd d9fb 933c
00000150: 9dcf 113d 2044 6abc 87cb 12be ccbb b9bd
00000160: 284c b83d a397 ab3d 60aa 6c3d a1b3 07be
00000170: ce8e 66bd 3996 9f3d 3bf3 8ebd 562a ef3d
00000180: 238d 79bd 006a 08be 68b0 f5bc 420b ad3d
00000190: 1d06 0e3d 46ff 433d dca1 9cbc a4e5 a8bd
000001a0: 6ba2 91bd e3ce d23d d902 2b3c 272d ad3d
000001b0: 0caf 783d cc5c 12be 21ec 07be 7aa2 593c
000001c0: 2336 92bd f269 04bc e6d1 f8bd c8a4 c6bc
000001d0: dc32 85bd f66b da3d 36e8 c53d 7433 ffbb
000001e0: 29ba 91bd 0715 c7bd 1cc1 bd3c aa62 063d
000001f0: 51ca f9bd 9ae4 393c 7821 60bd 6550 02be
00000200: b58a a33d 8368 c13e 355f f93d 3668 d83d
00000210: a9f9 8bbd d7d1 6dbd a420 8f3d f6f6 3d3e
00000220: b23d 35bd 3043 853e a1bb 89bd 88f6 d2bc
00000230: f005 e23d e0aa 013d be97 2d3c 269f 47bd
00000240: 7b88 a7ba 2865 d1bc 1c1f aabd 3039 803b
00000250: e980 cabd 447d 223e e156 653e fa2e 923d
00000260: 7adc 883c 3071 783d d086 af3d 076c 04be
00000270: f29b 523e d455 c33e e1d2 9c3e f828 8dbc
00000280: 880b 213e 5c66 0cbe 166f 953e c086 b93b
00000290: d8d1 a53c 6f35 a03d c58b 693e f42f a9bd
000002a0: 8b29 023f e6e0 293e d3e2 89bd b632 9ebc
000002b0: 60c6 313d b6ea 813d f074 783e d5b3 e63d
000002c0: 1be5 af3d cd96 d5bd f27f e6bd ccc0 683d
000002d0: f953 81ba b7a7 a1bc 49ca a6bd 6a0f 153d
000002e0: 948f aa3d 3162 bb3e 4773 4f3e a64a 9fbd
000002f0: a8ec 66bd 1b9c fcbd db59 083e 9d83 dbbd
00000300: f3f1 d9bc 300d 45bd 652d 14be 874f 24bc
00000310: 3a7e 083d ba3a bd3d af2b cebd 223a bcbc
00000320: 0fec ccbd b604 623d 479f 0bbd 5809 673d
00000330: d99d 34be 5a67 28bb 9068 bcbd 9f15 24bd
00000340: 28c4 cb3d 565a d3bd fea6 72bb e370 57be
00000350: 92e0 81bd 7589 0cbe ffbf dabd 7012 7b3c
00000360: 617a 71bc 23c7 ba3d b005 dbbc edc7 d33d
00000370: f115 0a3d a25c 49bd 3302 ac3c 0e1b 62bc
00000380: a4ed fdbb 93ab 39be 1d46 8bbd 80c7 87ba
00000390: 3813 633d 4c61 afbd 96f2 263d 08e0 343d
000003a0: 6971 c93d 6d0d cf3c ec73 f1bc a68d 02be
000003b0: 9e36 b03d 99b7 99bd 41d9 3bbc 0e19 93bd
000003c0: 9300 bebd 1bb7 413d f878 2cbd 8a22 bbbd
000003d0: e44d 7dbd 3ac4 73bd bb12 37be 9baa adbd
000003e0: dce4 0ebe 919e bebc 43b2 083c 6e59 da3d
000003f0: f925 b3bb 5800 f6bd 59ab b6bd f2c3 8cbd

fc3.bias f4 [64]
0.029670894 0.07520605 1.2734021 0.10332227 0.10287533 -0.0371504 1.863608 0.2470905
1.4226774 0.6415864 1.5154258 -0.06016031 -0.11300608 0.004654281 -0.07915859 1.6115879
0.020811155 -0.067650594 0.41878432 0.07826625 -0.007877037 1.7374271 -0.11156624 0.5251109
-0.012982266 0.26054114 1.0600041 -0.11511248 1.5853466 0.040020272 0.3493533 1.8458891
1.5589993 1.6361593 0.06300851 -0.013229594 0.04885921 1.6098101 -0.0567019 -0.06433721
-0.101383105 1.8310356 -0.07727893 1.342846 -0.0725974 0.025648668 -0.050661195 -0.066536024
-0.01674451 -0.10667684 0.07783176 0.3300222 -0.043861162 -0.0946096 -0.0906326 0.48900333
0.6449203 -0.06369409 0.08331287 0.1653224 0.60106844 -0.010831691 -0.040657654 -0.10810183
00000000: 6010 f33c a105 9a3d d7fe a23f a09a d33d
00000010: 4db0 d23d 052b 18bd b58a ee3f 4b05 7d3e
00000020: 4b1a b63f 023f 243f 79f9 c13f a86a 76bd
00000030: bb6f e7bd f082 983b e61d a2bd 8348 ce3f
00000040: 287c aa3c 658c 8abd e66a d63e 0e4a a03d
00000050: b00e 01bc 0364 de3f d77c e4bd ab6d 063f
00000060: 92b3 54bc a665 853e 37ae 873f 18c0 ebbd
00000070: a3ec ca3f 4cec 233d 70de b23e 1846 ec3f
00000080: 4a8d c73f ab6d d13f 9b0a 813d f0c0 58bc
00000090: 9820 483d 420e ce3f 4040 68bd 3ac3 83bd
000000a0: f2a1 cfbd 605f ea3f 6a44 9ebd 61e2 ab3f
000000b0: f2ad 94bd 281d d23c 1d82 4fbd 0a44 88bd
000000c0: c82b 89bc 6379 dabd 4266 9f3d abf8 a83e
000000d0: c3a7 33bd aec2 c1bd 969d b9bd a55e fa3e
000000e0: 7f19 253f 0c72 82bd f09f aa3d 464a 293e
000000f0: 9fdf 193f 6877 31bc a488 26bd 7e64 ddbd

q_out.weight f4 [1, 64]
-0.12195872 0.004736879 -0.3373265 -0.02794731 -0.004406064 0.047885306 -0.86774457 0.0135820815
-0.43456903 -0.01960631 -0.46315902 -0.08563055 -0.06601315 0.023809943 -0.12280814 -0.6873946
0.104549795 0.008472827 -0.0100547 0.0117039615 -0.013343617 -0.73481405 0.00249444 0.0226746
0.062771425 -0.02306785 -0.0009777449 -0.09291537 -0.5394542 0.014025852 -0.00866971 -0.813075
-0.61444753 -0.7087025 0.08100646 0.007585559 0.027743332 -0.6795649 0.011075988 0.025958259
0.027102184 -0.78830874 0.100798175 -0.42557546 0.08526949 0.026133506 -0.07399066 -0.07028361
0.07838108 -0.09507557 -0.00089663436 0.0006475367 -0.0059370827 -0.029337212 0.04114689 -0.02462152
-0.03105077 -0.0024578571 0.046730187 -0.0030975763 -0.028006481 0.03113141 0.075361654 0.10146098
00000000: 7ec5 f9bd d237 9b3b 0fb6 acbe c2f1 e4bc
00000010: be60 90bb 6223 443d 8224 5ebf 6187 5e3c
00000020: d57f debe 6a9d a0bc 2e23 edbe 125f afbd
00000030: e731 87bd 120d c33c d682 fbbd 18f9 2fbf
00000040: 341e d63d 9dd1 0a3c 78bc 24bc f9c1 3f3c
00000050: 309f 5abc c61c 3cbf c279 233b 15c0 b93c
00000060: 4e8e 803d caf8 bcbc ad27 80ba 6a4a bebd
00000070: ac19 0abf b0cc 653c 660b 0ebc af25 50bf
00000080: 6f4c 1dbf 876d 35bf b7e6 a53d 4890 f83b
00000090: fc45 e33c f7f7 2dbf 1078 353c 6aa6 d43c
000000a0: 6605 de3c 9ace 49bf 466f ce3d 07e5 d9be
000000b0: c5a1 ae3d ef15 d63c 6a88 97bd daf0 8fbd
000000c0: 4286 a03d fbb6 c2bd 1d0c 6bba 74bf 293a
000000d0: dc8b c2bb 9854 f0bc a489 283d 12b3 c9bc
000000e0: 2f5e febc 0014 21bb 2768 3f3d b500 4bbb
000000f0: d96d e5bc 4c07 ff3c 3657 9a3d c6ca cf3d
