Exp3_MPE/parameters_save/simple_tag/actor_params.pkl (torch_old, 39787 bytes, 8 tensors)

fc1.weight f4 [64, 14]
000000 53 fc 62 3e 0b fe 36 3d cd 50 c9 bf 1b 59 27 be
       0.22166567 0.044675868 -1.5727783 -0.16342585
000010 73 29 e2 be b4 a1 75 3e 63 95 29 be 04 11 54 be
       -0.44172248 0.23987466 -0.16560893 -0.20709616
000020 21 68 68 be 63 0e d6 3d 49 ab 3e bf 9c 7a e9 be
       -0.22695972 0.10451963 -0.7448011 -0.45601356
000030 d8 0c 99 bf 74 4d ef bd 7a f2 93 3e 36 39 b6 3e
       -1.1957045 -0.11684695 0.28895932 0.35590523
000040 3d e9 77 bf df 5a 94 3f 78 30 f2 bd 7a 0c 4c bd
       -0.9684027 1.1590232 -0.11825651 -0.049816586
000050 1f 14 b7 3d 73 a7 b8 bd a5 9f fe 3e 43 ca 9b bd
       0.08939385 -0.090163134 0.49731174 -0.07606938
000060 26 88 ea bd 0d 4b 3a bd 3f 79 8e bf 94 c2 08 3f
       -0.114517495 -0.04548173 -1.1130751 0.534219
000070 87 ad 32 3d 69 8e 4d 3e ac fe 11 3e 78 93 e7 be
       0.04362252 0.20073856 0.14257306 -0.45229697
000080 ec e9 04 3d 94 50 a1 bd 28 96 48 bc f2 60 1b bd
       0.032449648 -0.07876697 -0.012242831 -0.03793425
000090 22 cc 4e 3b 78 9f 0d 3e 62 1a 21 be 8f 70 9b c0
       0.0031554778 0.13830364 -0.1573272 -4.85749
0000a0 0c 20 8f bd 5d 7e c5 bd d2 07 45 3e 63 07 83 3d
       -0.06988534 -0.096432425 0.19241264 0.06397893
0000b0 f9 30 b7 be 6b 32 31 bf 9f b9 51 be 0e e6 62 bd
       -0.3577955 -0.69217557 -0.20480965 -0.05539518
0000c0 79 a0 6d be 82 b0 70 be a0 70 7e be 94 a5 f5 bd
       -0.23205747 -0.23504832 -0.2484765 -0.11994472
0000d0 53 68 b3 bf c7 92 87 bf f7 5b fc be 11 2b 92 be
       -1.4016212 -1.0591668 -0.49288914 -0.28548482
0000e0 54 31 a9 bd f7 c2 ff 3c df ac 06 bf 63 e1 ee be
       -0.08261362 0.031220896 -0.5260753 -0.4665633
0000f0 20 29 61 bd c6 fd c1 3e 68 61 6a be bf 01 94 3e
       -0.05497086 0.37888926 -0.2288872 0.28907582
000100 fe 66 a2 bd 35 7a 08 3f 55 50 bf bd 79 92 60 be
       -0.079298005 0.53311473 -0.09341494 -0.21930875
000110 44 72 bd bc 4a 09 d7 bf 95 fb 1a be a9 75 4f 3d
       -0.023125775 -1.679971 -0.15135033 0.05064932
000120 32 5f 3e 3f b9 9c 25 3f e4 e2 d8 3c 48 de 40 bf
       0.74364007 0.64692265 0.026475377 -0.75339174
000130 22 94 14 3e 21 13 a0 3f ae 38 dc be 2f 33 48 3f
       0.14509633 1.2505838 -0.43011993 0.782031
000140 9b 11 c7 bd 75 81 bc 3e 15 96 45 3f 72 f2 3a 3e
       -0.09720155 0.36817518 0.7718213 0.18256548
000150 b6 23 e3 be 85 c2 10 bd da 68 77 3f 7b f2 9d bd
       -0.44363183 -0.03534176 0.96644366 -0.07712265
000160 38 74 5a 3c 7c 81 9d 3d 43 36 92 3d ec 6b cb bc
       0.013333373 0.07690713 0.07139256 -0.024831735
000170 83 58 0f 3c fd 53 fb 3d 7d cb fa 3d 63 9b 15 bd
       0.00874913 0.12271879 0.122458436 -0.03652514
000180 64 4c 25 41 44 d5 7e b8 8e 2a 2b 3e 3a ce b6 3e
       10.33115 -6.075694e-05 0.16715452 0.35704213
000190 1a 42 a0 bf 03 20 e5 bf f7 0e c1 be d2 e6 c4 bd
       -1.2520173 -1.7900394 -0.3770673 -0.09614338
0001a0 5c 22 3a 3e 1c 6e 59 be 90 81 5f bc d5 2b ff 3d
       0.1817717 -0.2123341 -0.01364173 0.12459532
0001b0 50 d2 ac bd a0 91 ae 3d 37 b6 98 3e f4 71 ea be
       -0.084385514 0.085238695 0.2982652 -0.45790064
0001c0 0e dd f4 ba 79 1c 3f bd ec d9 8e 3e 17 5f 3d be
       -0.0018681602 -0.046658013 0.27900636 -0.18493305
0001d0 99 d8 51 bd c5 85 cc 3d f9 10 cc 3c bc 9e 42 3e
       -0.051231954 0.09986452 0.024910437 0.19005865
0001e0 09 c2 0e 3e 12 73 e5 bb 8e 49 05 3e f6 44 af 3b
       0.13941206 -0.007002243 0.1301634 0.005348797
0001f0 1a b3 03 c0 45 9e 04 41 17 7c 97 bb e7 93 0d be
       -2.0578065 8.28864 -0.004622947 -0.13825952
000200 48 0f 17 be d4 9e a9 3e 83 50 1f bd 85 56 92 3d
       -0.14751923 0.3312899 -0.03889514 0.071454085
000210 3e 2c de 3c a9 4e 9d bb ae 53 91 bc 98 8a 4b bc
       0.027120706 -0.004800637 -0.017740097 -0.01242318
000220 81 1b d7 be b1 0b 64 40 e4 68 5f 3d 4a a2 83 3d
       -0.4201317 3.5632136 0.05454339 0.064274386
000230 2f ac 2e 3f fd 6a e1 3e f1 42 89 3f 7c 46 bf 3f
       0.6823148 0.44026938 1.0723554 1.4943385
000240 bb e0 d8 3d 45 03 fe be e4 62 18 be e4 55 38 3e
       0.10589739 -0.4961187 -0.14881474 0.18001515
000250 b8 dd 2c 3d a1 77 dd 3e 9b 84 8c 3e fb f9 66 3c
       0.042203635 0.43255332 0.2744492 0.014097686
000260 a8 2b 8a bf c7 2b 5b bf 83 d1 a2 be a0 5a 69 3e
       -1.0794573 -0.85613674 -0.3180047 0.22788477
000270 40 7c 9f 3f 9d 2e 5a 3c 84 57 ce 3c c7 87 e1 bd
       1.2459793 0.013316778 0.025188215 -0.110122256
000280 31 98 8a bd 82 ab 0e be 93 4b d3 3d 19 7d d8 3d
       -0.067673095 -0.13932613 0.10317149 0.105707355
000290 66 1a 48 3e 19 6a a9 bd 74 7d 6b 3f 1f cf a6 3d
       0.1954132 -0.0827219 0.919883 0.08144974
0002a0 0e b5 23 3f cb 98 4e bd 01 6b 24 be 9c 05 c5 bf
       0.6394814 -0.050438683 -0.16056444 -1.5392337
0002b0 a3 14 ee be 83 70 7d 3e 06 2d 3e bf de f6 9b 3e
       -0.4650012 0.24749951 -0.7428745 0.30461782
0002c0 f5 cc 8e be 3e f3 86 be 91 f1 04 bf 8f 97 89 3d
       -0.27890745 -0.26357454 -0.519311 0.06718361
0002d0 45 4a 26 3f 65 4b 71 bf 1c fb 8c 3e ba 0c c8 3e
       0.64957076 -0.9425567 0.2753533 0.3907221
0002e0 cf 5d 84 be fb 1e 9d 3d d1 2a 07 bf 55 37 e3 3e
       -0.2585282 0.07671925 -0.5279971 0.44378152
0002f0 c0 11 12 bd 3a e0 ce 3d 97 b4 fb be 50 f9 3f be
       -0.03566146 0.101013616 -0.49161217 -0.18747449
000300 d2 e4 7a be 74 79 22 3f 6b f8 2b bf 21 f1 1f bf
       -0.2450135 0.6346657 -0.6717593 -0.6247731
000310 a8 78 1c bf 87 83 aa bd 3a b3 0c c0 d1 54 a6 be
       -0.61121607 -0.08325868 -2.1984391 -0.32486585
000320 a8 95 39 3f fe c9 a5 3e b4 81 99 be 93 c8 e9 be
       0.7249398 0.3238067 -0.29981768 -0.45660838
000330 71 5a 34 3e c0 3d 26 bf 06 a2 cb be b7 c0 1c 3e
       0.17612626 -0.64937973 -0.39772052 0.1530789
000340 dc ed 12 bc 41 0c 64 3f e0 f1 a0 3d 17 ba 78 bb
       -0.008967843 0.890812 0.07858634 -0.0037952715
000350 5f d9 cd be 57 7d 5f be 1c b5 96 bc a3 26 a3 3e
       -0.40204903 -0.21825157 -0.018396907 0.31865415
000360 53 3e 44 be f3 30 0e 3f 83 48 6e be ae da 12 bf
       -0.191644 0.5554344 -0.23269849 -0.5736493
000370 3c 04 fe bd 83 10 50 3e 3e 5a 56 3f 4b ae 1e c0
       -0.124031514 0.20318799 0.8373145 -2.479388
000380 6e e6 9e 3e 46 f7 e4 3d 3c 41 f2 3c a9 b1 64 3f
       0.3103518 0.11179976 0.029572122 0.8933359
000390 74 79 29 3d 5a c4 a5 3e 08 af 35 3e e1 73 73 be
       0.041375592 0.32376367 0.1774255 -0.23774673
0003a0 66 3b 5c 3e e1 09 88 3d 09 56 d3 bf 16 a9 00 3d
       0.21507034 0.06642509 -1.6510631 0.031411253
0003b0 44 0d 7c be 08 67 a2 3f 7b 78 ca 3e 7d 52 84 be
       -0.24614435 1.2687693 0.39545044 -0.25844184
0003c0 12 b7 46 3d 7e 38 f4 3e dc 27 f5 be cc 4d db be
       0.048514433 0.4769935 -0.47881973 -0.42832792
0003d0 59 18 43 3d 3f b0 d9 3e 62 bf c0 bd 93 88 87 bf
       0.04763064 0.42517278 -0.094115034 -1.0588554
0003e0 85 b5 59 bf 19 e7 e8 3d 62 d6 3a be 36 b0 db 3f
       -0.850426 0.113722034 -0.18245843 1.716315
0003f0 4f b9 0f 3e 70 cd 27 3c ae cf d5 bf 34 69 77 3f
       0.14035533 0.010241851 -1.6704004 0.966449

fc1.bias f4 [64]
000000 c0 cf ca bd 01 35 ce 3f e3 cf a4 3e 5c 65 23 bf
       -0.099029064 1.6109926 0.32189855 -0.6382654
000010 dc ac 13 c0 5c 67 85 bf 85 31 69 3f fd 4b 01 3e
       -2.3074255 -1.0422168 0.91091186 0.12626643
000020 21 1f 74 3f 6b e8 e6 3d 78 b4 d1 bf b7 92 19 40
       0.9536 0.11274799 -1.63832 2.3995798
000030 36 5d f7 bf ae c2 0a bf 9d f6 0e c0 75 7d 1d bf
       -1.9325321 -0.5420331 -2.233802 -0.6151956
000040 e9 5c 8f bf 3b 93 07 c0 d1 0d 0c 3f ac e9 37 c0
       -1.1200229 -2.1183612 0.5470858 -2.8736372
000050 a7 78 20 bd d3 82 05 c0 c0 33 3c 3f 2b bc a5 bf
       -0.039177563 -2.0861099 0.73516464 -1.2948049
000060 9f 1a 58 bf 6d 60 c2 bf 61 b7 bf 3d 4e 7f a7 3d
       -0.8441562 -1.5185677 0.093611486 0.08178578
000070 bf d4 45 bf b1 4b f9 bd 75 5e 40 c0 40 56 03 40
       -0.7727775 -0.1217264 -3.0057652 2.0521393
000080 84 b2 63 c0 55 98 83 3e 74 ee 0b 3f 78 5c e0 be
       -3.5577707 0.25702158 0.54660726 -0.43820548
000090 77 a6 fb bf 5d a2 8a be 25 9a 3a be 3e ac c0 bf
       -1.9660176 -0.27076998 -0.18222864 -1.5052564
0000a0 74 fe c6 bf 05 49 34 3e 9f 48 51 c0 60 31 b5 3e
       -1.5546403 0.1760598 -3.2700574 0.35389233
0000b0 03 50 11 c0 76 c6 a4 3e d8 b6 cf bf b3 98 cb bf
       -2.2705085 0.32182664 -1.6227674 -1.5905975
0000c0 b3 ba 39 bf 62 9a 46 bf 9b d0 ed bf 40 58 15 3e
       -0.72550505 -0.7757932 -1.8579286 0.14584446
0000d0 45 f8 18 3f f9 fc b6 be b9 0d 70 3e 51 2a ae bd
       0.5975383 -0.35739878 0.23442735 -0.08504165
0000e0 eb 86 e3 bf 05 8f 63 bf 5a 62 c0 be 2e 74 39 3f
       -1.7775549 -0.88890105 -0.37575036 0.724429
0000f0 28 32 9a bf 2f c7 d7 be 3d 55 86 bf 1d 65 ad be
       -1.2046556 -0.42144153 -1.0494763 -0.33866206

fc2.weight f4 [64, 64]
000000 94 26 9b bd 7a 3a 29 3f 38 47 f8 be 1e 13 a2 be
       -0.075757176 0.66104853 -0.48491836 -0.3165521
000010 18 07 e9 3d 4f 3d 08 bf a8 ca 3a bf 7f e7 c7 3e
       0.11378306 -0.5321855 -0.7296548 0.39043805
000020 02 e6 85 3e 69 20 a9 3c d9 e4 62 bf bf 19 28 bf
       0.26152045 0.020645337 -0.88630444 -0.65664285
000030 27 23 8b bf 67 cd 57 bd fd 39 a6 3f be 6f 4f bf
       -1.0870103 -0.05268612 1.2986447 -0.8102988
000040 bc c4 50 be 03 1d 8f 3d d0 92 ad 3e 4d 8d 3d c1
       -0.20387548 0.069879554 0.33901072 -11.846997
000050 a8 dd c0 3e b8 1c d5 be f9 bb 32 bf 86 99 dd 3e
       0.3766911 -0.41623473 -0.69818074 0.43281192
000060 d1 1b 53 3d 73 6a e8 be 6d 3f a9 3e 20 79 1e 3f
       0.0515402 -0.45393714 0.33056203 0.6190357
000070 a6 82 90 be 49 03 81 bf 22 05 49 bf aa e6 0c bf
       -0.28224677 -1.0079128 -0.7852346 -0.55039465
000080 e9 26 f5 3e 14 57 b4 bc 11 21 00 3f 1e 15 80 3e
       0.4788125 -0.022014178 0.50050455 0.2501611
000090 f4 de 8f be 25 6b 3d 3e dc 2d 04 3e b8 30 0b c0
       -0.28099787 0.18497904 0.12908119 -2.1748486
0000a0 db ac 17 bd d9 0d 00 3f 46 9a e1 3f e9 85 94 3e
       -0.037030082 0.5002113 1.7625206 0.29008415
0000b0 61 52 a2 3f 0a 6b c9 3e 0c 7d 1e 3f a5 05 67 bf
       1.268139 0.39339477 0.61909556 -0.9024299
0000c0 2a 3e 65 3e 1b f6 4b be 1b fb b8 3f 94 d6 3f 3d
       0.22386995 -0.199181 1.4451631 0.046835497
0000d0 b7 df f4 3e b9 55 0f be 8e 89 37 3e fc 6f 2b 3f
       0.4782693 -0.13997544 0.17923567 0.6696775
0000e0 e9 42 81 bc 53 ba ac be a5 19 01 3f 8c 0b 74 3f
       -0.015778976 -0.33735904 0.50429755 0.9533012
0000f0 67 2d 0a 3e f4 62 97 3d cc 48 ae 3e 62 4f e1 be
       0.13493882 0.07391921 0.34039915 -0.44005877
000100 ac af 1c bf a0 47 02 c0 1a e6 9d be 5a 2c 0d c0
       -0.61205554 -2.0356216 -0.30839616 -2.205832
000110 52 64 03 3f c5 86 3b 3f 9e b6 4e 3e 57 09 e3 3f
       0.5132495 0.73252517 0.2018685 1.7737225
000120 a0 10 e6 bf 4d 92 e7 be e9 95 f8 3c 18 31 28 bf
       -1.7973824 -0.45228806 0.03034492 -0.6569991
000130 0f c8 86 3f f8 f9 cd bf f6 b7 ce 3e e1 ee 9a 3f
       1.0529803 -1.609191 0.40374726 1.210415
000140 86 03 4f 3e b0 e0 d1 3f b8 e5 7f bf bc 04 16 be
       0.20216188 1.6396694 -0.999599 -0.14650244
000150 5d c8 c6 3d 28 7f b8 be b5 76 4c c0 1d dd e7 3d
       0.09706185 -0.36034513 -3.1947453 0.11321471
000160 b9 94 67 3f d6 75 17 bf 05 0d 20 3f f8 66 17 be
       0.9046131 -0.5916418 0.62519866 -0.14785373
000170 60 64 7f bf 2b eb 3b bf b9 70 c3 be d4 8e 04 c0
       -0.99762535 -0.7340571 -0.38171938 -2.0712175
000180 df d9 db be df 26 2e 3f e2 e0 8c c0 b7 03 ce bd
       -0.4293966 0.6802806 -4.4024515 -0.10059302
000190 60 dc ab 3f 0c 2d b3 be 04 cb 81 3e 17 de 81 be
       1.3426628 -0.34995306 0.253502 -0.25364754
0001a0 88 8f 9f bf 39 90 f4 3e 41 99 ce 3e d2 41 d0 bf
       -1.2465677 0.47766283 0.40351298 -1.6270087
0001b0 78 2b 0a bf ce d9 ff bf 3e a7 65 bf a1 ef 9b 3c
       -0.5397258 -1.9988344 -0.89708316 0.019035162
0001c0 ff 81 42 bf 1a 68 0e be de 83 1b bf b8 f8 74 bc
       -0.7597961 -0.13906899 -0.6074809 -0.014951877
0001d0 7e 0b 10 bf 7f 09 64 bf b9 b4 44 bf 9b 3b 9e 3e
       -0.56267536 -0.8907699 -0.7683826 0.3090485
0001e0 a8 a8 12 be d6 5f 64 3f 6d d6 c1 3e 5b 0c 53 bf
       -0.1432215 0.89208734 0.37858906 -0.8244073
0001f0 21 17 ed be a8 1d a4 bf fc 24 0f c0 76 6a 64 3f
       -0.46306708 -1.282155 -2.2366323 0.89224946
000200 22 28 fe bd d1 33 5a bf df 15 0e 3f a4 bd 92 3f
       -0.124099985 -0.85235316 0.5550212 1.1464124
000210 54 37 a5 3f c3 18 ad 3c 53 92 d1 3f 28 a8 0b 3e
       1.290751 0.021129971 1.637278 0.13638365
000220 8d ae 36 bd 0a 24 02 3e 63 d0 d1 3e fc 4c ca 3e
       -0.04460006 0.1270906 0.409793 0.3951186
000230 c6 34 92 3e 5a d8 3f 3f 6b 0c fc bf 62 d6 c5 3e
       0.28555888 0.749395 -1.969129 0.38640124
000240 ea 1e 83 bf 9e 86 5b 3f d2 75 cb bf 1d 71 2c 3f
       -1.0243809 0.85752285 -1.5895331 0.673601
000250 ea 6c 77 bd b9 25 81 bf fb 06 9c be 15 6b 0b bf
       -0.060406603 -1.0089637 -0.30474076 -0.5446027
000260 07 f6 90 be 5e 62 d5 3f 00 9f db bd dc b4 5b 3e
       -0.28312704 1.6670644 -0.10723686 0.21455711
000270 15 83 5f be d8 ce 12 3f a8 85 44 c0 8f 11 1e bf
       -0.21827348 0.5734687 -3.0706577 -0.6174554
000280 5e c7 d4 bf 4b 56 21 3f 2f dc 95 3e 79 a2 98 bf
       -1.6623342 0.630223 0.2926955 -1.1924583
000290 a7 53 40 3f 9c 8a 1b bd 8c 56 52 3e 81 96 12 be
       0.75127643 -0.037973985 0.20540828 -0.14315225
0002a0 a8 ab 10 be dc b7 0d 3f ae fd df be e8 d4 be bd
       -0.14127982 0.5535867 -0.4374823 -0.093179524
0002b0 3b fb 32 c0 47 82 27 3f 9a 30 eb 3d 01 f9 43 3e
       -2.796584 0.6543316 0.114838794 0.19137956
0002c0 99 17 1f 3e b6 0f 6b be 22 13 0f c0 70 c2 9f 3d
       0.15536346 -0.22955212 -2.2355428 0.07800758
0002d0 67 e5 4d 3e d3 eb a3 3e fe 68 4d 3e 93 14 0b bf
       0.20107041 0.32015857 0.20059583 -0.5432827
0002e0 06 0b 2b be 5d 1f 7c 3f 16 fb 5f bf a2 bb 16 3f
       -0.16703424 0.98485357 -0.874925 0.58880055
0002f0 62 74 13 40 5c f0 3d 3e be e9 97 3f b7 7f 1b bf
       2.3039784 0.18548721 1.1868207 -0.6074175
000300 f7 a4 9a 3e 1f e6 f8 be 31 6c f0 3e 19 f1 00 c0
       0.30203983 -0.48613068 0.46957543 -2.0147154
000310 b3 c6 e5 be ad 1b ed 3c f6 43 85 3e 50 b9 d2 bc
       -0.44878158 0.02894386 0.26028413 -0.02572313
000320 ec dd d3 3e ff b0 11 c0 e4 07 0f bf 43 a4 67 3e
       0.4138025 -2.276428 -0.55871415 0.22621255
000330 65 d1 86 bf 51 d3 38 3e fc c6 49 bf b9 e2 9a be
       -1.0532652 0.18049361 -0.7881925 -0.302511
000340 f0 ea de 3d f8 27 39 bf 7b 2e 66 3f 53 de d6 bf
       0.108846545 -0.7232661 0.89914674 -1.6786598
000350 b6 4a 0b bf a4 b7 07 3f f8 b7 39 be 40 d2 af bf
       -0.54410875 0.5301459 -0.18136585 -1.3736038
000360 16 07 6c 3e 34 3f fd be c7 0c 8d 3e 24 65 1b 3e
       0.23049578 -0.49462283 0.2754881 0.15175301
000370 af 43 53 bf aa 21 58 be 68 fc 7c c0 da cb 9d be
       -0.8252515 -0.21106592 -3.9529057 -0.3081959
000380 e2 95 4b c0 a2 e7 55 3e 66 c2 90 3e 81 44 2e bf
       -3.1810231 0.20889142 0.28273314 -0.6807328
000390 70 b2 4d bf 47 dd 87 bf 71 72 88 be b8 4f f5 3d
       -0.803504 -1.0614403 -0.26649812 0.11978096
0003a0 09 ea 73 bf 24 76 58 3f 71 5f f9 be c2 d5 fc 3e
       -0.95278984 0.8455527 -0.4870563 0.49381834
0003b0 31 12 bc 3f ae 4c 0d 3e 70 ed 90 bf ec 72 d0 be
       1.4693052 0.13798782 -1.132246 -0.40712678
0003c0 86 aa eb bf 13 96 42 3e c9 53 f8 be f2 ef 02 3e
       -1.8411415 0.19002561 -0.48501423 0.12786844
0003d0 2f a0 9e be b3 18 64 3d 5b 4d 34 3f 91 bf 14 bf
       -0.30981585 0.055687618 0.70430535 -0.5810481
0003e0 51 66 57 bf 39 62 4f be 13 08 1e 3f aa 7b 84 be
       -0.841405 -0.20252313 0.6173107 -0.25875598
0003f0 3f d9 9c 3e c6 06 54 3f 7f 30 27 3e 38 13 9f be
       0.30634496 0.82822835 0.16327094 -0.3106935

fc2.bias f4 [64]
000000 4f b6 54 bf 43 a3 86 bf 85 0f ca bf 0c 84 43 3e
       -0.8309068 -1.0518574 -1.5785986 0.1909334
000010 fa 09 89 3e 34 e6 16 bf 66 e2 87 3f 61 71 87 bf
       0.26765424 -0.5894501 1.0615966 -1.0581475
000020 1f e7 c4 bf 2b b5 80 3d ff 96 13 3f 25 9e 18 3f
       -1.5383033 0.06284555 0.57652277 0.5961631
000030 c5 2c d0 3f 40 0a 20 3e cf 95 cb 3f 47 65 55 3f
       1.6263663 0.1562891 1.5905093 0.8335766
000040 02 be 19 40 bf 9c fb 3f 9a eb 86 bf 99 ca 0d bf
       2.4022222 1.965721 -1.054065 -0.55387264
000050 ed 5d ce bf 84 61 25 40 4a 2e 87 3f 30 21 89 3f
       -1.6122414 2.584077 1.0561001 1.0713253
000060 3f b8 04 c0 1d c7 82 be ad 92 3a be a7 1f 95 be
       -2.0737455 -0.25542536 -0.18220015 -0.2912571
000070 e7 e3 de 3f f2 90 5c 3f 62 30 e0 bf 08 b4 ed 3f
       1.74133 0.8615867 -1.7514765 1.8570566
000080 9d 5c a0 be ac 40 cb 3f 2d a6 0f be ba 8d a9 3f
       -0.31320658 1.5879111 -0.14028235 1.3246377
000090 c3 84 2e 3f c3 18 19 3f 3f 75 9d be c5 94 8f 3f
       0.6817133 0.5980341 -0.30753514 1.1217276
0000a0 0e 13 0b 40 de 7e bf bf 02 17 04 40 58 f4 98 bf
       2.173038 -1.4960592 2.0639043 -1.1949568
0000b0 41 e8 0e c0 4d 03 ce bf 89 ab 20 c0 07 9a 27 bf
       -2.2329257 -1.6094757 -2.5104697 -0.654694
0000c0 47 92 1b bd 47 b2 bf bf e6 0b 14 be ec 50 9f c0
       -0.037981298 -1.4976281 -0.14457664 -4.978628
0000d0 5e 6f 08 3f 25 bd bd 3a b7 14 91 bf 23 56 52 3f
       0.5329493 0.0014475925 -1.1334447 0.82162684
0000e0 ca 8f 12 3f b9 f3 87 3f f8 45 d7 3f 22 a0 08 40
       0.57250655 1.0621253 1.6818228 2.1347737
0000f0 89 1f 75 40 ab 08 e5 bf 6b 6b 59 3f e3 40 10 c0
       3.8300498 -1.789327 0.8492953 -2.2539604

fc3.weight f4 [64, 64]
000000 d5 fc 03 3e 7c aa 81 bd df 7b 21 bf 81 5d 58 3e
       0.12889417 -0.063313454 -0.6307964 0.21129419
000010 b9 ac 91 bd ba 4a 51 3e 76 66 2b 3f a7 a1 58 3e
       -0.07113022 0.20438662 0.6695322 0.21155415
000020 33 a1 c0 bf c8 49 01 3e 2f 96 da bd a6 66 5d bf
       -1.5049194 0.12625802 -0.106731765 -0.86484754
000030 c9 67 61 be 16 cc 0c be 03 38 db bd 0a 95 29 3f
       -0.22012247 -0.13749728 -0.10704043 0.6624304
000040 0f 31 4e bb a5 be e1 be cc 9d e3 3e 42 a9 a2 bd
       -0.0031462347 -0.44090763 0.44456327 -0.079424396
000050 ec b8 0f bc c2 2d 24 bf 02 5f 03 3f a4 3a 26 3e
       -0.008772116 -0.6413232 0.51316845 0.16233307
000060 ee 16 49 be 7b 41 90 bd 2a ef a7 bf e4 c4 3b bf
       -0.19637653 -0.070437394 -1.3119862 -0.73347306
000070 1c cb 3b be 29 92 8e bd 9e c6 e1 be 65 77 11 bf
       -0.18339199 -0.069614716 -0.44096845 -0.56822807
000080 f2 99 8a be 7c ac b9 3e 80 e9 45 3f 4c 67 d7 be
       -0.27070576 0.36264408 0.7730942 -0.42070997
000090 41 95 40 be e9 8a 09 bd 06 32 35 3e ca 17 bf be
       -0.18806936 -0.03357974 0.17694864 -0.37322837
0000a0 55 59 64 3e 5b ce 8f 3d f8 b3 4f bf b2 df d2 3d
       0.22299702 0.07021781 -0.81133986 0.10296573
0000b0 02 73 d9 3e 90 36 ac be ac f0 5a 3e dc 01 a5 3e
       0.42470556 -0.33635378 0.21380872 0.3222798
0000c0 98 d6 c0 bd 1c 83 4a 3f 9a fc 9e 3d 28 7c 83 3e
       -0.094159305 0.7910631 0.07763024 0.2568066
0000d0 d2 8d be 3e 6b 28 29 bf 41 37 64 3e 0d 0a 3d 3e
       0.37217575 -0.660773 0.22286703 0.18460865
0000e0 b0 b2 28 bf a3 94 6a 3e 53 56 e3 3e 82 09 05 be
       -0.65897655 0.22908263 0.44401798 -0.12991908
0000f0 bf b3 8f bf b1 89 21 3f e1 15 bf be 85 c2 a6 bd
       -1.1226729 0.63100725 -0.3732138 -0.081425704
000100 77 60 36 be f6 48 29 bd 6d fc c6 be 2a e7 47 bd
       -0.17810236 -0.041329347 -0.3886446 -0.04880444
000110 00 5a dc be 50 9d 01 3f 2d 53 aa be 39 17 55 3e
       -0.43037415 0.50630665 -0.33266583 0.2080964
000120 3e 68 df 3d b1 d3 10 3e dc b9 b5 be 12 a0 84 be
       0.109085545 0.14143254 -0.35493362 -0.25903374
000130 9e 85 e9 3e da bf 02 3f 1e 90 95 3f 70 56 b6 be
       0.45609754 0.5107399 1.1684606 -0.35612822
000140 ba 7c 1c 3f 85 e0 cf bf ab 09 52 3f f1 f7 8a be
       0.6112782 -1.6240393 0.82046 -0.2714229
000150 6f 76 14 c0 1f e5 ab bf 2e 3b 78 bf 82 d5 fb bd
       -2.3197286 -1.3429297 -0.969653 -0.12296583
000160 77 d6 cb bf e1 01 23 3e 81 20 e6 bf d7 6d 95 bf
       -1.5924824 0.15918685 -1.797867 -1.1674145
000170 6f 2b 27 be 26 0f 88 be 38 b3 f4 be 88 e3 85 3d
       -0.16325162 -0.26574057 -0.47792983 0.06537539
000180 86 f9 53 bf 45 66 db 3e c7 6a 08 bf 92 83 1b 3f
       -0.8280262 0.42851463 -0.5328793 0.60747635
000190 71 18 98 bf 18 ca 9d 3d cf 95 6c 3f 8d 5c 86 3e
       -1.1882459 0.07704562 0.9241609 0.26242486
0001a0 e5 74 e4 bd 55 a5 2d 3f 92 1c 9e 3e 1d 4d 0b 3f
       -0.11155108 0.678304 0.30881172 0.5441454
0001b0 3c 87 f1 bd b5 33 18 bf 15 2d 31 c0 3e 92 01 c0
       -0.11793372 -0.594539 -2.7683766 -2.024551
0001c0 3f 80 bc bd d6 ce 79 be c3 42 61 bf 97 cb 19 3e
       -0.092041485 -0.24395308 -0.87992495 0.1501907
0001d0 f0 3e 51 be 69 52 2b bf 38 fc 41 be ec a3 be 3e
       -0.20434165 -0.6692262 -0.1894387 0.37234437
0001e0 6b 78 8e 3f 66 12 54 3f 0d d0 ee 3e 95 33 74 3f
       1.1130499 0.82840574 0.46643105 0.9539121
0001f0 d9 8e d7 be 96 93 77 bf a6 a1 b2 3e 72 7d 4b bf
       -0.42101172 -0.96709573 0.34888953 -0.7948829
000200 07 d9 82 bd 78 d5 71 be 33 16 16 bd c8 2b 4b bd
       -0.06389051 -0.23616588 -0.036642265 -0.0496023
000210 b1 fe f2 bd 33 d2 23 be 24 97 2d bd be 47 fb bb
       -0.11864985 -0.15998153 -0.042380467 -0.0076684644
000220 86 62 ce bd 8a 8d 70 3b ff cd b5 bd 23 8d e5 bd
       -0.100773856 0.0036705458 -0.08877181 -0.1120856
000230 3b c4 d8 bd 9d 9a 31 be 89 dc 98 3c d1 52 d7 bc
       -0.10584303 -0.17344137 0.018659847 -0.026284607
000240 19 44 24 be 5e 75 8c 3d ae b9 b0 3c a7 0d 16 bc
       -0.16041602 0.068583235 0.021572914 -0.009158528
000250 9e a7 a1 bd 5a 4f 45 be 3a 1c 4b be 85 1a 62 bd
       -0.078932986 -0.19268551 -0.19834986 -0.055201072
000260 a7 69 ff bc d6 15 c8 3d b8 68 20 be cd 09 a3 bc
       -0.031178309 0.0976979 -0.15664947 -0.019902134
000270 79 e5 2a be 7f 2c c9 bd 07 a2 81 bc f9 1a e2 bd
       -0.166891 -0.0982294 -0.015824331 -0.11040301
000280 97 aa 22 bd 49 40 20 be d8 b0 10 be c1 5b 94 3c
       -0.03971347 -0.15649523 -0.1412996 0.018110158
000290 10 40 60 be fd c3 ca bd 59 4b 65 be b9 a3 47 3c
       -0.21899438 -0.09900663 -0.22392024 0.012185031
0002a0 97 e6 43 be 0f 2a ad bd 94 cc ef bd 5a 45 a3 bd
       -0.19130932 -0.08455288 -0.11708942 -0.07972212
0002b0 52 24 59 bd 79 0c 13 be 8c bc 76 3d 7d 81 48 bd
       -0.053013153 -0.14360227 0.060238406 -0.048951615
0002c0 00 65 08 3a bd 63 1c 3d 73 0c ad 3c 6c f5 85 bd
       0.00052030385 0.038181055 0.0211241 -0.06540951
0002d0 2e 85 14 be 3d 73 1d be 57 68 1e bd 2a cc 1f be
       -0.14503929 -0.15375991 -0.038673725 -0.15605226
0002e0 c0 f7 08 be 06 4d 17 bd d7 ad 97 bd f9 ed 1a bd
       -0.13375759 -0.03693869 -0.07406204 -0.037824605
0002f0 a7 42 0d bc f8 ef 90 bd 99 8a 93 3c f9 f5 f4 bd
       -0.008621848 -0.070770204 0.018010424 -0.11960978
000300 95 98 ac be c1 3b a3 3f 0e eb ff be a1 d4 42 be
       -0.3371016 1.275261 -0.4998402 -0.19026424
000310 13 4b 12 3f b5 a8 16 bf dc 7e 24 bf da 3a 84 bd
       0.57145804 -0.58851177 -0.6425607 -0.064565375
000320 b0 8e 22 bf 98 6d 4a bf 0a 14 19 3e 3b 04 39 3f
       -0.63498974 -0.79073477 0.1494905 0.7227208
000330 aa f8 ea 3e 19 b4 bd 3f 87 ff c6 bf 0d 4d d7 be
       0.4589284 1.4820586 -1.5546731 -0.42050973
000340 9c 4d bb bf 99 db 16 40 9e ef 10 3e fd 65 8f 3e
       -1.463306 2.3571532 0.14153907 0.28007498
000350 20 22 5c 3e 9a c7 62 bf e7 b6 72 3f 4e d1 d1 be
       0.21497393 -0.8858582 0.94810337 -0.4098
000360 8b 75 ff be 78 1d 0c bf 85 ca 09 be 20 20 db be
       -0.49894366 -0.54732466 -0.13456161 -0.42797947
000370 b7 a8 a5 be 5e 5f b0 c0 8b ef 65 bc 05 d3 10 bf
       -0.32355282 -5.5116415 -0.014034162 -0.5657199
000380 7c 79 ed be 0a 8b 4c 3f 22 54 96 3e 30 e2 aa 3e
       -0.46381748 0.79899657 0.29361063 0.33375692
000390 30 fa c0 be 50 4d 3d bf e4 71 29 bd 6a 53 8a be
       -0.37690878 -0.73946095 -0.04136838 -0.27016765
0003a0 5f bb fa be 2f 7f 21 bd 95 0d a5 3f 3f 04 a9 3f
       -0.48971078 -0.039427932 1.289477 1.3204421
0003b0 6c dd c9 3e 45 7e 8d bf 64 a8 ec bf 78 cf 85 3d
       0.39426744 -1.1054159 -1.8488889 0.06533712
0003c0 af 66 ef 3d 87 1a c4 3e 92 74 ad be 38 8d a4 be
       0.11689507 0.3830149 -0.33878 -0.3213899
0003d0 3e bb 9d bf ee dd f2 3e 96 0b c9 bc 40 a1 32 3f
       -1.2322767 0.47434944 -0.024541657 0.697773
0003e0 fc d3 63 3f 2e bc 15 3f a4 b1 58 c0 fe 48 80 40
       0.8899534 0.58490264 -3.3858423 4.00891
0003f0 cf 23 73 be aa 3c 7d 3f 80 53 0f bf 30 23 53 3f
       -0.23744129 0.9892069 -0.55986786 0.82475567

fc3.bias f4 [64]
000000 3f 29 80 bf 6c 7d c0 bd 6c 9b 0e be 80 4c a4 bf
       -1.0012587 -0.09398922 -0.13926476 -1.2835846
000010 a8 4a 33 c0 4d 80 fe 3e c4 41 bf bd cf d5 e6 bf
       -2.8014317 0.4970726 -0.09338716 -1.8033999
000020 9f 17 0a 40 36 49 db bd 67 33 44 3f d3 44 17 3e
       2.1576917 -0.10707323 0.76640934 0.14772348
000030 6f e0 50 c0 7f 31 3c bf 4c 73 46 c0 0d 9a fa bf
       -3.2636983 -0.73513025 -3.1007872 -1.9578263
000040 f9 f3 80 bd 33 3e 2e 3f b0 3c 94 bf 8c 2d 9f 3e
       -0.06296534 0.6806366 -1.158102 0.31089437
000050 21 97 c6 bf bd b0 09 be d1 0a ea 3e 6a c2 9d 3f
       -1.5514871 -0.13446327 0.45711377 1.2324955
000060 21 59 40 be 1a c9 07 40 7d 21 44 c0 8b c0 00 bf
       -0.18784 2.1216493 -3.064544 -0.502938
000070 0a c2 d5 be 08 58 3b c0 ea f0 b8 bf f3 86 07 c0
       -0.41749603 -2.927248 -1.4448521 -2.1176116
000080 f1 c1 85 bd 15 67 47 c0 87 42 2a 40 ab 4d b1 3f
       -0.06531132 -3.1156666 2.6603105 1.3851827
000090 a0 96 61 3f 61 76 b9 be 1d d3 2e c0 25 eb 53 3f
       0.8812046 -0.36223128 -2.7316353 0.8278068
0000a0 c7 8f 9d be b0 98 88 be 28 3f 0d bd 9f c4 90 c0
       -0.30773756 -0.2667899 -0.03448406 -4.5240016
0000b0 fa 5c ed 3c ff aa a5 bf 92 0f 9d c0 f0 81 bd be
       0.028974999 -1.2942809 -4.9081507 -0.37013197
0000c0 c3 8a 08 40 6b ea 2f 40 49 56 f6 3e f1 28 b9 be
       2.1334693 2.7486827 0.48112705 -0.36164048
0000d0 85 55 da bf 9f 13 a7 be 11 ed 7b be df 9f 0f bf
       -1.7057348 -0.32632157 -0.24602152 -0.5610332
0000e0 d4 d6 26 bf b8 5d 3f bf 2d b9 b5 3e 7a fe 4f be
       -0.6517155 -0.7475238 0.3549284 -0.20311919
0000f0 51 63 ea bf 58 4c 7c c0 09 3b 42 c0 fd d0 2b c0
       -1.8311559 -3.9421597 -3.0348532 -2.6846306

action_out.weight f4 [5, 64]
000000 78 02 48 3f ae bd d7 3f 7b 17 db bc cc 28 8f bf
       0.78128767 1.6854761 -0.026744595 -1.1184325
000010 14 0f ac be ef 40 2b c0 16 d9 23 3d 9a 26 ae 3d
       -0.33605254 -2.6758382 0.04000195 0.085034564
000020 0c 11 9f 3d f7 90 72 3f 13 d8 36 c0 2e 7c 19 be
       0.07766923 0.9475245 -2.8569381 -0.14988777
000030 b9 60 d2 3e ef 66 f5 3e e8 a8 9a bf 45 53 fb 3f
       0.4108942 0.47930095 -1.2082796 1.9634787
000040 86 3d 29 3f 3c dc 46 40 f5 e6 9a bf ca 7a 44 bf
       0.661095 3.107192 -1.2101732 -0.7674986
000050 4d 02 8f bf a8 b1 17 be 4f 2f 20 40 b0 34 13 3e
       -1.1172577 -0.14813864 2.5028875 0.14375567
000060 b5 0e 34 bd 01 4d a4 3e 6d f2 ea 3d 02 61 89 3d
       -0.04395934 0.3209 0.1147202 0.06707956
000070 21 c6 3d be 2b 2f 7c 3d f8 3b 2d 3f 3d 6a 98 bf
       -0.18532611 0.06156842 0.6766963 -1.1907421
000080 f6 64 dd 3d f4 d3 2f be d5 39 cc be 35 00 13 3e
       0.108102724 -0.17170697 -0.39887872 0.14355548
000090 7b db c3 bf a4 3c 8c 3e 1c 68 80 3d cd 5d 42 bf
       -1.5301355 0.27390015 0.06269857 -0.7592438
0000a0 9e 84 55 40 e5 41 ad be 74 36 b3 3d 48 f9 2b 3f
       3.3362193 -0.33839336 0.087506205 0.6717725
0000b0 e8 a2 5b 3f b6 9b 0b 3f c5 71 d4 be a9 fe bf bf
       0.8579545 0.5453447 -0.4149305 -1.4999591
0000c0 36 32 e7 be a2 17 e4 3d 7d 67 71 40 3c 95 39 be
       -0.45155495 0.1113732 3.7719414 -0.18123335
0000d0 1b 51 d3 be 2d 81 4c 3f 24 ce 6a bf 97 ae 1e 3f
       -0.41272816 0.79884607 -0.91720796 0.6198515
0000e0 64 9d bf 3f 80 e5 13 bd 86 8a 56 be 8f 7f 97 bb
       1.4969907 -0.03610754 -0.2095128 -0.0046233605
0000f0 86 19 87 3f a5 ba 05 c0 63 97 07 bf 76 a4 86 be
       1.0554664 -2.0895169 -0.5296537 -0.2629735
000100 a7 d1 5e 3e 91 cc 10 bd bd 16 ca 3d 63 48 78 3d
       0.21759664 -0.03535134 0.09867618 0.06061591
000110 80 76 71 be 09 e8 ca bb 5c 00 a3 bc 73 21 1e 3e
       -0.2358036 -0.0061922115 -0.019897632 0.15442447
000120 a1 ef 4a 3e da ab 37 3d 37 1e 88 3d 69 c2 7a 3e
       0.19817974 0.044841625 0.06646388 0.24488224
000130 da a1 b7 bc 6c 75 84 3d 1d 1c 01 3d 74 8c 2f bd
       -0.022416044 0.06467709 0.03152095 -0.042858556
000140 84 e6 ae 3e 5d b8 70 bc 16 e4 a4 bd 6e 34 29 3e
       0.34160244 -0.014692393 -0.080513164 0.16523907
000150 03 fc ea bd d8 f1 8e 3d 1f d6 1b be 1d ef b3 3e
       -0.11473849 0.06979722 -0.152184 0.35143366
000160 63 a6 78 ba 5f cc 0e 3e 4e f3 ee 3c 46 85 83 be
       -0.0009485243 0.13945149 0.029168751 -0.25687617
000170 f7 c3 a5 bc 79 42 07 be c7 4d 81 bc 5e 1e 36 bd
       -0.020235045 -0.13208951 -0.015784157 -0.044462554
000180 f4 3a d0 bd 86 4a 31 bd aa 8c 72 3e 57 48 af bc
       -0.101674944 -0.04328396 0.23686472 -0.021396799
000190 f6 a2 33 bd f5 ac 0b 3f 38 cd 66 be e5 aa 64 3c
       -0.043856584 0.54560786 -0.22539222 0.01395676
0001a0 ff 3b c8 3c e8 5a 98 3c 61 4f 89 3e d7 91 94 3c
       0.02444267 0.018598035 0.26818374 0.018135948
0001b0 94 c2 0c 3e 53 2f 6c be ee e4 f5 bd f6 70 bb bd
       0.137461 -0.23064928 -0.120065555 -0.09152405
0001c0 4c ff 82 3e d2 84 59 bc 7d 32 11 bd 5e 34 c4 bd
       0.255854 -0.013276296 -0.03544854 -0.09580301
0001d0 44 4b 93 3d 12 17 74 3d 70 a9 fa bc b1 87 29 be
       0.0719209 0.059592314 -0.030598372 -0.16555668
0001e0 4e 3f d8 bd 4b 37 0b 3e c1 f7 29 3c 4c 6e 63 bd
       -0.105589494 0.13595311 0.010374011 -0.05552511
0001f0 02 38 aa bd 05 78 b7 3e c0 14 e5 bd 1c 02 05 be
       -0.08311464 0.35833755 -0.111855984 -0.12989086
000200 bf 6f 26 bd dc 44 b6 3d ca 2b 5c 3d 39 0c 2d bc
       -0.040633913 0.08899853 0.053752698 -0.010561996
000210 e5 58 02 3f b4 38 95 3c a8 0d 0c 3c ae 31 ec 3e
       0.5091689 0.018215515 0.008548178 0.46131653
000220 5a ba 96 be d9 7f f5 3c 29 bb dd bb c2 26 35 be
       -0.2943905 0.02996819 -0.006766696 -0.17690566
000230 df ca 2c 3d 66 cc c3 3d af 16 a9 bd 4e eb 76 3d
       0.04218566 0.0956047 -0.0825628 0.060282998
000240 2a 9a 9e be 03 9d f6 bd 0b 46 99 3d cf 1d c9 be
       -0.30976993 -0.12041666 0.07484063 -0.39280555
000250 1d 7c aa 3d b6 9f e7 3b b2 19 65 3e 61 dc d8 be
       0.08324454 0.0070685996 0.22373083 -0.42355636
000260 d9 94 6c bb 3f e6 b5 bd d4 24 35 3d c3 d8 e3 be
       -0.0036099462 -0.088818066 0.044224575 -0.44501314
000270 12 20 b6 3d 9b 33 19 3e 8c 6e 80 bc 60 1f 5f 3d
       0.08892836 0.14961092 -0.015677713 0.05447328
000280 2d ec 6c bd 31 13 a0 be d1 d5 d2 be d2 48 a6 bd
       -0.057842422 -0.31264642 -0.41178754 -0.08119358
000290 38 19 23 be ec 00 4a bf 2e ae 33 3e a7 62 27 be
       -0.15927589 -0.78907657 0.17546913 -0.16346227
0002a0 a9 4c 29 3d 8d 53 15 be 54 bd bd be 6b 6b ee bd
       0.041332874 -0.14582653 -0.37058508 -0.11641582
0002b0 32 a3 58 be fe d8 93 3e 48 01 fe 3d 04 a9 b3 be
       -0.21156004 0.2887649 0.12402588 -0.35089886
0002c0 84 6e a1 be 79 8c c4 3d e3 3f 46 bd be 22 21 3e
       -0.3152963 0.095971055 -0.04840077 0.1573591
0002d0 67 a9 5c bd f0 35 bd 3c e7 49 d4 3d c7 7f 53 3e
       -0.053872492 0.023097008 0.10365658 0.20654212
0002e0 2d 6b 9c 3d 70 94 29 be e3 1a 05 3e 02 e5 83 bc
       0.0763763 -0.1656053 0.12998538 -0.01610041
0002f0 d6 43 0b bd 6e 66 fe be 83 50 8f 3e ce ab 27 3d
       -0.03400024 -0.49687523 0.27991113 0.04093533
000300 71 84 1f bd 9d 38 c8 3d 63 fe 4c bc 31 9e 3d be
       -0.038944665 0.09776423 -0.012511822 -0.18517376
000310 66 9a 2d 3e 61 d3 7e bd 68 5e b0 bc 70 f5 ed 3c
       0.1695343 -0.062213305 -0.021529391 0.029047698
000320 6f d2 10 3e 33 16 89 bf 0c 2a 4a 3c 36 a8 fa bc
       0.14142774 -1.07099 0.012339126 -0.030597787
000330 48 c2 fd 3d da a7 8b 3e 6d 33 e5 3d 41 fc ea bc
       0.12390572 0.27276498 0.11191449 -0.028684737
000340 73 52 fa bd 49 66 16 3d eb 7c 4c bc 59 45 fd 3d
       -0.12222757 0.03671864 -0.012480955 0.12366743
000350 b2 b0 67 3c 91 c4 11 3c db f7 2e bd 12 c6 60 3d
       0.014141249 0.008896963 -0.042716842 0.054876395
000360 32 6e 74 3c 39 4f 17 3e ab 13 e0 bd 00 4d 47 bd
       0.014918851 0.14776315 -0.10941251 -0.048657417
000370 6f 17 6f 3e eb d2 ba bc b9 b5 54 be 05 f9 03 be
       0.23348783 -0.022805652 -0.20772447 -0.12887962
000380 9e 35 3c bb a0 4e 99 3d 17 b9 6e bd 49 36 a3 bd
       -0.0028718482 0.074857 -0.058281984 -0.079693384
000390 09 f8 ae 3c 0a b5 80 3d 19 aa 96 bc cb 49 16 bd
       0.021358507 0.062845305 -0.018391656 -0.03669147
0003a0 f1 11 29 3d e8 ef b5 bd ca 8a ec bc 08 14 a6 bd
       0.041276876 -0.08883649 -0.028874774 -0.081092894
0003b0 3b e4 1a 3e 1b bf 0b be 43 8e 79 bd b9 c6 b0 bd
       0.15126126 -0.1364712 -0.060926687 -0.08631653
0003c0 63 8e 32 bd 33 24 2f be a4 6c d9 bc b7 dc c6 3d
       -0.04359282 -0.17103653 -0.026541062 0.09710067
0003d0 48 03 88 3d 26 0b d4 3e 53 e8 84 3f 22 b3 53 3d
       0.06641251 0.41414756 1.03834 0.051684506
0003e0 cc bd 4d be 9b 9a e9 3d 21 fb 8b be 9e d8 45 3d
       -0.20091933 0.11406442 -0.27340034 0.048302285
0003f0 a1 a8 0c be fc 9f e1 bd 58 2d aa bd eb 56 2b bd
       -0.13736202 -0.11016843 -0.0830943 -0.04183094

action_out.bias f4 [5]
000000 5e 60 8f 3f 97 2b c6 be b1 84 5c 3f 47 a0 c8 3f
       1.1201284 -0.3870513 0.8613997 1.5673913
000010 f8 e2 0c bf
       -0.55033827
