Exp3_MPE/parameters_save/simple_tag/critic_params.pkl (torch_old, 40011 bytes, 7 tensors)

fc1.weight f4 [64, 19]
0	0xbec20fff	-0.3790283
1	0xbf1cb2f0	-0.61210537
2	0xbfabc0ad	-1.3418175
3	0xbf873039	-1.0561591
4	0x3e8a55ba	0.2701853
5	0x3f77b0da	0.9675423
6	0x3f4051bf	0.75124735
7	0xbf0fdaca	-0.5619322
8	0xbfa0a0bd	-1.2549053
9	0x3e9bf877	0.30463
10	0x3ebf5e81	0.37376788
11	0x3e007cc2	0.12547591
12	0x3f7846d2	0.96983063
13	0x3ead6897	0.33868858
14	0xbc13f4f8	-0.009030573
15	0xbdf432c8	-0.11923748
16	0x3dbd8324	0.09253529
17	0xbea53526	-0.32267112
18	0x3e93a488	0.28836465
19	0x3f26777e	0.6502608
20	0xbf4ce316	-0.80034006
21	0x3c92e7ab	0.017932734
22	0x3f2e7692	0.68149674
23	0x3efddda4	0.4958316
24	0x3fe128af	1.7590541
25	0x3fc2d2c0	1.5220566
26	0x3f710327	0.94145435
27	0x3d1cf086	0.03831532
28	0xbf599fef	-0.85009664
29	0xbf4c0fd5	-0.7971166
30	0xbf02e709	-0.5113378
31	0xbf0daace	-0.5533875
32	0x3e35a234	0.17737657
33	0x3d3bcb1d	0.045848
34	0xbd6a5e3d	-0.05721878
35	0xbefb9574	-0.4913746
36	0xbe603247	-0.2189418
37	0x3e6e6e81	0.23284341
38	0xbeb927f7	-0.36163303
39	0xbd022724	-0.03177561
40	0xc06c9cf4	-3.6970797
41	0x3f43749d	0.7634981
42	0xbebfdae4	-0.37471688
43	0xbd93e4f5	-0.072214045
44	0x3e4781e6	0.19483146
45	0x3e4ec3d9	0.20191897
46	0x3e16fff4	0.14746076
47	0x3d8d4ba4	0.06899193
48	0x3da781f6	0.08179085
49	0x3d5fcdb8	0.054639548
50	0x3f91118b	1.1333479
51	0xbe4c546a	-0.19954076
52	0xbd885071	-0.06655968
53	0xbebc83a3	-0.3681918
54	0x3ebbee92	0.36705452
55	0xbdb50973	-0.08839693
56	0x3dab55d0	0.08365977
57	0x3e5fd4b1	0.21858479
58	0xbdc657b9	-0.096847005
59	0xbe72c5cd	-0.23708268
60	0x3d9e8d59	0.07741804
61	0xbc120897	-0.008913181
62	0xbcb84631	-0.022494407
63	0xbc9d7ff9	-0.019226061
64	0x3bc8402d	0.006111166
65	0x3d83eb8b	0.06441411
66	0x3cdf9662	0.027293388
67	0xc0b44898	-5.6338615
68	0x4048ce78	3.1376019
69	0xbba8f185	-0.0051557445
70	0xbe19211c	-0.14954036
71	0xbc6b3bf3	-0.014357555
72	0x3e679015	0.22613557
73	0xbe4d683f	-0.20059298
74	0xbddd211f	-0.10797333
75	0x3e1ac910	0.15115762
76	0x3dac9007	0.084259085
77	0xbdab024d	-0.08350048
78	0xbf90476f	-1.12718
79	0xbced1d17	-0.028944535
80	0xbf759ed4	-0.9594548
81	0x3f89f3f9	1.077758
82	0x3d05bc60	0.03265035
83	0xbfbb83e7	-1.4649628
84	0xbefa853b	-0.48929772
85	0xbfc1f7bb	-1.5153726
86	0x3e46eee8	0.19427073
87	0x3dc0ee90	0.09420502
88	0xbfa576d4	-1.2926888
89	0x3f41cb80	0.7570114
90	0xbbcf6169	-0.006328751
91	0x3df3fe7e	0.11913775
92	0xbe06e466	-0.13173065
93	0x3e2f082d	0.17092963
94	0xbde79d0b	-0.113092504
95	0xbebeee0f	-0.37291
96	0xbeff45b9	-0.49857882
97	0x3ffc07b4	1.9689851
98	0xbfe3ad8b	-1.7787336
99	0x3dd7f7f2	0.10545339
100	0xbf065e55	-0.5248769
101	0x3fe2c03a	1.7714913
102	0x3d364fbe	0.04450964
103	0xbf604624	-0.87607026
104	0x3e03be41	0.12865545
105	0xbf02cde3	-0.5109541
106	0xbf2ea65c	-0.68222594
107	0x3e2b8dec	0.16753358
108	0xbf662b67	-0.89909977
109	0xbd8f38ab	-0.069932304
110	0xbd9d998c	-0.07695302
111	0x3dc494fd	0.0959873
112	0xbe13dab4	-0.14438897
113	0x3e581c2e	0.211045
114	0x3d8a5c23	0.06755855
115	0xbf3a2482	-0.72711957
116	0xbf8a15e1	-1.0787927
117	0xbfbcd10b	-1.4751295
118	0xbf28e2ef	-0.65971273
119	0xbe4d657d	-0.20058246
120	0x3dd2fff7	0.10302728
121	0x3f4f7b04	0.8104708
122	0x3ee9fc59	0.45700338
123	0x3d415ca1	0.04720748
124	0x3e3f6ae2	0.18693116
125	0xbe12b1f4	-0.14325696
126	0xbdddce9c	-0.10830423
127	0x3f8e920b	1.1138319
128	0x3c2a9b57	0.0104130125
129	0x3e85a097	0.26099083
130	0xbe65ac96	-0.22429118
131	0xbeb9a0e6	-0.36255568
132	0x3ed0fc46	0.4081747
133	0xbe849e02	-0.259018
134	0x3e0766b2	0.13222769
135	0x3dc360bd	0.09539936
136	0x3fcb4670	1.5880871
137	0xbd9de0d0	-0.07708895
138	0x3f03ff0e	0.5156106
139	0xbf480ec6	-0.7814754
140	0xb9cc7a7c	-0.0003900117
141	0xbdbaec59	-0.09127111
142	0x3f0a080e	0.5391854
143	0x3fbad324	1.4595685
144	0xbf08e291	-0.5347071
145	0xbfcbe7f1	-1.5930158
146	0x3f85d6fa	1.0456231
147	0x3d272911	0.04081065
148	0xbdbee9ab	-0.093219124
149	0xbd111798	-0.03542289
150	0xbc6da765	-0.014505242
151	0x3dc18bb6	0.09450476
152	0x3da8687e	0.08223055
153	0xbe23a2d9	-0.1598009
154	0x3dda487b	0.10658356
155	0x3e4dd19b	0.2009949
156	0x3c9655be	0.018351432
157	0x3e11fb6b	0.14256065
158	0xbc008a64	-0.007845495
159	0x3da396e2	0.07987763
160	0xbe16e2bb	-0.14734928
161	0xc030a50b	-2.7600734
162	0x3bb00417	0.0053715813
163	0x3d0f56a9	0.034994755
164	0x3f874d64	1.0570493
165	0x40396229	2.8966162
166	0xbdd3ea4e	-0.103474244
167	0x3c2ac966	0.010423994
168	0xbd9fd53c	-0.07804343
169	0xbe7c7f66	-0.24657974
170	0x3d8e2e6b	0.06942447
171	0x3c018200	0.00790453
172	0x3b6bf318	0.003600305
173	0x3c3d5783	0.011556509
174	0xbfc73faa	-1.5566304
175	0x3ed7379c	0.42034614
176	0xbf42bc52	-0.76068604
177	0x3e58b17f	0.2116146
178	0xbe5fe20f	-0.21863578
179	0xbed78463	-0.4209319
180	0x3f211fa6	0.62938917
181	0xbe398fb9	-0.18121232
182	0xbfb93db2	-1.4471953
183	0xbf59460a	-0.84872496
184	0xbf67dfee	-0.90576065
185	0xbd816258	-0.06317586
186	0x3dc95109	0.09829909
187	0x3daae388	0.083441794
188	0x3e196428	0.14979613
189	0xbe306394	-0.17225486
190	0xbe759596	-0.23982844
191	0xbb858caf	-0.0040756087
192	0x3fd11190	1.6333485
193	0xbf8163da	-1.0108597
194	0x3eea6f7b	0.45788178
195	0x3f697db3	0.91207427
196	0xbf0f170f	-0.5589456
197	0xbe679b22	-0.22617772
198	0x3f6bb143	0.92067355
199	0x3e590743	0.21194176
200	0x3f157fdd	0.5839823
201	0xbf5f2374	-0.8716347
202	0xbefa6aa3	-0.48909482
203	0x3fa05b10	1.252779
204	0xbd737efd	-0.059447277
205	0xbe548049	-0.20752062
206	0x3ea2ff0f	0.3183522
207	0xbd6f2573	-0.058385324
208	0xbbd7fc85	-0.006591382
209	0xbe9ab97d	-0.3021964
210	0x3e8c7f8c	0.2744106
211	0xbfab75ee	-1.3395364
212	0x3fd6f333	1.6792969
213	0x3f3115d0	0.6917391
214	0xbf2faefb	-0.68626374
215	0xbf15fa7c	-0.58585334
216	0x3fe754cf	1.8072757
217	0x3f673ff4	0.9033196
218	0x3e3b58c2	0.18295577
219	0xbefcd89e	-0.49384016
220	0x3f5face9	0.87373215
221	0xbeb2c676	-0.3491704
222	0x40049687	2.0716875
223	0x3cc9a0f4	0.024612881
224	0xbe75509e	-0.23956534
225	0x3e89d266	0.26918334
226	0x3dc19ac5	0.09453348
227	0xbe3160af	-0.17322038
228	0x3f174ffc	0.5910642
229	0xbe2502b4	-0.16114312
230	0x3eb60165	0.3554794
231	0xbf6bb7c8	-0.920773
232	0xbe818f3b	-0.2530459
233	0x3ea6b1e6	0.325576
234	0xbf17079e	-0.58996
235	0x3f407a91	0.7518702
236	0xbfc86e4b	-1.5658659
237	0xbeb3bbd6	-0.35104245
238	0xbeafbdf2	-0.34324604
239	0x3ef027f3	0.4690548
240	0x3fc9131f	1.570896
241	0xbf423143	-0.7585642
242	0x3de33cec	0.11095604
243	0x3cf24ee6	0.029578637
244	0xbe54be27	-0.20775662
245	0xbdd0e65a	-0.10200186
246	0xbc826f51	-0.01592222
247	0x3e0f4fa4	0.13995224
248	0xbe8171cb	-0.2528213
249	0xbd0088f3	-0.031380605
250	0xc0506e4a	-3.2567315
251	0x3ed5f9b0	0.4179206
252	0x3f7486d0	0.9551821
253	0xbf00f801	-0.50378424
254	0xbf12ee5d	-0.57394964
255	0xbd60eae7	-0.05491152

fc1.bias f4 [64]
0	0xc0225bc6	-2.5368514
1	0xbfb176fe	-1.3864439
2	0xc02cc4d2	-2.699513
3	0xbe171abd	-0.14756294
4	0xbfa4414d	-1.2832428
5	0xbf01f122	-0.50758564
6	0xbfd2ef97	-1.6479367
7	0xbf8438b6	-1.0329807
8	0xbd5f17ad	-0.05446594
9	0xbe536de2	-0.20647386
10	0xc0833439	-4.100125
11	0xbe27605b	-0.1634535
12	0xbf13fb56	-0.57805383
13	0xbfb0cd7a	-1.3812706
14	0x3fbf6304	1.4952092
15	0xbfb40555	-1.4064127
16	0xbef476ca	-0.4774688
17	0xbe012d18	-0.12614858
18	0xbda7139e	-0.081580386
19	0xbeaa52c4	-0.3326627
20	0xbf8a5cab	-1.080953
21	0x3ea21bb1	0.31661752
22	0xbe623129	-0.22089066
23	0x400c6ecb	2.1942623
24	0xbf9158bb	-1.1355203
25	0xc02bf8fd	-2.687072
26	0x3e89d31c	0.26918876
27	0xbd7aa7cd	-0.061195184
28	0x3cc475d4	0.023981966
29	0xbf48a4b5	-0.78376323
30	0xc041ab76	-3.0260901
31	0xc01e9ab6	-2.4781928
32	0x3efa452c	0.488809
33	0xbd80d8e3	-0.06291368
34	0xc0674c71	-3.6140406
35	0xbdc48afb	-0.09596821
36	0xc00911d5	-2.1417134
37	0x3f454c68	0.7706971
38	0xbf69a33f	-0.9126472
39	0xbf29ac91	-0.6627894
40	0x401a1d7c	2.4080496
41	0xc048a89a	-3.1352906
42	0x3ff83683	1.9391636
43	0x3f69216c	0.9106662
44	0xbfe051bb	-1.7524942
45	0x3fe2a5fc	1.7706904
46	0xc01e9719	-2.4779723
47	0xbf2c5ee3	-0.67332286
48	0xbf810835	-1.008063
49	0xbfc5ac09	-1.5443126
50	0x3ebbdd71	0.36692384
51	0xbe672ddb	-0.22576086
52	0x3f3345ab	0.7002818
53	0xbf189769	-0.59606034
54	0x3ff89fc3	1.9423755
55	0xbfd0f63c	-1.6325145
56	0x4002e530	2.0452385
57	0xbffebab9	-1.9900733
58	0x3f892731	1.0715085
59	0xc037a51e	-2.869453
60	0xbffd543c	-1.9791331
61	0xc0ab38b9	-5.350674
62	0xbe6fcb90	-0.23417497
63	0xbfe9a727	-1.8254136

fc2.weight f4 [64, 64]
0	0xbf960c76	-1.1722553
1	0x3f0dbe87	0.55368847
2	0x3edc869b	0.43071446
3	0xbf0caa3f	-0.54947275
4	0x3ee8a6ab	0.45439658
5	0x3ed64332	0.4184814
6	0xbf1a3081	-0.6023026
7	0xbecf7475	-0.40518537
8	0x3d90f73e	0.07078408
9	0xbe7c44ad	-0.24635573
10	0x3f970597	1.1798581
11	0x3eb60a13	0.3555456
12	0x3e4dcae8	0.20096934
13	0xbfe1887f	-1.761978
14	0xbf75cb32	-0.96013176
15	0xc0306b42	-2.7565465
16	0xbe1cd24a	-0.15314594
17	0xbf225891	-0.6341639
18	0xbf2cc71e	-0.6749133
19	0xbfcff117	-1.624545
20	0x3ff215e1	1.8912927
21	0xbe580cd6	-0.21098647
22	0x40204f43	2.5048378
23	0xbf2495c9	-0.64291054
24	0x3e491757	0.1963781
25	0xbfe567e9	-1.7922336
26	0xbf27dcab	-0.6557109
27	0xbe476261	-0.19471122
28	0xbea0815b	-0.3134869
29	0xbf2cc621	-0.6748982
30	0xbf55f7c5	-0.8358119
31	0xc02e8af3	-2.7272308
32	0x3f3f19b8	0.7464862
33	0xbead7145	-0.3387548
34	0x3fb0d03e	1.381355
35	0xbe27009d	-0.16308828
36	0x3f709942	0.9398385
37	0xbec9c2b8	-0.3940637
38	0xbe201d5d	-0.15636201
39	0x3d90d748	0.07072312
40	0xbe3960da	-0.18103352
41	0xbf2a167e	-0.6644057
42	0x3ea74446	0.32669276
43	0x3f597ca3	0.84955806
44	0xbf6bc338	-0.92094755
45	0x3e978d57	0.2960002
46	0xbf17f860	-0.59363365
47	0xbf460cfc	-0.7736356
48	0xbf16801c	-0.5878923
49	0xbede98bd	-0.43475905
50	0xbf3a3050	-0.7272997
51	0x3e89f51c	0.26944816
52	0xbf885ef8	-1.0653982
53	0xbea74a98	-0.32674098
54	0xbdf60e25	-0.120144166
55	0xbe25f622	-0.16207173
56	0x3fb141e6	1.3848236
57	0x3f5433d1	0.82891566
58	0x3e92c352	0.28664643
59	0xbdd4bd3a	-0.103876546
60	0x3fd8046b	1.6876348
61	0x3f8e99d8	1.1140699
62	0x3f095176	0.53639925
63	0x3feb940b	1.8404554
64	0x3f44830f	0.7676248
65	0xbe2d1e0d	-0.16905995
66	0x3fc97561	1.5738946
67	0xbf1b3aa6	-0.60636365
68	0x3f2940a1	0.6611424
69	0xbff1bea0	-1.8886299
70	0xbeba95e7	-0.3644249
71	0xbf228eb3	-0.6349899
72	0x3f26ffef	0.65234274
73	0x3e64c02d	0.22338934
74	0x3e95d392	0.29262978
75	0x3f2db5cc	0.67855525
76	0x3e11fff1	0.1425779
77	0x3f704456	0.9385427
78	0xbdf6468a	-0.12025173
79	0x3c8862db	0.0166487
80	0xbc199ffa	-0.00937652
81	0xc0930e86	-4.595523
82	0x3f9e7ed2	1.2382452
83	0xbf8ca361	-1.0987359
84	0xbdced824	-0.10099819
85	0xbfc46279	-1.5342551
86	0x40088195	2.132909
87	0xbe13c6fe	-0.14431378
88	0x3ec88c03	0.3916932
89	0x3f590645	0.8477519
90	0x3dc0b34a	0.09409197
91	0x3e9b9c6c	0.30392778
92	0x3e216a8e	0.15763304
93	0xbf6674ff	-0.9002227
94	0x40083b7e	2.128631
95	0x3f64140e	0.890931
96	0xbfeb52f0	-1.8384686
97	0xbe8f6155	-0.28003946
98	0x401951db	2.395621
99	0x3cb81df0	0.022475213
100	0xbf4c9b07	-0.7992405
101	0x3dd08684	0.10181907
102	0xbf9201ba	-1.1406777
103	0xc0893828	-4.288105
104	0xbfaea432	-1.3643858
105	0x40510837	3.2661264
106	0xbf9b0998	-1.2112303
107	0xbf6e49b7	-0.9308123
108	0x401a06a5	2.4066556
109	0xbe8bb1e0	-0.27284145
110	0x3f6ef0cc	0.93336177
111	0x3fb7976c	1.4343085
112	0xc0351189	-2.8291953
113	0x3f0d5a4b	0.552159
114	0xbfbb1edb	-1.4618791
115	0x3ed3ab40	0.4134159
116	0x3c44439d	0.011979011
117	0xbf56f2fb	-0.8396451
118	0xbf69f478	-0.91388655
119	0x3f924723	1.1427959
120	0xbf18d143	-0.5969431
121	0xbfa1a5d1	-1.2628728
122	0xbf624367	-0.883841
123	0x40230911	2.5474284
124	0x40008663	2.0082023
125	0x40166350	2.3498116
126	0x3e61bb5b	0.22044127
127	0x3fb1a0f9	1.387725
128	0x3ecb00b0	0.39648962
129	0xbfb2025e	-1.3906972
130	0x3fa1da6f	1.2644786
131	0xbd64dcd5	-0.055874664
132	0x3ed23b43	0.41060838
133	0x3ed2da15	0.41182008
134	0xbf1e466f	-0.61826223
135	0x3f7e09da	0.9923378
136	0x3f55d19c	0.83522964
137	0xbf7152c1	-0.942669
138	0xbf78ba35	-0.9715913
139	0x3e950a6a	0.29109508
140	0xbfa58a87	-1.29329
141	0x3eb76b88	0.35824227
142	0x3f19e803	0.60119647
143	0xbe1ca7d5	-0.15298398
144	0xbf0e310d	-0.55543596
145	0x3c91d37a	0.017801035
146	0x3e848f3e	0.25890535
147	0xbf329311	-0.69755656
148	0x3e527188	0.20551121
149	0x3d71254e	0.058873467
150	0x3f250155	0.6445516
151	0x3eb633d9	0.35586432
152	0x3e24403d	0.1604013
153	0x3fa021a1	1.2510263
154	0xbde8b53a	-0.11362691
155	0xbfe16a80	-1.7610626
156	0x3ec4112d	0.38294354
157	0xbeef448d	-0.46731988
158	0x3f918d35	1.1371218
159	0xbf02a17e	-0.5102767
160	0xbf97581c	-1.1823764
161	0x3e046433	0.12928848
162	0xbf2d6863	-0.67737406
163	0xbf0ba97d	-0.54555494
164	0xbe09466c	-0.1340577
165	0x3da1c244	0.07898381
166	0xbecb4827	-0.39703485
167	0x3f8bb502	1.0914614
168	0x3e7f77db	0.24948065
169	0x405c5536	3.4427009
170	0x3f1f5585	0.6223987
171	0x3dba55b2	0.09098376
172	0x3f28b588	0.65901995
173	0x3f87e470	1.0616589
174	0xbe3e6f77	-0.18597208
175	0xbee7feba	-0.45311528
176	0x3f59e983	0.85121936
177	0xbfbc963a	-1.4733346
178	0xbf07193a	-0.5277287
179	0xbfe02629	-1.7511646
180	0x3e0511a9	0.12995018
181	0xbedff1d5	-0.4373919
182	0x3f64cde3	0.8937666
183	0x3ea6c25a	0.32570153
184	0xbf392db3	-0.72335356
185	0x3eee39fc	0.46528614
186	0x3e54f88b	0.20797937
187	0x3eabdcbb	0.3356684
188	0x3f46b3b0	0.7761793
189	0xbeb5b5dd	-0.35490313
190	0xbeca5e98	-0.39525294
191	0x3f80f32f	1.0074214
192	0xc06f7e53	-3.7420852
193	0x3e267692	0.16256168
194	0x3f621409	0.8831182
195	0xbe7e1c21	-0.24815418
196	0x3e061244	0.13092905
197	0x3ede4ea7	0.43419382
198	0xbe08785d	-0.13327165
199	0x3e58de67	0.2117859
200	0xbf03e0a3	-0.51514643
201	0x3e2c1616	0.168053
202	0x4032f21c	2.7960272
203	0xbf42fd50	-0.76167774
204	0xbea9370a	-0.33049804
205	0x3f29861d	0.66220266
206	0x3f434847	0.7628216
207	0x3f292cd0	0.66084003
208	0xc0071db3	-2.1111877
209	0x3f83f38b	1.0308698
210	0xbed2678c	-0.41094625
211	0x3e910a83	0.28328332
212	0xbe48590b	-0.19565217
213	0xbf708a56	-0.93961084
214	0xc04f1826	-3.235849
215	0x3f2110ea	0.62916434
216	0x3f35ff5a	0.7109276
217	0x3f2f6d90	0.68526554
218	0x3ea73d88	0.32664132
219	0x3ef97ca2	0.487279
220	0xbddf8c01	-0.109153755
221	0xbebce56a	-0.3689378
222	0xbdae9782	-0.085249916
223	0xc07ca53e	-3.9475856
224	0x3e2fd20c	0.1716997
225	0xbf406b75	-0.75163966
226	0x3f59beec	0.8505695
227	0xbfd7827f	-1.6836699
228	0xc04033e0	-3.0031662
229	0x3e218f1b	0.15777247
230	0xbf553522	-0.832842
231	0xbfc4d6de	-1.5378072
232	0xbe4c64c4	-0.19960314
233	0x3eb3e821	0.35138038
234	0xbf3abb4c	-0.7294204
235	0xbe7f0db2	-0.24907568
236	0xbf5d9d53	-0.8656818
237	0x3f017c1a	0.5057999
238	0xbe72e6c8	-0.23720849
239	0xc0415f50	-3.0214424
240	0x3f2f6265	0.68509513
241	0x3fa69059	1.3012801
242	0xbd8aa745	-0.067701854
243	0xbf30645e	-0.6890315
244	0xbf032084	-0.5122149
245	0x3f001d75	0.5004495
246	0xbf1e741c	-0.6189592
247	0xbd12482b	-0.035713356
248	0xbe36ad58	-0.17839563
249	0xbf4cfc2f	-0.800723
250	0x3f891c01	1.0711671
251	0xc0077cbf	-2.116989
252	0x3f92e48e	1.1475999
253	0x3e74d5e8	0.23909724
254	0x3f5a5e19	0.8529983
255	0x3e845b9e	0.25851148

fc2.bias f4 [64]
0	0x3e3b7b7c	0.18308824
1	0xc090b7d3	-4.5224395
2	0x3f60a830	0.87756634
3	0x3e4bc78f	0.19900344
4	0xbd751801	-0.059837345
5	0x3fb01760	1.3757133
6	0x3f8c79a4	1.0974622
7	0xc0dc5e01	-6.886475
8	0xbdae8bf2	-0.08522786
9	0xbee9180f	-0.45526168
10	0xbf8ca724	-1.0988507
11	0xbfd2ed13	-1.6478599
12	0x4023f8be	2.562057
13	0xbde3b67a	-0.11118789
14	0xbf73f1b3	-0.9529068
15	0xbf9bf2eb	-1.2183508
16	0x3f4f6548	0.8101392
17	0xbeb566e6	-0.35430068
18	0x3eb7d85d	0.3590726
19	0xc0107bc5	-2.2575543
20	0x3fe0f131	1.7573606
21	0xbeee41c9	-0.46534565
22	0xc0284cef	-2.6296957
23	0xbf0777bd	-0.5291708
24	0xbe53a521	-0.2066846
25	0xbcdc3b7e	-0.026883837
26	0x3e3f03c9	0.18653788
27	0x3e08d81f	0.13363694
28	0x3eb0273f	0.34404942
29	0x3d00528a	0.031328715
30	0x3fb04391	1.377062
31	0xbf215aa7	-0.6302895
32	0x3ec14f63	0.3775588
33	0xbe91d9a9	-0.28486374
34	0x3f026e48	0.50949526
35	0x3fb205e5	1.3908049
36	0x3db67bcd	0.08910332
37	0xbedb3d38	-0.42820144
38	0x3d3537e0	0.04424274
39	0xbe97dfa9	-0.29662827
40	0xbe39971d	-0.18124051
41	0xbef9c73e	-0.48784822
42	0x3f9bc1b2	1.2168486
43	0x3fe3a6e5	1.7785307
44	0xbfed20d7	-1.8525647
45	0x408a9b3d	4.33145
46	0x40409655	3.0091755
47	0xc0516c81	-3.2722476
48	0xbddbed61	-0.10738636
49	0xc0a44db0	-5.1344833
50	0x3f9846d3	1.1896614
51	0xbfba41c2	-1.4551318
52	0x4021fddd	2.5311196
53	0x3d605525	0.0547687
54	0xbeb54600	-0.35404968
55	0x40a9a8c4	5.3018513
56	0xbf9c8194	-1.2227044
57	0xbf33f17a	-0.7029034
58	0xbfae3027	-1.3608445
59	0x3f8201ff	1.0156859
60	0xbdc233f3	-0.09482565
61	0x3e912c8b	0.28354296
62	0x3f0dd37a	0.5540081
63	0x3fc9d939	1.5769416

fc3.weight f4 [64, 64]
0	0xbd2a2050	-0.04153472
1	0xbe05089d	-0.12991567
2	0xbb9e3628	-0.0048282333
3	0xbcdc7721	-0.026912274
4	0x3d2a0aa0	0.04151404
5	0xbdc60360	-0.096686125
6	0xbd165e4f	-0.036711033
7	0xbda0a65f	-0.07844233
8	0xbd713d09	-0.0588961
9	0xbdaa08e3	-0.08302476
10	0x3d3fc585	0.04681923
11	0x3ce4815b	0.027893713
12	0xbb7ae540	-0.0038283616
13	0xbd91c833	-0.07118263
14	0x3c3f835f	0.011689036
15	0xbd96cc91	-0.07363237
16	0xbe1afba5	-0.15135057
17	0xbdc362f5	-0.09540359
18	0xbceb7cdb	-0.02874606
19	0x3d45af4b	0.048262876
20	0xbcf41c46	-0.029798638
21	0xbe1a9718	-0.150967
22	0xbc60eafd	-0.013727901
23	0xbd8075b2	-0.062724486
24	0xbd05695d	-0.032571185
25	0xbda64670	-0.08118904
26	0x3cb70cff	0.022345064
27	0xbda5e622	-0.08100535
28	0xbdc196f2	-0.09452619
29	0xbca4f5eb	-0.020136794
30	0x3d7b24d3	0.061314415
31	0xbc89db50	-0.01682821
32	0x3d4f710f	0.05064493
33	0xbdaf5c81	-0.085625656
34	0xbdae8b70	-0.08522689
35	0xbdaac25e	-0.08337854
36	0xbd854cda	-0.06508799
37	0xbe1d20ad	-0.15344496
38	0x3d3b3cc8	0.045712262
39	0x3d42f7fe	0.047599785
40	0xbc5094d0	-0.012730792
41	0x3b4c47cb	0.0031170722
42	0xbd63b594	-0.05559309
43	0x3d51f64a	0.05126027
44	0xbe288e95	-0.1646064
45	0xbe0a55c4	-0.1350928
46	0xbdc3c42d	-0.09558902
47	0xbb8aaf55	-0.004232327
48	0xbda5de80	-0.08099079
49	0x3d87b5ea	0.06626494
50	0x3d13e2d6	0.036105
51	0xbdb78a0e	-0.08961879
52	0xbcffecf0	-0.03124091
53	0xbdd9035b	-0.10596343
54	0x3d1df2a2	0.03856147
55	0xbe190771	-0.14944245
56	0xbd99d00f	-0.07510387
57	0x3d8c1d11	0.068414815
58	0x3d30e142	0.043183573
59	0x3d2ccca9	0.042187367
60	0x3d56ab0d	0.05240922
61	0x3dd9c1b4	0.10632649
62	0x3d517d98	0.051145166
63	0xbe1e6363	-0.154676
64	0xbcc37c0c	-0.023862861
65	0xbeb5503e	-0.35412782
66	0xbf570817	-0.8399672
67	0xbd25a616	-0.040441595
68	0xbdb4dcae	-0.08831154
69	0xbc114acb	-0.00886793
70	0x3e8d7979	0.2763174
71	0x3d856c59	0.06514806
72	0x3c8482d9	0.016175674
73	0xbe1195ce	-0.14217302
74	0x3e0ca6aa	0.13735452
75	0x3d13aedf	0.036055442
76	0xbf39b612	-0.7254344
77	0xbd3bb3dd	-0.045825828
78	0xbf3362ea	-0.70072806
79	0xbef4f903	-0.4784623
80	0xbf751160	-0.9572964
81	0x3dddc1cb	0.10827979
82	0xbe810d7c	-0.252056
83	0xbedabc5d	-0.42721835
84	0xbf7f1517	-0.99641556
85	0xbe8bb165	-0.2728378
86	0xbe213608	-0.15743268
87	0xbe5c56bf	-0.21517466
88	0x3d21b937	0.039483275
89	0xbf1c763f	-0.6111793
90	0xbe4f3943	-0.20236687
91	0x3eae475f	0.34038827
92	0x3cd08a6b	0.025456628
93	0xbd95f325	-0.07321767
94	0xbf4ee1f8	-0.8081355
95	0xbed77ba0	-0.42086506
96	0xbf284872	-0.6573554
97	0x3e14b97b	0.1452388
98	0xbe095f5e	-0.13415286
99	0x3db34136	0.087526724
100	0xbdaf1008	-0.085479796
101	0x3e122033	0.14270096
102	0xbe5490f1	-0.20758416
103	0xbf376f80	-0.7165451
104	0x3d399ecc	0.045317456
105	0xbea51bdf	-0.32247826
106	0x3dbbfa14	0.09178558
107	0x3e070cda	0.13188496
108	0x3e384824	0.1799627
109	0xc0067fd8	-2.101553
110	0xbf6b1f48	-0.91844606
111	0xbd89c79a	-0.06727524
112	0xbf265053	-0.64966315
113	0xbddd025e	-0.10791467
114	0xbe216b67	-0.15763627
115	0xbdccc9ec	-0.09999451
116	0xbf0eb649	-0.55746895
117	0xbf42daf8	-0.7611537
118	0x3c418c9e	0.011813311
119	0xbf860320	-1.0469704
120	0xbee024e8	-0.43778157
121	0x3ea94db9	0.3306711
122	0x3f0e8add	0.5568064
123	0xbdbe9150	-0.0930506
124	0xbe03e602	-0.1288071
125	0x3d7b5f3f	0.06137013
126	0xbe3a3b70	-0.18186736
127	0xbfdbc43d	-1.7169262
128	0xbdcda8bc	-0.10041949
129	0xbcb821d8	-0.022477075
130	0xbd6fd2c7	-0.058550622
131	0x3dbcf6ee	0.092267856
132	0x3d3d5582	0.046224125
133	0xbded50f8	-0.11587709
134	0x3ca61bac	0.020276867
135	0x3d47a6e1	0.048743133
136	0xbc008639	-0.007844501
137	0xbdfda0c9	-0.12384183
138	0xbbdc1b59	-0.0067171273
139	0x3d2fa309	0.04288009
140	0xbda8580a	-0.08219917
141	0xbd637c29	-0.05553833
142	0x3c9c24d0	0.019060522
143	0xbd197d9f	-0.037473317
144	0xbe15f787	-0.14645205
145	0x3d204b8a	0.03913454
146	0xbdea1b16	-0.114309475
147	0x3d8fdc12	0.07024397
148	0xbd314513	-0.043278765
149	0x3ca1af06	0.019736778
150	0xbdcaff40	-0.09911966
151	0xbc9bb520	-0.019007266
152	0xbdaa393c	-0.08311698
153	0xbd0fb398	-0.035083383
154	0x3aaca40d	0.001317145
155	0xbe09b4ad	-0.13447829
156	0x3d43dd88	0.04781869
157	0xbd38602f	-0.045013603
158	0xbdb0700c	-0.08615121
159	0xbca7cc7a	-0.020483244
160	0xbd98d01c	-0.07461569
161	0xbdc8dce7	-0.09807759
162	0xbdeae919	-0.11470241
163	0x3cdae72f	0.026721565
164	0x3d771393	0.0603214
165	0xbc60b198	-0.013714217
166	0xbc9835f3	-0.018580412
167	0xbd9761fa	-0.073917344
168	0xbd8e70d0	-0.06955111
169	0x3c948fd6	0.018134993
170	0xbc3d1ca0	-0.011542469
171	0x3dbcf75a	0.09226866
172	0x39dd3fff	0.00042200086
173	0xbd9ac707	-0.07557493
174	0x3cf42316	0.029801887
175	0xbd9be9b9	-0.076129384
176	0xbddde0ad	-0.10833869
177	0xbd36199e	-0.044458024
178	0x3d9c65b8	0.07636589
179	0xbe5c74ad	-0.21528883
180	0x3d2c3565	0.04204311
181	0xbe1588eb	-0.14603011
182	0xbd4ba5a3	-0.04971851
183	0xbe35b2ae	-0.17743942
184	0xbdf34d36	-0.11879961
185	0x3ca1bc5b	0.019743135
186	0x3d96b644	0.07358983
187	0xbba7eca9	-0.0051246476
188	0xbe2228e4	-0.15835911
189	0xbaf49149	-0.0018659021
190	0x3da569fd	0.08076856
191	0xbe076712	-0.13222912
192	0x3e8a026a	0.26954967
193	0x3f4c3ffb	0.79785126
194	0x3f5925e1	0.84823424
195	0xbeae2fc7	-0.34020826
196	0xbc305cc9	-0.010764309
197	0x3f2eba52	0.6825305
198	0xbed0c820	-0.40777683
199	0xbf41d16a	-0.75710166
200	0x3f4d2a4c	0.80142665
201	0xbcac3816	-0.021022838
202	0xbd89474a	-0.067030504
203	0x3e263967	0.16232835
204	0x3ed24afb	0.4107283
205	0xbfbd3770	-1.4782543
206	0x3cb36b00	0.021901608
207	0x3ee841f1	0.4536281
208	0x3e86afaf	0.2630591
209	0x3dbf6034	0.09344521
210	0x3f73bd96	0.9521116
211	0x3bd881dd	0.006607278
212	0x3fa5ccbb	1.2953104
213	0xbfa40065	-1.281262
214	0xc01ca145	-2.447343
215	0x3ebcea4d	0.36897507
216	0xbea1c2be	-0.3159389
217	0x3fef5b2a	1.8699696
218	0x3e876c56	0.2644984
219	0xbe03ae43	-0.12859444
220	0xbfb1b101	-1.3882142
221	0x3ea5792c	0.3231901
222	0x3fc8c1cd	1.5684143
223	0xbf8e9254	-1.1138406
224	0xbf1ccbf8	-0.6124873
225	0x3f4e3828	0.8055444
226	0x3f879cde	1.0594747
227	0x3db44e10	0.08803952
228	0x3f8838dd	1.0642353
229	0x3e3688a7	0.17825566
230	0x3f07cbbd	0.53045255
231	0xbf776efa	-0.9665371
232	0xbddc4652	-0.107556
233	0x3df403e4	0.119148046
234	0x3fe3eb11	1.7806112
235	0x3fe2d0a6	1.7719924
236	0xbcbe094c	-0.023197792
237	0xbfa6f277	-1.3042744
238	0xbfa58c10	-1.2933369
239	0xbf918354	-1.1368203
240	0xbed1be84	-0.40965664
241	0xbf505a78	-0.81388044
242	0x3f66db8b	0.90178746
243	0xbf1b8dfe	-0.6076354
244	0xbefc4f55	-0.49279276
245	0x3f4d99da	0.80312884
246	0xbdef2fe1	-0.11679054
247	0x3eff856b	0.49906477
248	0xc008b1e1	-2.1358569
249	0xbfa2ba1d	-1.2713047
250	0x3ecab33c	0.3958987
251	0xbdf5f5e3	-0.1200979
252	0xbe57e7d7	-0.21084534
253	0x3e02c0e0	0.12768888
254	0xbfd53cc5	-1.665917
255	0x3ea2a04d	0.31762925

fc3.bias f4 [64]
0	0xbe1e3d9b	-0.15453188
1	0x3f1bc176	0.6084207
2	0x3d4f6384	0.050632015
3	0x3f955245	1.1665732
4	0x3f3e4cfc	0.7433622
5	0x3eb86a2c	0.36018503
6	0x3bffcc46	0.0078063337
7	0xbdfa0059	-0.122070976
8	0xbfa8a0d8	-1.3174086
9	0xbf115f3b	-0.56785935
10	0xbfcff741	-1.6247331
11	0xbd0badbf	-0.034101244
12	0x3f1503bc	0.58208823
13	0x3f02ed8d	0.51143724
14	0x3f0e4512	0.5557414
15	0x3c878911	0.01654485
16	0x3f167bdc	0.58782744
17	0xbf3c0834	-0.73450017
18	0xbfd23325	-1.6421858
19	0xbf8e3f75	-1.1113116
20	0x4023918f	2.5557592
21	0xbe1ee737	-0.15517889
22	0xbe174b4a	-0.14774814
23	0xbf5d64cb	-0.8648192
24	0xbdf82dd8	-0.12118119
25	0x3d47488b	0.048653167
26	0xbf1c0930	-0.6095152
27	0xbd5f8391	-0.05456883
28	0xc092cc1e	-4.5874166
29	0x3eac2974	0.33625376
30	0xbdc0bbce	-0.09410821
31	0xc0390355	-2.8908284
32	0xbddd4e76	-0.10805981
33	0x3e7092d6	0.23493513
34	0xbfa68bc1	-1.30114
35	0xbea81173	-0.32825813
36	0x3e060ba7	0.13090383
37	0x3fb0557a	1.3776085
38	0xbe643227	-0.22284757
39	0xbe0e56e0	-0.13900328
40	0x3f9cb7cd	1.2243592
41	0xbfba0915	-1.4534022
42	0xbfc634f8	-1.5484915
43	0xbc08669a	-0.008325243
44	0x3fcd3e4f	1.603464
45	0x3f21f776	0.6326822
46	0xbd5e6c84	-0.054302707
47	0xbfa961f7	-1.3233021
48	0xbc443652	-0.011975842
49	0x3efa3a79	0.48872736
50	0xbf3225ab	-0.69588727
51	0xbf97ac1c	-1.1849399
52	0xbfd54500	-1.6661682
53	0xbd00f877	-0.031486955
54	0x40338fb1	2.8056452
55	0xbe53f672	-0.2069948
56	0x3ed704c9	0.41995838
57	0xbe2061ca	-0.15662304
58	0x401651c9	2.3487418
59	0xbd1da1b0	-0.038484275
60	0x3e9d2b96	0.30697316
61	0x3ec12bfb	0.37728867
62	0xbe48e969	-0.19620289
63	0xbf6474d6	-0.8924078

q_out.weight f4 [1, 64]
0	0x3cbd5694	0.023112573
1	0x3c2321fb	0.009956832
2	0x3c891da4	0.016737767
3	0x3d608514	0.054814413
4	0xbd4ce2d3	-0.050021004
5	0xbe87cac6	-0.2652189
6	0x3cde5fb0	0.027145237
7	0x3d10f62e	0.035391025
8	0xbdececf1	-0.115686305
9	0xbf85e03a	-1.0459054
10	0xbe76dc18	-0.24107397
11	0xbede66ad	-0.4343771
12	0x3e31831c	0.1733517
13	0xbd16216a	-0.03665296
14	0x3e06befa	0.1315879
15	0xbde0ff85	-0.109862365
16	0xbe8bf5b0	-0.27335882
17	0xbea2a493	-0.31766185
18	0xbea16155	-0.3151957
19	0xbe944d61	-0.28965285
20	0x3da16273	0.07880106
21	0xbceeb71a	-0.029140044
22	0x3c2f908a	0.010715613
23	0xbdae0345	-0.08496717
24	0xbc19c651	-0.009385661
25	0x3c37f469	0.0112277055
26	0xbdb7e122	-0.089784876
27	0x3d31cce4	0.04340829
28	0xbe2245f8	-0.15847003
29	0xbd538a2a	-0.051645435
30	0x3cf5b096	0.02999143
31	0xbd921902	-0.07133676
32	0x38a8d146	8.0498445e-05
33	0xbe391f4a	-0.18078342
34	0xbd9edac9	-0.07756574
35	0x3e1e6d82	0.15471461
36	0xbda4bcfd	-0.08043859
37	0x3e9baedf	0.30406854
38	0x3ca2fc66	0.019895744
39	0x3d730173	0.059327554
40	0xbc535c79	-0.012900465
41	0xbd84a71f	-0.06477188
42	0xbed17875	-0.40912214
43	0xbd36e941	-0.044656042
44	0xbe3f25b1	-0.18666722
45	0x3d324711	0.043524805
46	0x3dd931bf	0.106051914
47	0xbd3d364b	-0.046194356
48	0xbb9f2f94	-0.0048579667
49	0x3b71a7a6	0.0036873608
50	0xbf1df836	-0.61706865
51	0xbe388dfc	-0.18022913
52	0x3dd31d70	0.10308349
53	0x3cec3887	0.028835548
54	0xbe8b1e8c	-0.27171743
55	0xbc505e92	-0.01271786
56	0xbce724f4	-0.028215863
57	0x3d010e09	0.031507526
58	0x3cff706a	0.031181533
59	0x3bee4161	0.0072709774
60	0x3d5d8cf5	0.054089505
61	0xbb6378be	-0.003470942
62	0x3cc593d7	0.024118347
63	0xbf4c3791	-0.7977229
